node {
  name: "train_attr/min_nbor_dist"
  op: "Const"
  attr {
    key: "dtype"
    value {
      type: DT_DOUBLE
    }
  }
  attr {
    key: "value"
    value {
      tensor {
        dtype: DT_DOUBLE
        tensor_shape {
        }
        double_val: 0.8543231368574147
      }
    }
  }
}
node {
  name: "train_attr/training_script"
  op: "Const"
  attr {
    key: "dtype"
    value {
      type: DT_STRING
    }
  }
  attr {
    key: "value"
    value {
      tensor {
        dtype: DT_STRING
        tensor_shape {
        }
        string_val: "…"
      }
    }
  }
}
node {
  name: "dipole_charge/model_type"
  op: "Const"
  attr {
    key: "dtype"
    value {
      type: DT_STRING
    }
  }
  attr {
    key: "value"
    value {
      tensor {
        dtype: DT_STRING
        tensor_shape {
        }
        string_val: "original_model"
      }
    }
  }
}
node {
  name: "dipole_charge/t_box"
  op: "Placeholder"
  attr {
    key: "dtype"
    value {
      type: DT_DOUBLE
    }
  }
  attr {
    key: "shape"
    value {
      shape {
        dim {
          size: -1
        }
      }
    }
  }
}
node {
  name: "dipole_charge/t_coord"
  op: "Placeholder"
  attr {
    key: "dtype"
    value {
      type: DT_DOUBLE
    }
  }
  attr {
    key: "shape"
    value {
      shape {
        dim {
          size: -1
        }
      }
    }
  }
}
node {
  name: "dipole_charge/t_type"
  op: "Placeholder"
  attr {
    key: "dtype"
    value {
      type: DT_INT32
    }
  }
  attr {
    key: "shape"
    value {
      shape {
        dim {
          size: -1
        }
      }
    }
  }
}
node {
  name: "dipole_charge/t_natoms"
  op: "Placeholder"
  attr {
    key: "dtype"
    value {
      type: DT_INT32
    }
  }
  attr {
    key: "shape"
    value {
      shape {
        dim {
          size: 4
        }
      }
    }
  }
}
node {
  name: "dipole_charge/t_mesh"
  op: "Placeholder"
  attr {
    key: "dtype"
    value {
      type: DT_INT32
    }
  }
  attr {
    key: "shape"
    value {
      shape {
        dim {
          size: -1
        }
      }
    }
  }
}
node {
  name: "dipole_charge/model_attr/tmap"
  op: "Const"
  attr {
    key: "dtype"
    value {
      type: DT_STRING
    }
  }
  attr {
    key: "value"
    value {
      tensor {
        dtype: DT_STRING
        tensor_shape {
        }
        string_val: "O H"
      }
    }
  }
}
node {
  name: "dipole_charge/model_attr/sel_type"
  op: "Const"
  attr {
    key: "dtype"
    value {
      type: DT_INT32
    }
  }
  attr {
    key: "value"
    value {
      tensor {
        dtype: DT_INT32
        tensor_shape {
          dim {
            size: 1
          }
        }
        int_val: 0
      }
    }
  }
}
node {
  name: "dipole_charge/model_attr/model_type"
  op: "Const"
  attr {
    key: "dtype"
    value {
      type: DT_STRING
    }
  }
  attr {
    key: "value"
    value {
      tensor {
        dtype: DT_STRING
        tensor_shape {
        }
        string_val: "dipole"
      }
    }
  }
}
node {
  name: "dipole_charge/model_attr/model_version"
  op: "Const"
  attr {
    key: "dtype"
    value {
      type: DT_STRING
    }
  }
  attr {
    key: "value"
    value {
      tensor {
        dtype: DT_STRING
        tensor_shape {
        }
        string_val: "1.1"
      }
    }
  }
}
node {
  name: "dipole_charge/model_attr/output_dim"
  op: "Const"
  attr {
    key: "dtype"
    value {
      type: DT_INT32
    }
  }
  attr {
    key: "value"
    value {
      tensor {
        dtype: DT_INT32
        tensor_shape {
        }
        int_val: 3
      }
    }
  }
}
node {
  name: "dipole_charge/strided_slice/stack"
  op: "Const"
  attr {
    key: "dtype"
    value {
      type: DT_INT32
    }
  }
  attr {
    key: "value"
    value {
      tensor {
        dtype: DT_INT32
        tensor_shape {
          dim {
            size: 1
          }
        }
        int_val: 2
      }
    }
  }
}
node {
  name: "dipole_charge/strided_slice/stack_1"
  op: "Const"
  attr {
    key: "dtype"
    value {
      type: DT_INT32
    }
  }
  attr {
    key: "value"
    value {
      tensor {
        dtype: DT_INT32
        tensor_shape {
          dim {
            size: 1
          }
        }
        int_val: 3
      }
    }
  }
}
node {
  name: "dipole_charge/strided_slice/stack_2"
  op: "Const"
  attr {
    key: "dtype"
    value {
      type: DT_INT32
    }
  }
  attr {
    key: "value"
    value {
      tensor {
        dtype: DT_INT32
        tensor_shape {
          dim {
            size: 1
          }
        }
        int_val: 1
      }
    }
  }
}
node {
  name: "dipole_charge/strided_slice"
  op: "StridedSlice"
  input: "dipole_charge/t_natoms"
  input: "dipole_charge/strided_slice/stack"
  input: "dipole_charge/strided_slice/stack_1"
  input: "dipole_charge/strided_slice/stack_2"
  attr {
    key: "Index"
    value {
      type: DT_INT32
    }
  }
  attr {
    key: "T"
    value {
      type: DT_INT32
    }
  }
  attr {
    key: "begin_mask"
    value {
      i: 0
    }
  }
  attr {
    key: "ellipsis_mask"
    value {
      i: 0
    }
  }
  attr {
    key: "end_mask"
    value {
      i: 0
    }
  }
  attr {
    key: "new_axis_mask"
    value {
      i: 0
    }
  }
  attr {
    key: "shrink_axis_mask"
    value {
      i: 1
    }
  }
}
node {
  name: "dipole_charge/add/x"
  op: "Const"
  attr {
    key: "dtype"
    value {
      type: DT_INT32
    }
  }
  attr {
    key: "value"
    value {
      tensor {
        dtype: DT_INT32
        tensor_shape {
        }
        int_val: 0
      }
    }
  }
}
node {
  name: "dipole_charge/add"
  op: "AddV2"
  input: "dipole_charge/add/x"
  input: "dipole_charge/strided_slice"
  attr {
    key: "T"
    value {
      type: DT_INT32
    }
  }
}
node {
  name: "dipole_charge/strided_slice_1/stack"
  op: "Const"
  attr {
    key: "dtype"
    value {
      type: DT_INT32
    }
  }
  attr {
    key: "value"
    value {
      tensor {
        dtype: DT_INT32
        tensor_shape {
          dim {
            size: 1
          }
        }
        int_val: 1
      }
    }
  }
}
node {
  name: "dipole_charge/strided_slice_1/stack_1"
  op: "Const"
  attr {
    key: "dtype"
    value {
      type: DT_INT32
    }
  }
  attr {
    key: "value"
    value {
      tensor {
        dtype: DT_INT32
        tensor_shape {
          dim {
            size: 1
          }
        }
        int_val: 2
      }
    }
  }
}
node {
  name: "dipole_charge/strided_slice_1/stack_2"
  op: "Const"
  attr {
    key: "dtype"
    value {
      type: DT_INT32
    }
  }
  attr {
    key: "value"
    value {
      tensor {
        dtype: DT_INT32
        tensor_shape {
          dim {
            size: 1
          }
        }
        int_val: 1
      }
    }
  }
}
node {
  name: "dipole_charge/strided_slice_1"
  op: "StridedSlice"
  input: "dipole_charge/t_natoms"
  input: "dipole_charge/strided_slice_1/stack"
  input: "dipole_charge/strided_slice_1/stack_1"
  input: "dipole_charge/strided_slice_1/stack_2"
  attr {
    key: "Index"
    value {
      type: DT_INT32
    }
  }
  attr {
    key: "T"
    value {
      type: DT_INT32
    }
  }
  attr {
    key: "begin_mask"
    value {
      i: 0
    }
  }
  attr {
    key: "ellipsis_mask"
    value {
      i: 0
    }
  }
  attr {
    key: "end_mask"
    value {
      i: 0
    }
  }
  attr {
    key: "new_axis_mask"
    value {
      i: 0
    }
  }
  attr {
    key: "shrink_axis_mask"
    value {
      i: 1
    }
  }
}
node {
  name: "dipole_charge/mul/y"
  op: "Const"
  attr {
    key: "dtype"
    value {
      type: DT_INT32
    }
  }
  attr {
    key: "value"
    value {
      tensor {
        dtype: DT_INT32
        tensor_shape {
        }
        int_val: 3
      }
    }
  }
}
node {
  name: "dipole_charge/mul"
  op: "Mul"
  input: "dipole_charge/strided_slice_1"
  input: "dipole_charge/mul/y"
  attr {
    key: "T"
    value {
      type: DT_INT32
    }
  }
}
node {
  name: "dipole_charge/Reshape/shape/0"
  op: "Const"
  attr {
    key: "dtype"
    value {
      type: DT_INT32
    }
  }
  attr {
    key: "value"
    value {
      tensor {
        dtype: DT_INT32
        tensor_shape {
        }
        int_val: -1
      }
    }
  }
}
node {
  name: "dipole_charge/Reshape/shape"
  op: "Pack"
  input: "dipole_charge/Reshape/shape/0"
  input: "dipole_charge/mul"
  attr {
    key: "N"
    value {
      i: 2
    }
  }
  attr {
    key: "T"
    value {
      type: DT_INT32
    }
  }
  attr {
    key: "axis"
    value {
      i: 0
    }
  }
}
node {
  name: "dipole_charge/Reshape"
  op: "Reshape"
  input: "dipole_charge/t_coord"
  input: "dipole_charge/Reshape/shape"
  attr {
    key: "T"
    value {
      type: DT_DOUBLE
    }
  }
  attr {
    key: "Tshape"
    value {
      type: DT_INT32
    }
  }
}
node {
  name: "dipole_charge/strided_slice_2/stack"
  op: "Const"
  attr {
    key: "dtype"
    value {
      type: DT_INT32
    }
  }
  attr {
    key: "value"
    value {
      tensor {
        dtype: DT_INT32
        tensor_shape {
          dim {
            size: 1
          }
        }
        int_val: 1
      }
    }
  }
}
node {
  name: "dipole_charge/strided_slice_2/stack_1"
  op: "Const"
  attr {
    key: "dtype"
    value {
      type: DT_INT32
    }
  }
  attr {
    key: "value"
    value {
      tensor {
        dtype: DT_INT32
        tensor_shape {
          dim {
            size: 1
          }
        }
        int_val: 2
      }
    }
  }
}
node {
  name: "dipole_charge/strided_slice_2/stack_2"
  op: "Const"
  attr {
    key: "dtype"
    value {
      type: DT_INT32
    }
  }
  attr {
    key: "value"
    value {
      tensor {
        dtype: DT_INT32
        tensor_shape {
          dim {
            size: 1
          }
        }
        int_val: 1
      }
    }
  }
}
node {
  name: "dipole_charge/strided_slice_2"
  op: "StridedSlice"
  input: "dipole_charge/t_natoms"
  input: "dipole_charge/strided_slice_2/stack"
  input: "dipole_charge/strided_slice_2/stack_1"
  input: "dipole_charge/strided_slice_2/stack_2"
  attr {
    key: "Index"
    value {
      type: DT_INT32
    }
  }
  attr {
    key: "T"
    value {
      type: DT_INT32
    }
  }
  attr {
    key: "begin_mask"
    value {
      i: 0
    }
  }
  attr {
    key: "ellipsis_mask"
    value {
      i: 0
    }
  }
  attr {
    key: "end_mask"
    value {
      i: 0
    }
  }
  attr {
    key: "new_axis_mask"
    value {
      i: 0
    }
  }
  attr {
    key: "shrink_axis_mask"
    value {
      i: 1
    }
  }
}
node {
  name: "dipole_charge/Reshape_1/shape/0"
  op: "Const"
  attr {
    key: "dtype"
    value {
      type: DT_INT32
    }
  }
  attr {
    key: "value"
    value {
      tensor {
        dtype: DT_INT32
        tensor_shape {
        }
        int_val: -1
      }
    }
  }
}
node {
  name: "dipole_charge/Reshape_1/shape"
  op: "Pack"
  input: "dipole_charge/Reshape_1/shape/0"
  input: "dipole_charge/strided_slice_2"
  attr {
    key: "N"
    value {
      i: 2
    }
  }
  attr {
    key: "T"
    value {
      type: DT_INT32
    }
  }
  attr {
    key: "axis"
    value {
      i: 0
    }
  }
}
node {
  name: "dipole_charge/Reshape_1"
  op: "Reshape"
  input: "dipole_charge/t_type"
  input: "dipole_charge/Reshape_1/shape"
  attr {
    key: "T"
    value {
      type: DT_INT32
    }
  }
  attr {
    key: "Tshape"
    value {
      type: DT_INT32
    }
  }
}
node {
  name: "dipole_charge/descrpt_attr/rcut"
  op: "Const"
  attr {
    key: "dtype"
    value {
      type: DT_DOUBLE
    }
  }
  attr {
    key: "value"
    value {
      tensor {
        dtype: DT_DOUBLE
        tensor_shape {
        }
        double_val: 6.0
      }
    }
  }
}
node {
  name: "dipole_charge/descrpt_attr/ntypes"
  op: "Const"
  attr {
    key: "dtype"
    value {
      type: DT_INT32
    }
  }
  attr {
    key: "value"
    value {
      tensor {
        dtype: DT_INT32
        tensor_shape {
        }
        int_val: 2
      }
    }
  }
}
node {
  name: "dipole_charge/descrpt_attr/sel"
  op: "Const"
  attr {
    key: "dtype"
    value {
      type: DT_INT32
    }
  }
  attr {
    key: "value"
    value {
      tensor {
        dtype: DT_INT32
        tensor_shape {
          dim {
            size: 2
          }
        }
        tensor_content: ".\000\000\000\\\000\000\000"
      }
    }
  }
}
node {
  name: "dipole_charge/descrpt_attr/original_sel"
  op: "Const"
  attr {
    key: "dtype"
    value {
      type: DT_INT32
    }
  }
  attr {
    key: "value"
    value {
      tensor {
        dtype: DT_INT32
        tensor_shape {
          dim {
            size: 2
          }
        }
        tensor_content: ".\000\000\000\\\000\000\000"
      }
    }
  }
}
node {
  name: "dipole_charge/descrpt_attr/t_avg"
  op: "Const"
  attr {
    key: "dtype"
    value {
      type: DT_DOUBLE
    }
  }
  attr {
    key: "value"
    value {
      tensor {
        dtype: DT_DOUBLE
        tensor_shape {
          dim {
            size: 2
          }
          dim {
            size: 552
          }
        }
        tensor_content: "…"
      }
    }
  }
}
node {
  name: "dipole_charge/descrpt_attr/t_avg/read"
  op: "Identity"
  input: "dipole_charge/descrpt_attr/t_avg"
  attr {
    key: "T"
    value {
      type: DT_DOUBLE
    }
  }
  attr {
    key: "_class"
    value {
      list {
        s: "loc:@dipole_charge/descrpt_attr/t_avg"
      }
    }
  }
}
node {
  name: "dipole_charge/descrpt_attr/t_std"
  op: "Const"
  attr {
    key: "dtype"
    value {
      type: DT_DOUBLE
    }
  }
  attr {
    key: "value"
    value {
      tensor {
        dtype: DT_DOUBLE
        tensor_shape {
          dim {
            size: 2
          }
          dim {
            size: 552
          }
        }
        tensor_content: "…"
      }
    }
  }
}
node {
  name: "dipole_charge/descrpt_attr/t_std/read"
  op: "Identity"
  input: "dipole_charge/descrpt_attr/t_std"
  attr {
    key: "T"
    value {
      type: DT_DOUBLE
    }
  }
  attr {
    key: "_class"
    value {
      list {
        s: "loc:@dipole_charge/descrpt_attr/t_std"
      }
    }
  }
}
node {
  name: "dipole_charge/strided_slice_4/stack"
  op: "Const"
  input: "^dipole_charge/descrpt_attr/original_sel"
  input: "^dipole_charge/descrpt_attr/sel"
  attr {
    key: "dtype"
    value {
      type: DT_INT32
    }
  }
  attr {
    key: "value"
    value {
      tensor {
        dtype: DT_INT32
        tensor_shape {
          dim {
            size: 1
          }
        }
        int_val: 1
      }
    }
  }
}
node {
  name: "dipole_charge/strided_slice_4/stack_1"
  op: "Const"
  input: "^dipole_charge/descrpt_attr/original_sel"
  input: "^dipole_charge/descrpt_attr/sel"
  attr {
    key: "dtype"
    value {
      type: DT_INT32
    }
  }
  attr {
    key: "value"
    value {
      tensor {
        dtype: DT_INT32
        tensor_shape {
          dim {
            size: 1
          }
        }
        int_val: 2
      }
    }
  }
}
node {
  name: "dipole_charge/strided_slice_4/stack_2"
  op: "Const"
  input: "^dipole_charge/descrpt_attr/original_sel"
  input: "^dipole_charge/descrpt_attr/sel"
  attr {
    key: "dtype"
    value {
      type: DT_INT32
    }
  }
  attr {
    key: "value"
    value {
      tensor {
        dtype: DT_INT32
        tensor_shape {
          dim {
            size: 1
          }
        }
        int_val: 1
      }
    }
  }
}
node {
  name: "dipole_charge/strided_slice_4"
  op: "StridedSlice"
  input: "dipole_charge/t_natoms"
  input: "dipole_charge/strided_slice_4/stack"
  input: "dipole_charge/strided_slice_4/stack_1"
  input: "dipole_charge/strided_slice_4/stack_2"
  attr {
    key: "Index"
    value {
      type: DT_INT32
    }
  }
  attr {
    key: "T"
    value {
      type: DT_INT32
    }
  }
  attr {
    key: "begin_mask"
    value {
      i: 0
    }
  }
  attr {
    key: "ellipsis_mask"
    value {
      i: 0
    }
  }
  attr {
    key: "end_mask"
    value {
      i: 0
    }
  }
  attr {
    key: "new_axis_mask"
    value {
      i: 0
    }
  }
  attr {
    key: "shrink_axis_mask"
    value {
      i: 1
    }
  }
}
node {
  name: "dipole_charge/mul_1/y"
  op: "Const"
  input: "^dipole_charge/descrpt_attr/original_sel"
  input: "^dipole_charge/descrpt_attr/sel"
  attr {
    key: "dtype"
    value {
      type: DT_INT32
    }
  }
  attr {
    key: "value"
    value {
      tensor {
        dtype: DT_INT32
        tensor_shape {
        }
        int_val: 3
      }
    }
  }
}
node {
  name: "dipole_charge/mul_1"
  op: "Mul"
  input: "dipole_charge/strided_slice_4"
  input: "dipole_charge/mul_1/y"
  attr {
    key: "T"
    value {
      type: DT_INT32
    }
  }
}
node {
  name: "dipole_charge/Reshape_2/shape/0"
  op: "Const"
  input: "^dipole_charge/descrpt_attr/original_sel"
  input: "^dipole_charge/descrpt_attr/sel"
  attr {
    key: "dtype"
    value {
      type: DT_INT32
    }
  }
  attr {
    key: "value"
    value {
      tensor {
        dtype: DT_INT32
        tensor_shape {
        }
        int_val: -1
      }
    }
  }
}
node {
  name: "dipole_charge/Reshape_2/shape"
  op: "Pack"
  input: "dipole_charge/Reshape_2/shape/0"
  input: "dipole_charge/mul_1"
  attr {
    key: "N"
    value {
      i: 2
    }
  }
  attr {
    key: "T"
    value {
      type: DT_INT32
    }
  }
  attr {
    key: "axis"
    value {
      i: 0
    }
  }
}
node {
  name: "dipole_charge/Reshape_2"
  op: "Reshape"
  input: "dipole_charge/Reshape"
  input: "dipole_charge/Reshape_2/shape"
  attr {
    key: "T"
    value {
      type: DT_DOUBLE
    }
  }
  attr {
    key: "Tshape"
    value {
      type: DT_INT32
    }
  }
}
node {
  name: "dipole_charge/Reshape_3/shape"
  op: "Const"
  attr {
    key: "dtype"
    value {
      type: DT_INT32
    }
  }
  attr {
    key: "value"
    value {
      tensor {
        dtype: DT_INT32
        tensor_shape {
          dim {
            size: 2
          }
        }
        tensor_content: "\377\377\377\377\t\000\000\000"
      }
    }
  }
}
node {
  name: "dipole_charge/Reshape_3"
  op: "Reshape"
  input: "dipole_charge/t_box"
  input: "dipole_charge/Reshape_3/shape"
  attr {
    key: "T"
    value {
      type: DT_DOUBLE
    }
  }
  attr {
    key: "Tshape"
    value {
      type: DT_INT32
    }
  }
}
node {
  name: "dipole_charge/strided_slice_5/stack"
  op: "Const"
  attr {
    key: "dtype"
    value {
      type: DT_INT32
    }
  }
  attr {
    key: "value"
    value {
      tensor {
        dtype: DT_INT32
        tensor_shape {
          dim {
            size: 1
          }
        }
        int_val: 1
      }
    }
  }
}
node {
  name: "dipole_charge/strided_slice_5/stack_1"
  op: "Const"
  attr {
    key: "dtype"
    value {
      type: DT_INT32
    }
  }
  attr {
    key: "value"
    value {
      tensor {
        dtype: DT_INT32
        tensor_shape {
          dim {
            size: 1
          }
        }
        int_val: 2
      }
    }
  }
}
node {
  name: "dipole_charge/strided_slice_5/stack_2"
  op: "Const"
  attr {
    key: "dtype"
    value {
      type: DT_INT32
    }
  }
  attr {
    key: "value"
    value {
      tensor {
        dtype: DT_INT32
        tensor_shape {
          dim {
            size: 1
          }
        }
        int_val: 1
      }
    }
  }
}
node {
  name: "dipole_charge/strided_slice_5"
  op: "StridedSlice"
  input: "dipole_charge/t_natoms"
  input: "dipole_charge/strided_slice_5/stack"
  input: "dipole_charge/strided_slice_5/stack_1"
  input: "dipole_charge/strided_slice_5/stack_2"
  attr {
    key: "Index"
    value {
      type: DT_INT32
    }
  }
  attr {
    key: "T"
    value {
      type: DT_INT32
    }
  }
  attr {
    key: "begin_mask"
    value {
      i: 0
    }
  }
  attr {
    key: "ellipsis_mask"
    value {
      i: 0
    }
  }
  attr {
    key: "end_mask"
    value {
      i: 0
    }
  }
  attr {
    key: "new_axis_mask"
    value {
      i: 0
    }
  }
  attr {
    key: "shrink_axis_mask"
    value {
      i: 1
    }
  }
}
node {
  name: "dipole_charge/Reshape_4/shape/0"
  op: "Const"
  attr {
    key: "dtype"
    value {
      type: DT_INT32
    }
  }
  attr {
    key: "value"
    value {
      tensor {
        dtype: DT_INT32
        tensor_shape {
        }
        int_val: -1
      }
    }
  }
}
node {
  name: "dipole_charge/Reshape_4/shape"
  op: "Pack"
  input: "dipole_charge/Reshape_4/shape/0"
  input: "dipole_charge/strided_slice_5"
  attr {
    key: "N"
    value {
      i: 2
    }
  }
  attr {
    key: "T"
    value {
      type: DT_INT32
    }
  }
  attr {
    key: "axis"
    value {
      i: 0
    }
  }
}
node {
  name: "dipole_charge/Reshape_4"
  op: "Reshape"
  input: "dipole_charge/Reshape_1"
  input: "dipole_charge/Reshape_4/shape"
  attr {
    key: "T"
    value {
      type: DT_INT32
    }
  }
  attr {
    key: "Tshape"
    value {
      type: DT_INT32
    }
  }
}
node {
  name: "dipole_charge/ProdEnvMatA"
  op: "ProdEnvMatA"
  input: "dipole_charge/Reshape_2"
  input: "dipole_charge/Reshape_4"
  input: "dipole_charge/t_natoms"
  input: "dipole_charge/Reshape_3"
  input: "dipole_charge/t_mesh"
  input: "dipole_charge/descrpt_attr/t_avg/read"
  input: "dipole_charge/descrpt_attr/t_std/read"
  attr {
    key: "T"
    value {
      type: DT_DOUBLE
    }
  }
  attr {
    key: "rcut_a"
    value {
      f: -1.0
    }
  }
  attr {
    key: "rcut_r"
    value {
      f: 6.0
    }
  }
  attr {
    key: "rcut_r_smth"
    value {
      f: 0.5
    }
  }
  attr {
    key: "sel_a"
    value {
      list {
        i: 46
        i: 92
      }
    }
  }
  attr {
    key: "sel_r"
    value {
      list {
        i: 0
        i: 0
      }
    }
  }
}
node {
  name: "dipole_charge/Reshape_5/shape"
  op: "Const"
  attr {
    key: "dtype"
    value {
      type: DT_INT32
    }
  }
  attr {
    key: "value"
    value {
      tensor {
        dtype: DT_INT32
        tensor_shape {
          dim {
            size: 2
          }
        }
        tensor_content: "\377\377\377\377(\002\000\000"
      }
    }
  }
}
node {
  name: "dipole_charge/Reshape_5"
  op: "Reshape"
  input: "dipole_charge/ProdEnvMatA"
  input: "dipole_charge/Reshape_5/shape"
  attr {
    key: "T"
    value {
      type: DT_DOUBLE
    }
  }
  attr {
    key: "Tshape"
    value {
      type: DT_INT32
    }
  }
}
node {
  name: "dipole_charge/o_rmat"
  op: "Identity"
  input: "dipole_charge/Reshape_5"
  attr {
    key: "T"
    value {
      type: DT_DOUBLE
    }
  }
}
node {
  name: "dipole_charge/o_rmat_deriv"
  op: "Identity"
  input: "dipole_charge/ProdEnvMatA:1"
  attr {
    key: "T"
    value {
      type: DT_DOUBLE
    }
  }
}
node {
  name: "dipole_charge/o_rij"
  op: "Identity"
  input: "dipole_charge/ProdEnvMatA:2"
  attr {
    key: "T"
    value {
      type: DT_DOUBLE
    }
  }
}
node {
  name: "dipole_charge/o_nlist"
  op: "Identity"
  input: "dipole_charge/ProdEnvMatA:3"
  attr {
    key: "T"
    value {
      type: DT_INT32
    }
  }
}
node {
  name: "dipole_charge/strided_slice_6/stack"
  op: "Const"
  attr {
    key: "dtype"
    value {
      type: DT_INT32
    }
  }
  attr {
    key: "value"
    value {
      tensor {
        dtype: DT_INT32
        tensor_shape {
          dim {
            size: 1
          }
        }
        int_val: 0
      }
    }
  }
}
node {
  name: "dipole_charge/strided_slice_6/stack_1"
  op: "Const"
  attr {
    key: "dtype"
    value {
      type: DT_INT32
    }
  }
  attr {
    key: "value"
    value {
      tensor {
        dtype: DT_INT32
        tensor_shape {
          dim {
            size: 1
          }
        }
        int_val: 1
      }
    }
  }
}
node {
  name: "dipole_charge/strided_slice_6/stack_2"
  op: "Const"
  attr {
    key: "dtype"
    value {
      type: DT_INT32
    }
  }
  attr {
    key: "value"
    value {
      tensor {
        dtype: DT_INT32
        tensor_shape {
          dim {
            size: 1
          }
        }
        int_val: 1
      }
    }
  }
}
node {
  name: "dipole_charge/strided_slice_6"
  op: "StridedSlice"
  input: "dipole_charge/t_natoms"
  input: "dipole_charge/strided_slice_6/stack"
  input: "dipole_charge/strided_slice_6/stack_1"
  input: "dipole_charge/strided_slice_6/stack_2"
  attr {
    key: "Index"
    value {
      type: DT_INT32
    }
  }
  attr {
    key: "T"
    value {
      type: DT_INT32
    }
  }
  attr {
    key: "begin_mask"
    value {
      i: 0
    }
  }
  attr {
    key: "ellipsis_mask"
    value {
      i: 0
    }
  }
  attr {
    key: "end_mask"
    value {
      i: 0
    }
  }
  attr {
    key: "new_axis_mask"
    value {
      i: 0
    }
  }
  attr {
    key: "shrink_axis_mask"
    value {
      i: 1
    }
  }
}
node {
  name: "dipole_charge/Reshape_6/shape/0"
  op: "Const"
  attr {
    key: "dtype"
    value {
      type: DT_INT32
    }
  }
  attr {
    key: "value"
    value {
      tensor {
        dtype: DT_INT32
        tensor_shape {
        }
        int_val: -1
      }
    }
  }
}
node {
  name: "dipole_charge/Reshape_6/shape/2"
  op: "Const"
  attr {
    key: "dtype"
    value {
      type: DT_INT32
    }
  }
  attr {
    key: "value"
    value {
      tensor {
        dtype: DT_INT32
        tensor_shape {
        }
        int_val: 552
      }
    }
  }
}
node {
  name: "dipole_charge/Reshape_6/shape"
  op: "Pack"
  input: "dipole_charge/Reshape_6/shape/0"
  input: "dipole_charge/strided_slice_6"
  input: "dipole_charge/Reshape_6/shape/2"
  attr {
    key: "N"
    value {
      i: 3
    }
  }
  attr {
    key: "T"
    value {
      type: DT_INT32
    }
  }
  attr {
    key: "axis"
    value {
      i: 0
    }
  }
}
node {
  name: "dipole_charge/Reshape_6"
  op: "Reshape"
  input: "dipole_charge/o_rmat"
  input: "dipole_charge/Reshape_6/shape"
  attr {
    key: "T"
    value {
      type: DT_DOUBLE
    }
  }
  attr {
    key: "Tshape"
    value {
      type: DT_INT32
    }
  }
}
node {
  name: "dipole_charge/strided_slice_7/stack"
  op: "Const"
  attr {
    key: "dtype"
    value {
      type: DT_INT32
    }
  }
  attr {
    key: "value"
    value {
      tensor {
        dtype: DT_INT32
        tensor_shape {
          dim {
            size: 1
          }
        }
        int_val: 2
      }
    }
  }
}
node {
  name: "dipole_charge/strided_slice_7/stack_1"
  op: "Const"
  attr {
    key: "dtype"
    value {
      type: DT_INT32
    }
  }
  attr {
    key: "value"
    value {
      tensor {
        dtype: DT_INT32
        tensor_shape {
          dim {
            size: 1
          }
        }
        int_val: 3
      }
    }
  }
}
node {
  name: "dipole_charge/strided_slice_7/stack_2"
  op: "Const"
  attr {
    key: "dtype"
    value {
      type: DT_INT32
    }
  }
  attr {
    key: "value"
    value {
      tensor {
        dtype: DT_INT32
        tensor_shape {
          dim {
            size: 1
          }
        }
        int_val: 1
      }
    }
  }
}
node {
  name: "dipole_charge/strided_slice_7"
  op: "StridedSlice"
  input: "dipole_charge/t_natoms"
  input: "dipole_charge/strided_slice_7/stack"
  input: "dipole_charge/strided_slice_7/stack_1"
  input: "dipole_charge/strided_slice_7/stack_2"
  attr {
    key: "Index"
    value {
      type: DT_INT32
    }
  }
  attr {
    key: "T"
    value {
      type: DT_INT32
    }
  }
  attr {
    key: "begin_mask"
    value {
      i: 0
    }
  }
  attr {
    key: "ellipsis_mask"
    value {
      i: 0
    }
  }
  attr {
    key: "end_mask"
    value {
      i: 0
    }
  }
  attr {
    key: "new_axis_mask"
    value {
      i: 0
    }
  }
  attr {
    key: "shrink_axis_mask"
    value {
      i: 1
    }
  }
}
node {
  name: "dipole_charge/Slice/begin"
  op: "Const"
  attr {
    key: "dtype"
    value {
      type: DT_INT32
    }
  }
  attr {
    key: "value"
    value {
      tensor {
        dtype: DT_INT32
        tensor_shape {
          dim {
            size: 3
          }
        }
        tensor_content: "\000\000\000\000\000\000\000\000\000\000\000\000"
      }
    }
  }
}
node {
  name: "dipole_charge/Slice/size/0"
  op: "Const"
  attr {
    key: "dtype"
    value {
      type: DT_INT32
    }
  }
  attr {
    key: "value"
    value {
      tensor {
        dtype: DT_INT32
        tensor_shape {
        }
        int_val: -1
      }
    }
  }
}
node {
  name: "dipole_charge/Slice/size/2"
  op: "Const"
  attr {
    key: "dtype"
    value {
      type: DT_INT32
    }
  }
  attr {
    key: "value"
    value {
      tensor {
        dtype: DT_INT32
        tensor_shape {
        }
        int_val: -1
      }
    }
  }
}
node {
  name: "dipole_charge/Slice/size"
  op: "Pack"
  input: "dipole_charge/Slice/size/0"
  input: "dipole_charge/strided_slice_7"
  input: "dipole_charge/Slice/size/2"
  attr {
    key: "N"
    value {
      i: 3
    }
  }
  attr {
    key: "T"
    value {
      type: DT_INT32
    }
  }
  attr {
    key: "axis"
    value {
      i: 0
    }
  }
}
node {
  name: "dipole_charge/Slice"
  op: "Slice"
  input: "dipole_charge/Reshape_6"
  input: "dipole_charge/Slice/begin"
  input: "dipole_charge/Slice/size"
  attr {
    key: "Index"
    value {
      type: DT_INT32
    }
  }
  attr {
    key: "T"
    value {
      type: DT_DOUBLE
    }
  }
}
node {
  name: "dipole_charge/Reshape_7/shape"
  op: "Const"
  attr {
    key: "dtype"
    value {
      type: DT_INT32
    }
  }
  attr {
    key: "value"
    value {
      tensor {
        dtype: DT_INT32
        tensor_shape {
          dim {
            size: 2
          }
        }
        tensor_content: "\377\377\377\377(\002\000\000"
      }
    }
  }
}
node {
  name: "dipole_charge/Reshape_7"
  op: "Reshape"
  input: "dipole_charge/Slice"
  input: "dipole_charge/Reshape_7/shape"
  attr {
    key: "T"
    value {
      type: DT_DOUBLE
    }
  }
  attr {
    key: "Tshape"
    value {
      type: DT_INT32
    }
  }
}
node {
  name: "dipole_charge/filter_type_0/Slice/begin"
  op: "Const"
  attr {
    key: "dtype"
    value {
      type: DT_INT32
    }
  }
  attr {
    key: "value"
    value {
      tensor {
        dtype: DT_INT32
        tensor_shape {
          dim {
            size: 2
          }
        }
        tensor_content: "\000\000\000\000\000\000\000\000"
      }
    }
  }
}
node {
  name: "dipole_charge/filter_type_0/Slice/size"
  op: "Const"
  attr {
    key: "dtype"
    value {
      type: DT_INT32
    }
  }
  attr {
    key: "value"
    value {
      tensor {
        dtype: DT_INT32
        tensor_shape {
          dim {
            size: 2
          }
        }
        tensor_content: "\377\377\377\377\270\000\000\000"
      }
    }
  }
}
node {
  name: "dipole_charge/filter_type_0/Slice"
  op: "Slice"
  input: "dipole_charge/Reshape_7"
  input: "dipole_charge/filter_type_0/Slice/begin"
  input: "dipole_charge/filter_type_0/Slice/size"
  attr {
    key: "Index"
    value {
      type: DT_INT32
    }
  }
  attr {
    key: "T"
    value {
      type: DT_DOUBLE
    }
  }
}
node {
  name: "dipole_charge/filter_type_0/Shape"
  op: "Shape"
  input: "dipole_charge/filter_type_0/Slice"
  attr {
    key: "T"
    value {
      type: DT_DOUBLE
    }
  }
  attr {
    key: "out_type"
    value {
      type: DT_INT32
    }
  }
}
node {
  name: "dipole_charge/filter_type_0/strided_slice/stack"
  op: "Const"
  attr {
    key: "dtype"
    value {
      type: DT_INT32
    }
  }
  attr {
    key: "value"
    value {
      tensor {
        dtype: DT_INT32
        tensor_shape {
          dim {
            size: 1
          }
        }
        int_val: 0
      }
    }
  }
}
node {
  name: "dipole_charge/filter_type_0/strided_slice/stack_1"
  op: "Const"
  attr {
    key: "dtype"
    value {
      type: DT_INT32
    }
  }
  attr {
    key: "value"
    value {
      tensor {
        dtype: DT_INT32
        tensor_shape {
          dim {
            size: 1
          }
        }
        int_val: 1
      }
    }
  }
}
node {
  name: "dipole_charge/filter_type_0/strided_slice/stack_2"
  op: "Const"
  attr {
    key: "dtype"
    value {
      type: DT_INT32
    }
  }
  attr {
    key: "value"
    value {
      tensor {
        dtype: DT_INT32
        tensor_shape {
          dim {
            size: 1
          }
        }
        int_val: 1
      }
    }
  }
}
node {
  name: "dipole_charge/filter_type_0/strided_slice"
  op: "StridedSlice"
  input: "dipole_charge/filter_type_0/Shape"
  input: "dipole_charge/filter_type_0/strided_slice/stack"
  input: "dipole_charge/filter_type_0/strided_slice/stack_1"
  input: "dipole_charge/filter_type_0/strided_slice/stack_2"
  attr {
    key: "Index"
    value {
      type: DT_INT32
    }
  }
  attr {
    key: "T"
    value {
      type: DT_INT32
    }
  }
  attr {
    key: "begin_mask"
    value {
      i: 0
    }
  }
  attr {
    key: "ellipsis_mask"
    value {
      i: 0
    }
  }
  attr {
    key: "end_mask"
    value {
      i: 0
    }
  }
  attr {
    key: "new_axis_mask"
    value {
      i: 0
    }
  }
  attr {
    key: "shrink_axis_mask"
    value {
      i: 1
    }
  }
}
node {
  name: "dipole_charge/filter_type_0/Reshape/shape"
  op: "Const"
  attr {
    key: "dtype"
    value {
      type: DT_INT32
    }
  }
  attr {
    key: "value"
    value {
      tensor {
        dtype: DT_INT32
        tensor_shape {
          dim {
            size: 2
          }
        }
        tensor_content: "\377\377\377\377\004\000\000\000"
      }
    }
  }
}
node {
  name: "dipole_charge/filter_type_0/Reshape"
  op: "Reshape"
  input: "dipole_charge/filter_type_0/Slice"
  input: "dipole_charge/filter_type_0/Reshape/shape"
  attr {
    key: "T"
    value {
      type: DT_DOUBLE
    }
  }
  attr {
    key: "Tshape"
    value {
      type: DT_INT32
    }
  }
}
node {
  name: "dipole_charge/filter_type_0/Slice_1/begin"
  op: "Const"
  attr {
    key: "dtype"
    value {
      type: DT_INT32
    }
  }
  attr {
    key: "value"
    value {
      tensor {
        dtype: DT_INT32
        tensor_shape {
          dim {
            size: 2
          }
        }
        tensor_content: "\000\000\000\000\000\000\000\000"
      }
    }
  }
}
node {
  name: "dipole_charge/filter_type_0/Slice_1/size"
  op: "Const"
  attr {
    key: "dtype"
    value {
      type: DT_INT32
    }
  }
  attr {
    key: "value"
    value {
      tensor {
        dtype: DT_INT32
        tensor_shape {
          dim {
            size: 2
          }
        }
        tensor_content: "\377\377\377\377\001\000\000\000"
      }
    }
  }
}
node {
  name: "dipole_charge/filter_type_0/Slice_1"
  op: "Slice"
  input: "dipole_charge/filter_type_0/Reshape"
  input: "dipole_charge/filter_type_0/Slice_1/begin"
  input: "dipole_charge/filter_type_0/Slice_1/size"
  attr {
    key: "Index"
    value {
      type: DT_INT32
    }
  }
  attr {
    key: "T"
    value {
      type: DT_DOUBLE
    }
  }
}
node {
  name: "dipole_charge/filter_type_0/Reshape_1/shape"
  op: "Const"
  attr {
    key: "dtype"
    value {
      type: DT_INT32
    }
  }
  attr {
    key: "value"
    value {
      tensor {
        dtype: DT_INT32
        tensor_shape {
          dim {
            size: 2
          }
        }
        tensor_content: "\377\377\377\377\001\000\000\000"
      }
    }
  }
}
node {
  name: "dipole_charge/filter_type_0/Reshape_1"
  op: "Reshape"
  input: "dipole_charge/filter_type_0/Slice_1"
  input: "dipole_charge/filter_type_0/Reshape_1/shape"
  attr {
    key: "T"
    value {
      type: DT_DOUBLE
    }
  }
  attr {
    key: "Tshape"
    value {
      type: DT_INT32
    }
  }
}
node {
  name: "dipole_charge/filter_type_0/matrix_1_0"
  op: "Const"
  attr {
    key: "dtype"
    value {
      type: DT_DOUBLE
    }
  }
  attr {
    key: "value"
    value {
      tensor {
        dtype: DT_DOUBLE
        tensor_shape {
          dim {
            size: 1
          }
          dim {
            size: 2
          }
        }
        tensor_content: "\254\362\023I\006\244\261\277+\'z\357\345\244\340?"
      }
    }
  }
}
node {
  name: "dipole_charge/filter_type_0/matrix_1_0/read"
  op: "Identity"
  input: "dipole_charge/filter_type_0/matrix_1_0"
  attr {
    key: "T"
    value {
      type: DT_DOUBLE
    }
  }
  attr {
    key: "_class"
    value {
      list {
        s: "loc:@dipole_charge/filter_type_0/matrix_1_0"
      }
    }
  }
}
node {
  name: "dipole_charge/filter_type_0/bias_1_0"
  op: "Const"
  attr {
    key: "dtype"
    value {
      type: DT_DOUBLE
    }
  }
  attr {
    key: "value"
    value {
      tensor {
        dtype: DT_DOUBLE
        tensor_shape {
          dim {
            size: 2
          }
        }
        tensor_content: "U \317W\224l\336\277+\2345\350\311\230\000\300"
      }
    }
  }
}
node {
  name: "dipole_charge/filter_type_0/bias_1_0/read"
  op: "Identity"
  input: "dipole_charge/filter_type_0/bias_1_0"
  attr {
    key: "T"
    value {
      type: DT_DOUBLE
    }
  }
  attr {
    key: "_class"
    value {
      list {
        s: "loc:@dipole_charge/filter_type_0/bias_1_0"
      }
    }
  }
}
node {
  name: "dipole_charge/filter_type_0/MatMul"
  op: "MatMul"
  input: "dipole_charge/filter_type_0/Reshape_1"
  input: "dipole_charge/filter_type_0/matrix_1_0/read"
  attr {
    key: "T"
    value {
      type: DT_DOUBLE
    }
  }
  attr {
    key: "transpose_a"
    value {
      b: false
    }
  }
  attr {
    key: "transpose_b"
    value {
      b: false
    }
  }
}
node {
  name: "dipole_charge/filter_type_0/BiasAdd"
  op: "BiasAdd"
  input: "dipole_charge/filter_type_0/MatMul"
  input: "dipole_charge/filter_type_0/bias_1_0/read"
  attr {
    key: "T"
    value {
      type: DT_DOUBLE
    }
  }
  attr {
    key: "data_format"
    value {
      s: "NHWC"
    }
  }
}
node {
  name: "dipole_charge/filter_type_0/Tanh"
  op: "Tanh"
  input: "dipole_charge/filter_type_0/BiasAdd"
  attr {
    key: "T"
    value {
      type: DT_DOUBLE
    }
  }
}
node {
  name: "dipole_charge/filter_type_0/Reshape_2/shape"
  op: "Const"
  attr {
    key: "dtype"
    value {
      type: DT_INT32
    }
  }
  attr {
    key: "value"
    value {
      tensor {
        dtype: DT_INT32
        tensor_shape {
          dim {
            size: 2
          }
        }
        tensor_content: "\377\377\377\377\002\000\000\000"
      }
    }
  }
}
node {
  name: "dipole_charge/filter_type_0/Reshape_2"
  op: "Reshape"
  input: "dipole_charge/filter_type_0/Tanh"
  input: "dipole_charge/filter_type_0/Reshape_2/shape"
  attr {
    key: "T"
    value {
      type: DT_DOUBLE
    }
  }
  attr {
    key: "Tshape"
    value {
      type: DT_INT32
    }
  }
}
node {
  name: "dipole_charge/filter_type_0/concat/axis"
  op: "Const"
  attr {
    key: "dtype"
    value {
      type: DT_INT32
    }
  }
  attr {
    key: "value"
    value {
      tensor {
        dtype: DT_INT32
        tensor_shape {
        }
        int_val: 1
      }
    }
  }
}
node {
  name: "dipole_charge/filter_type_0/concat"
  op: "ConcatV2"
  input: "dipole_charge/filter_type_0/Reshape_1"
  input: "dipole_charge/filter_type_0/Reshape_1"
  input: "dipole_charge/filter_type_0/concat/axis"
  attr {
    key: "N"
    value {
      i: 2
    }
  }
  attr {
    key: "T"
    value {
      type: DT_DOUBLE
    }
  }
  attr {
    key: "Tidx"
    value {
      type: DT_INT32
    }
  }
}
node {
  name: "dipole_charge/filter_type_0/add"
  op: "AddV2"
  input: "dipole_charge/filter_type_0/concat"
  input: "dipole_charge/filter_type_0/Reshape_2"
  attr {
    key: "T"
    value {
      type: DT_DOUBLE
    }
  }
}
node {
  name: "dipole_charge/filter_type_0/matrix_2_0"
  op: "Const"
  attr {
    key: "dtype"
    value {
      type: DT_DOUBLE
    }
  }
  attr {
    key: "value"
    value {
      tensor {
        dtype: DT_DOUBLE
        tensor_shape {
          dim {
            size: 2
          }
          dim {
            size: 5
          }
        }
        tensor_content: "…"
      }
    }
  }
}
node {
  name: "dipole_charge/filter_type_0/matrix_2_0/read"
  op: "Identity"
  input: "dipole_charge/filter_type_0/matrix_2_0"
  attr {
    key: "T"
    value {
      type: DT_DOUBLE
    }
  }
  attr {
    key: "_class"
    value {
      list {
        s: "loc:@dipole_charge/filter_type_0/matrix_2_0"
      }
    }
  }
}
node {
  name: "dipole_charge/filter_type_0/bias_2_0"
  op: "Const"
  attr {
    key: "dtype"
    value {
      type: DT_DOUBLE
    }
  }
  attr {
    key: "value"
    value {
      tensor {
        dtype: DT_DOUBLE
        tensor_shape {
          dim {
            size: 5
          }
        }
        tensor_content: "…"
      }
    }
  }
}
node {
  name: "dipole_charge/filter_type_0/bias_2_0/read"
  op: "Identity"
  input: "dipole_charge/filter_type_0/bias_2_0"
  attr {
    key: "T"
    value {
      type: DT_DOUBLE
    }
  }
  attr {
    key: "_class"
    value {
      list {
        s: "loc:@dipole_charge/filter_type_0/bias_2_0"
      }
    }
  }
}
node {
  name: "dipole_charge/filter_type_0/MatMul_1"
  op: "MatMul"
  input: "dipole_charge/filter_type_0/add"
  input: "dipole_charge/filter_type_0/matrix_2_0/read"
  attr {
    key: "T"
    value {
      type: DT_DOUBLE
    }
  }
  attr {
    key: "transpose_a"
    value {
      b: false
    }
  }
  attr {
    key: "transpose_b"
    value {
      b: false
    }
  }
}
node {
  name: "dipole_charge/filter_type_0/BiasAdd_1"
  op: "BiasAdd"
  input: "dipole_charge/filter_type_0/MatMul_1"
  input: "dipole_charge/filter_type_0/bias_2_0/read"
  attr {
    key: "T"
    value {
      type: DT_DOUBLE
    }
  }
  attr {
    key: "data_format"
    value {
      s: "NHWC"
    }
  }
}
node {
  name: "dipole_charge/filter_type_0/Tanh_1"
  op: "Tanh"
  input: "dipole_charge/filter_type_0/BiasAdd_1"
  attr {
    key: "T"
    value {
      type: DT_DOUBLE
    }
  }
}
node {
  name: "dipole_charge/filter_type_0/Reshape_3/shape"
  op: "Const"
  attr {
    key: "dtype"
    value {
      type: DT_INT32
    }
  }
  attr {
    key: "value"
    value {
      tensor {
        dtype: DT_INT32
        tensor_shape {
          dim {
            size: 2
          }
        }
        tensor_content: "\377\377\377\377\005\000\000\000"
      }
    }
  }
}
node {
  name: "dipole_charge/filter_type_0/Reshape_3"
  op: "Reshape"
  input: "dipole_charge/filter_type_0/Tanh_1"
  input: "dipole_charge/filter_type_0/Reshape_3/shape"
  attr {
    key: "T"
    value {
      type: DT_DOUBLE
    }
  }
  attr {
    key: "Tshape"
    value {
      type: DT_INT32
    }
  }
}
node {
  name: "dipole_charge/filter_type_0/matrix_3_0"
  op: "Const"
  attr {
    key: "dtype"
    value {
      type: DT_DOUBLE
    }
  }
  attr {
    key: "value"
    value {
      tensor {
        dtype: DT_DOUBLE
        tensor_shape {
          dim {
            size: 5
          }
          dim {
            size: 10
          }
        }
        tensor_content: "…"
      }
    }
  }
}
node {
  name: "dipole_charge/filter_type_0/matrix_3_0/read"
  op: "Identity"
  input: "dipole_charge/filter_type_0/matrix_3_0"
  attr {
    key: "T"
    value {
      type: DT_DOUBLE
    }
  }
  attr {
    key: "_class"
    value {
      list {
        s: "loc:@dipole_charge/filter_type_0/matrix_3_0"
      }
    }
  }
}
node {
  name: "dipole_charge/filter_type_0/bias_3_0"
  op: "Const"
  attr {
    key: "dtype"
    value {
      type: DT_DOUBLE
    }
  }
  attr {
    key: "value"
    value {
      tensor {
        dtype: DT_DOUBLE
        tensor_shape {
          dim {
            size: 10
          }
        }
        tensor_content: "…"
      }
    }
  }
}
node {
  name: "dipole_charge/filter_type_0/bias_3_0/read"
  op: "Identity"
  input: "dipole_charge/filter_type_0/bias_3_0"
  attr {
    key: "T"
    value {
      type: DT_DOUBLE
    }
  }
  attr {
    key: "_class"
    value {
      list {
        s: "loc:@dipole_charge/filter_type_0/bias_3_0"
      }
    }
  }
}
node {
  name: "dipole_charge/filter_type_0/MatMul_2"
  op: "MatMul"
  input: "dipole_charge/filter_type_0/Reshape_3"
  input: "dipole_charge/filter_type_0/matrix_3_0/read"
  attr {
    key: "T"
    value {
      type: DT_DOUBLE
    }
  }
  attr {
    key: "transpose_a"
    value {
      b: false
    }
  }
  attr {
    key: "transpose_b"
    value {
      b: false
    }
  }
}
node {
  name: "dipole_charge/filter_type_0/BiasAdd_2"
  op: "BiasAdd"
  input: "dipole_charge/filter_type_0/MatMul_2"
  input: "dipole_charge/filter_type_0/bias_3_0/read"
  attr {
    key: "T"
    value {
      type: DT_DOUBLE
    }
  }
  attr {
    key: "data_format"
    value {
      s: "NHWC"
    }
  }
}
node {
  name: "dipole_charge/filter_type_0/Tanh_2"
  op: "Tanh"
  input: "dipole_charge/filter_type_0/BiasAdd_2"
  attr {
    key: "T"
    value {
      type: DT_DOUBLE
    }
  }
}
node {
  name: "dipole_charge/filter_type_0/Reshape_4/shape"
  op: "Const"
  attr {
    key: "dtype"
    value {
      type: DT_INT32
    }
  }
  attr {
    key: "value"
    value {
      tensor {
        dtype: DT_INT32
        tensor_shape {
          dim {
            size: 2
          }
        }
        tensor_content: "\377\377\377\377\n\000\000\000"
      }
    }
  }
}
node {
  name: "dipole_charge/filter_type_0/Reshape_4"
  op: "Reshape"
  input: "dipole_charge/filter_type_0/Tanh_2"
  input: "dipole_charge/filter_type_0/Reshape_4/shape"
  attr {
    key: "T"
    value {
      type: DT_DOUBLE
    }
  }
  attr {
    key: "Tshape"
    value {
      type: DT_INT32
    }
  }
}
node {
  name: "dipole_charge/filter_type_0/concat_1/axis"
  op: "Const"
  attr {
    key: "dtype"
    value {
      type: DT_INT32
    }
  }
  attr {
    key: "value"
    value {
      tensor {
        dtype: DT_INT32
        tensor_shape {
        }
        int_val: 1
      }
    }
  }
}
node {
  name: "dipole_charge/filter_type_0/concat_1"
  op: "ConcatV2"
  input: "dipole_charge/filter_type_0/Reshape_3"
  input: "dipole_charge/filter_type_0/Reshape_3"
  input: "dipole_charge/filter_type_0/concat_1/axis"
  attr {
    key: "N"
    value {
      i: 2
    }
  }
  attr {
    key: "T"
    value {
      type: DT_DOUBLE
    }
  }
  attr {
    key: "Tidx"
    value {
      type: DT_INT32
    }
  }
}
node {
  name: "dipole_charge/filter_type_0/add_1"
  op: "AddV2"
  input: "dipole_charge/filter_type_0/concat_1"
  input: "dipole_charge/filter_type_0/Reshape_4"
  attr {
    key: "T"
    value {
      type: DT_DOUBLE
    }
  }
}
node {
  name: "dipole_charge/filter_type_0/Reshape_5/shape"
  op: "Const"
  attr {
    key: "dtype"
    value {
      type: DT_INT32
    }
  }
  attr {
    key: "value"
    value {
      tensor {
        dtype: DT_INT32
        tensor_shape {
          dim {
            size: 3
          }
        }
        tensor_content: "\377\377\377\377.\000\000\000\n\000\000\000"
      }
    }
  }
}
node {
  name: "dipole_charge/filter_type_0/Reshape_5"
  op: "Reshape"
  input: "dipole_charge/filter_type_0/add_1"
  input: "dipole_charge/filter_type_0/Reshape_5/shape"
  attr {
    key: "T"
    value {
      type: DT_DOUBLE
    }
  }
  attr {
    key: "Tshape"
    value {
      type: DT_INT32
    }
  }
}
node {
  name: "dipole_charge/filter_type_0/Reshape_6/shape/1"
  op: "Const"
  attr {
    key: "dtype"
    value {
      type: DT_INT32
    }
  }
  attr {
    key: "value"
    value {
      tensor {
        dtype: DT_INT32
        tensor_shape {
        }
        int_val: 46
      }
    }
  }
}
node {
  name: "dipole_charge/filter_type_0/Reshape_6/shape/2"
  op: "Const"
  attr {
    key: "dtype"
    value {
      type: DT_INT32
    }
  }
  attr {
    key: "value"
    value {
      tensor {
        dtype: DT_INT32
        tensor_shape {
        }
        int_val: 4
      }
    }
  }
}
node {
  name: "dipole_charge/filter_type_0/Reshape_6/shape"
  op: "Pack"
  input: "dipole_charge/filter_type_0/strided_slice"
  input: "dipole_charge/filter_type_0/Reshape_6/shape/1"
  input: "dipole_charge/filter_type_0/Reshape_6/shape/2"
  attr {
    key: "N"
    value {
      i: 3
    }
  }
  attr {
    key: "T"
    value {
      type: DT_INT32
    }
  }
  attr {
    key: "axis"
    value {
      i: 0
    }
  }
}
node {
  name: "dipole_charge/filter_type_0/Reshape_6"
  op: "Reshape"
  input: "dipole_charge/filter_type_0/Slice"
  input: "dipole_charge/filter_type_0/Reshape_6/shape"
  attr {
    key: "T"
    value {
      type: DT_DOUBLE
    }
  }
  attr {
    key: "Tshape"
    value {
      type: DT_INT32
    }
  }
}
node {
  name: "dipole_charge/filter_type_0/MatMul_3"
  op: "BatchMatMulV2"
  input: "dipole_charge/filter_type_0/Reshape_6"
  input: "dipole_charge/filter_type_0/Reshape_5"
  attr {
    key: "T"
    value {
      type: DT_DOUBLE
    }
  }
  attr {
    key: "adj_x"
    value {
      b: true
    }
  }
  attr {
    key: "adj_y"
    value {
      b: false
    }
  }
}
node {
  name: "dipole_charge/filter_type_0/Slice_2/begin"
  op: "Const"
  attr {
    key: "dtype"
    value {
      type: DT_INT32
    }
  }
  attr {
    key: "value"
    value {
      tensor {
        dtype: DT_INT32
        tensor_shape {
          dim {
            size: 2
          }
        }
        tensor_content: "\000\000\000\000\270\000\000\000"
      }
    }
  }
}
node {
  name: "dipole_charge/filter_type_0/Slice_2/size"
  op: "Const"
  attr {
    key: "dtype"
    value {
      type: DT_INT32
    }
  }
  attr {
    key: "value"
    value {
      tensor {
        dtype: DT_INT32
        tensor_shape {
          dim {
            size: 2
          }
        }
        tensor_content: "\377\377\377\377p\001\000\000"
      }
    }
  }
}
node {
  name: "dipole_charge/filter_type_0/Slice_2"
  op: "Slice"
  input: "dipole_charge/Reshape_7"
  input: "dipole_charge/filter_type_0/Slice_2/begin"
  input: "dipole_charge/filter_type_0/Slice_2/size"
  attr {
    key: "Index"
    value {
      type: DT_INT32
    }
  }
  attr {
    key: "T"
    value {
      type: DT_DOUBLE
    }
  }
}
node {
  name: "dipole_charge/filter_type_0/Shape_1"
  op: "Shape"
  input: "dipole_charge/filter_type_0/Slice_2"
  attr {
    key: "T"
    value {
      type: DT_DOUBLE
    }
  }
  attr {
    key: "out_type"
    value {
      type: DT_INT32
    }
  }
}
node {
  name: "dipole_charge/filter_type_0/strided_slice_1/stack"
  op: "Const"
  attr {
    key: "dtype"
    value {
      type: DT_INT32
    }
  }
  attr {
    key: "value"
    value {
      tensor {
        dtype: DT_INT32
        tensor_shape {
          dim {
            size: 1
          }
        }
        int_val: 0
      }
    }
  }
}
node {
  name: "dipole_charge/filter_type_0/strided_slice_1/stack_1"
  op: "Const"
  attr {
    key: "dtype"
    value {
      type: DT_INT32
    }
  }
  attr {
    key: "value"
    value {
      tensor {
        dtype: DT_INT32
        tensor_shape {
          dim {
            size: 1
          }
        }
        int_val: 1
      }
    }
  }
}
node {
  name: "dipole_charge/filter_type_0/strided_slice_1/stack_2"
  op: "Const"
  attr {
    key: "dtype"
    value {
      type: DT_INT32
    }
  }
  attr {
    key: "value"
    value {
      tensor {
        dtype: DT_INT32
        tensor_shape {
          dim {
            size: 1
          }
        }
        int_val: 1
      }
    }
  }
}
node {
  name: "dipole_charge/filter_type_0/strided_slice_1"
  op: "StridedSlice"
  input: "dipole_charge/filter_type_0/Shape_1"
  input: "dipole_charge/filter_type_0/strided_slice_1/stack"
  input: "dipole_charge/filter_type_0/strided_slice_1/stack_1"
  input: "dipole_charge/filter_type_0/strided_slice_1/stack_2"
  attr {
    key: "Index"
    value {
      type: DT_INT32
    }
  }
  attr {
    key: "T"
    value {
      type: DT_INT32
    }
  }
  attr {
    key: "begin_mask"
    value {
      i: 0
    }
  }
  attr {
    key: "ellipsis_mask"
    value {
      i: 0
    }
  }
  attr {
    key: "end_mask"
    value {
      i: 0
    }
  }
  attr {
    key: "new_axis_mask"
    value {
      i: 0
    }
  }
  attr {
    key: "shrink_axis_mask"
    value {
      i: 1
    }
  }
}
node {
  name: "dipole_charge/filter_type_0/Reshape_7/shape"
  op: "Const"
  attr {
    key: "dtype"
    value {
      type: DT_INT32
    }
  }
  attr {
    key: "value"
    value {
      tensor {
        dtype: DT_INT32
        tensor_shape {
          dim {
            size: 2
          }
        }
        tensor_content: "\377\377\377\377\004\000\000\000"
      }
    }
  }
}
node {
  name: "dipole_charge/filter_type_0/Reshape_7"
  op: "Reshape"
  input: "dipole_charge/filter_type_0/Slice_2"
  input: "dipole_charge/filter_type_0/Reshape_7/shape"
  attr {
    key: "T"
    value {
      type: DT_DOUBLE
    }
  }
  attr {
    key: "Tshape"
    value {
      type: DT_INT32
    }
  }
}
node {
  name: "dipole_charge/filter_type_0/Slice_3/begin"
  op: "Const"
  attr {
    key: "dtype"
    value {
      type: DT_INT32
    }
  }
  attr {
    key: "value"
    value {
      tensor {
        dtype: DT_INT32
        tensor_shape {
          dim {
            size: 2
          }
        }
        tensor_content: "\000\000\000\000\000\000\000\000"
      }
    }
  }
}
node {
  name: "dipole_charge/filter_type_0/Slice_3/size"
  op: "Const"
  attr {
    key: "dtype"
    value {
      type: DT_INT32
    }
  }
  attr {
    key: "value"
    value {
      tensor {
        dtype: DT_INT32
        tensor_shape {
          dim {
            size: 2
          }
        }
        tensor_content: "\377\377\377\377\001\000\000\000"
      }
    }
  }
}
node {
  name: "dipole_charge/filter_type_0/Slice_3"
  op: "Slice"
  input: "dipole_charge/filter_type_0/Reshape_7"
  input: "dipole_charge/filter_type_0/Slice_3/begin"
  input: "dipole_charge/filter_type_0/Slice_3/size"
  attr {
    key: "Index"
    value {
      type: DT_INT32
    }
  }
  attr {
    key: "T"
    value {
      type: DT_DOUBLE
    }
  }
}
node {
  name: "dipole_charge/filter_type_0/Reshape_8/shape"
  op: "Const"
  attr {
    key: "dtype"
    value {
      type: DT_INT32
    }
  }
  attr {
    key: "value"
    value {
      tensor {
        dtype: DT_INT32
        tensor_shape {
          dim {
            size: 2
          }
        }
        tensor_content: "\377\377\377\377\001\000\000\000"
      }
    }
  }
}
node {
  name: "dipole_charge/filter_type_0/Reshape_8"
  op: "Reshape"
  input: "dipole_charge/filter_type_0/Slice_3"
  input: "dipole_charge/filter_type_0/Reshape_8/shape"
  attr {
    key: "T"
    value {
      type: DT_DOUBLE
    }
  }
  attr {
    key: "Tshape"
    value {
      type: DT_INT32
    }
  }
}
node {
  name: "dipole_charge/filter_type_0/matrix_1_1"
  op: "Const"
  attr {
    key: "dtype"
    value {
      type: DT_DOUBLE
    }
  }
  attr {
    key: "value"
    value {
      tensor {
        dtype: DT_DOUBLE
        tensor_shape {
          dim {
            size: 1
          }
          dim {
            size: 2
          }
        }
        tensor_content: "I\363\275\255n!\344?\342\243?\"\257k\344\277"
      }
    }
  }
}
node {
  name: "dipole_charge/filter_type_0/matrix_1_1/read"
  op: "Identity"
  input: "dipole_charge/filter_type_0/matrix_1_1"
  attr {
    key: "T"
    value {
      type: DT_DOUBLE
    }
  }
  attr {
    key: "_class"
    value {
      list {
        s: "loc:@dipole_charge/filter_type_0/matrix_1_1"
      }
    }
  }
}
node {
  name: "dipole_charge/filter_type_0/bias_1_1"
  op: "Const"
  attr {
    key: "dtype"
    value {
      type: DT_DOUBLE
    }
  }
  attr {
    key: "value"
    value {
      tensor {
        dtype: DT_DOUBLE
        tensor_shape {
          dim {
            size: 2
          }
        }
        tensor_content: "\354:\025\345\254`\351\277f\334x\216\311\322\312\277"
      }
    }
  }
}
node {
  name: "dipole_charge/filter_type_0/bias_1_1/read"
  op: "Identity"
  input: "dipole_charge/filter_type_0/bias_1_1"
  attr {
    key: "T"
    value {
      type: DT_DOUBLE
    }
  }
  attr {
    key: "_class"
    value {
      list {
        s: "loc:@dipole_charge/filter_type_0/bias_1_1"
      }
    }
  }
}
node {
  name: "dipole_charge/filter_type_0/MatMul_4"
  op: "MatMul"
  input: "dipole_charge/filter_type_0/Reshape_8"
  input: "dipole_charge/filter_type_0/matrix_1_1/read"
  attr {
    key: "T"
    value {
      type: DT_DOUBLE
    }
  }
  attr {
    key: "transpose_a"
    value {
      b: false
    }
  }
  attr {
    key: "transpose_b"
    value {
      b: false
    }
  }
}
node {
  name: "dipole_charge/filter_type_0/BiasAdd_3"
  op: "BiasAdd"
  input: "dipole_charge/filter_type_0/MatMul_4"
  input: "dipole_charge/filter_type_0/bias_1_1/read"
  attr {
    key: "T"
    value {
      type: DT_DOUBLE
    }
  }
  attr {
    key: "data_format"
    value {
      s: "NHWC"
    }
  }
}
node {
  name: "dipole_charge/filter_type_0/Tanh_3"
  op: "Tanh"
  input: "dipole_charge/filter_type_0/BiasAdd_3"
  attr {
    key: "T"
    value {
      type: DT_DOUBLE
    }
  }
}
node {
  name: "dipole_charge/filter_type_0/Reshape_9/shape"
  op: "Const"
  attr {
    key: "dtype"
    value {
      type: DT_INT32
    }
  }
  attr {
    key: "value"
    value {
      tensor {
        dtype: DT_INT32
        tensor_shape {
          dim {
            size: 2
          }
        }
        tensor_content: "\377\377\377\377\002\000\000\000"
      }
    }
  }
}
node {
  name: "dipole_charge/filter_type_0/Reshape_9"
  op: "Reshape"
  input: "dipole_charge/filter_type_0/Tanh_3"
  input: "dipole_charge/filter_type_0/Reshape_9/shape"
  attr {
    key: "T"
    value {
      type: DT_DOUBLE
    }
  }
  attr {
    key: "Tshape"
    value {
      type: DT_INT32
    }
  }
}
node {
  name: "dipole_charge/filter_type_0/concat_2/axis"
  op: "Const"
  attr {
    key: "dtype"
    value {
      type: DT_INT32
    }
  }
  attr {
    key: "value"
    value {
      tensor {
        dtype: DT_INT32
        tensor_shape {
        }
        int_val: 1
      }
    }
  }
}
node {
  name: "dipole_charge/filter_type_0/concat_2"
  op: "ConcatV2"
  input: "dipole_charge/filter_type_0/Reshape_8"
  input: "dipole_charge/filter_type_0/Reshape_8"
  input: "dipole_charge/filter_type_0/concat_2/axis"
  attr {
    key: "N"
    value {
      i: 2
    }
  }
  attr {
    key: "T"
    value {
      type: DT_DOUBLE
    }
  }
  attr {
    key: "Tidx"
    value {
      type: DT_INT32
    }
  }
}
node {
  name: "dipole_charge/filter_type_0/add_2"
  op: "AddV2"
  input: "dipole_charge/filter_type_0/concat_2"
  input: "dipole_charge/filter_type_0/Reshape_9"
  attr {
    key: "T"
    value {
      type: DT_DOUBLE
    }
  }
}
node {
  name: "dipole_charge/filter_type_0/matrix_2_1"
  op: "Const"
  attr {
    key: "dtype"
    value {
      type: DT_DOUBLE
    }
  }
  attr {
    key: "value"
    value {
      tensor {
        dtype: DT_DOUBLE
        tensor_shape {
          dim {
            size: 2
          }
          dim {
            size: 5
          }
        }
        tensor_content: "…"
      }
    }
  }
}
node {
  name: "dipole_charge/filter_type_0/matrix_2_1/read"
  op: "Identity"
  input: "dipole_charge/filter_type_0/matrix_2_1"
  attr {
    key: "T"
    value {
      type: DT_DOUBLE
    }
  }
  attr {
    key: "_class"
    value {
      list {
        s: "loc:@dipole_charge/filter_type_0/matrix_2_1"
      }
    }
  }
}
node {
  name: "dipole_charge/filter_type_0/bias_2_1"
  op: "Const"
  attr {
    key: "dtype"
    value {
      type: DT_DOUBLE
    }
  }
  attr {
    key: "value"
    value {
      tensor {
        dtype: DT_DOUBLE
        tensor_shape {
          dim {
            size: 5
          }
        }
        tensor_content: "…"
      }
    }
  }
}
node {
  name: "dipole_charge/filter_type_0/bias_2_1/read"
  op: "Identity"
  input: "dipole_charge/filter_type_0/bias_2_1"
  attr {
    key: "T"
    value {
      type: DT_DOUBLE
    }
  }
  attr {
    key: "_class"
    value {
      list {
        s: "loc:@dipole_charge/filter_type_0/bias_2_1"
      }
    }
  }
}
node {
  name: "dipole_charge/filter_type_0/MatMul_5"
  op: "MatMul"
  input: "dipole_charge/filter_type_0/add_2"
  input: "dipole_charge/filter_type_0/matrix_2_1/read"
  attr {
    key: "T"
    value {
      type: DT_DOUBLE
    }
  }
  attr {
    key: "transpose_a"
    value {
      b: false
    }
  }
  attr {
    key: "transpose_b"
    value {
      b: false
    }
  }
}
node {
  name: "dipole_charge/filter_type_0/BiasAdd_4"
  op: "BiasAdd"
  input: "dipole_charge/filter_type_0/MatMul_5"
  input: "dipole_charge/filter_type_0/bias_2_1/read"
  attr {
    key: "T"
    value {
      type: DT_DOUBLE
    }
  }
  attr {
    key: "data_format"
    value {
      s: "NHWC"
    }
  }
}
node {
  name: "dipole_charge/filter_type_0/Tanh_4"
  op: "Tanh"
  input: "dipole_charge/filter_type_0/BiasAdd_4"
  attr {
    key: "T"
    value {
      type: DT_DOUBLE
    }
  }
}
node {
  name: "dipole_charge/filter_type_0/Reshape_10/shape"
  op: "Const"
  attr {
    key: "dtype"
    value {
      type: DT_INT32
    }
  }
  attr {
    key: "value"
    value {
      tensor {
        dtype: DT_INT32
        tensor_shape {
          dim {
            size: 2
          }
        }
        tensor_content: "\377\377\377\377\005\000\000\000"
      }
    }
  }
}
node {
  name: "dipole_charge/filter_type_0/Reshape_10"
  op: "Reshape"
  input: "dipole_charge/filter_type_0/Tanh_4"
  input: "dipole_charge/filter_type_0/Reshape_10/shape"
  attr {
    key: "T"
    value {
      type: DT_DOUBLE
    }
  }
  attr {
    key: "Tshape"
    value {
      type: DT_INT32
    }
  }
}
node {
  name: "dipole_charge/filter_type_0/matrix_3_1"
  op: "Const"
  attr {
    key: "dtype"
    value {
      type: DT_DOUBLE
    }
  }
  attr {
    key: "value"
    value {
      tensor {
        dtype: DT_DOUBLE
        tensor_shape {
          dim {
            size: 5
          }
          dim {
            size: 10
          }
        }
        tensor_content: "…"
      }
    }
  }
}
node {
  name: "dipole_charge/filter_type_0/matrix_3_1/read"
  op: "Identity"
  input: "dipole_charge/filter_type_0/matrix_3_1"
  attr {
    key: "T"
    value {
      type: DT_DOUBLE
    }
  }
  attr {
    key: "_class"
    value {
      list {
        s: "loc:@dipole_charge/filter_type_0/matrix_3_1"
      }
    }
  }
}
node {
  name: "dipole_charge/filter_type_0/bias_3_1"
  op: "Const"
  attr {
    key: "dtype"
    value {
      type: DT_DOUBLE
    }
  }
  attr {
    key: "value"
    value {
      tensor {
        dtype: DT_DOUBLE
        tensor_shape {
          dim {
            size: 10
          }
        }
        tensor_content: "…"
      }
    }
  }
}
node {
  name: "dipole_charge/filter_type_0/bias_3_1/read"
  op: "Identity"
  input: "dipole_charge/filter_type_0/bias_3_1"
  attr {
    key: "T"
    value {
      type: DT_DOUBLE
    }
  }
  attr {
    key: "_class"
    value {
      list {
        s: "loc:@dipole_charge/filter_type_0/bias_3_1"
      }
    }
  }
}
node {
  name: "dipole_charge/filter_type_0/MatMul_6"
  op: "MatMul"
  input: "dipole_charge/filter_type_0/Reshape_10"
  input: "dipole_charge/filter_type_0/matrix_3_1/read"
  attr {
    key: "T"
    value {
      type: DT_DOUBLE
    }
  }
  attr {
    key: "transpose_a"
    value {
      b: false
    }
  }
  attr {
    key: "transpose_b"
    value {
      b: false
    }
  }
}
node {
  name: "dipole_charge/filter_type_0/BiasAdd_5"
  op: "BiasAdd"
  input: "dipole_charge/filter_type_0/MatMul_6"
  input: "dipole_charge/filter_type_0/bias_3_1/read"
  attr {
    key: "T"
    value {
      type: DT_DOUBLE
    }
  }
  attr {
    key: "data_format"
    value {
      s: "NHWC"
    }
  }
}
node {
  name: "dipole_charge/filter_type_0/Tanh_5"
  op: "Tanh"
  input: "dipole_charge/filter_type_0/BiasAdd_5"
  attr {
    key: "T"
    value {
      type: DT_DOUBLE
    }
  }
}
node {
  name: "dipole_charge/filter_type_0/Reshape_11/shape"
  op: "Const"
  attr {
    key: "dtype"
    value {
      type: DT_INT32
    }
  }
  attr {
    key: "value"
    value {
      tensor {
        dtype: DT_INT32
        tensor_shape {
          dim {
            size: 2
          }
        }
        tensor_content: "\377\377\377\377\n\000\000\000"
      }
    }
  }
}
node {
  name: "dipole_charge/filter_type_0/Reshape_11"
  op: "Reshape"
  input: "dipole_charge/filter_type_0/Tanh_5"
  input: "dipole_charge/filter_type_0/Reshape_11/shape"
  attr {
    key: "T"
    value {
      type: DT_DOUBLE
    }
  }
  attr {
    key: "Tshape"
    value {
      type: DT_INT32
    }
  }
}
node {
  name: "dipole_charge/filter_type_0/concat_3/axis"
  op: "Const"
  attr {
    key: "dtype"
    value {
      type: DT_INT32
    }
  }
  attr {
    key: "value"
    value {
      tensor {
        dtype: DT_INT32
        tensor_shape {
        }
        int_val: 1
      }
    }
  }
}
node {
  name: "dipole_charge/filter_type_0/concat_3"
  op: "ConcatV2"
  input: "dipole_charge/filter_type_0/Reshape_10"
  input: "dipole_charge/filter_type_0/Reshape_10"
  input: "dipole_charge/filter_type_0/concat_3/axis"
  attr {
    key: "N"
    value {
      i: 2
    }
  }
  attr {
    key: "T"
    value {
      type: DT_DOUBLE
    }
  }
  attr {
    key: "Tidx"
    value {
      type: DT_INT32
    }
  }
}
node {
  name: "dipole_charge/filter_type_0/add_3"
  op: "AddV2"
  input: "dipole_charge/filter_type_0/concat_3"
  input: "dipole_charge/filter_type_0/Reshape_11"
  attr {
    key: "T"
    value {
      type: DT_DOUBLE
    }
  }
}
node {
  name: "dipole_charge/filter_type_0/Reshape_12/shape"
  op: "Const"
  attr {
    key: "dtype"
    value {
      type: DT_INT32
    }
  }
  attr {
    key: "value"
    value {
      tensor {
        dtype: DT_INT32
        tensor_shape {
          dim {
            size: 3
          }
        }
        tensor_content: "\377\377\377\377\\\000\000\000\n\000\000\000"
      }
    }
  }
}
node {
  name: "dipole_charge/filter_type_0/Reshape_12"
  op: "Reshape"
  input: "dipole_charge/filter_type_0/add_3"
  input: "dipole_charge/filter_type_0/Reshape_12/shape"
  attr {
    key: "T"
    value {
      type: DT_DOUBLE
    }
  }
  attr {
    key: "Tshape"
    value {
      type: DT_INT32
    }
  }
}
node {
  name: "dipole_charge/filter_type_0/Reshape_13/shape/1"
  op: "Const"
  attr {
    key: "dtype"
    value {
      type: DT_INT32
    }
  }
  attr {
    key: "value"
    value {
      tensor {
        dtype: DT_INT32
        tensor_shape {
        }
        int_val: 92
      }
    }
  }
}
node {
  name: "dipole_charge/filter_type_0/Reshape_13/shape/2"
  op: "Const"
  attr {
    key: "dtype"
    value {
      type: DT_INT32
    }
  }
  attr {
    key: "value"
    value {
      tensor {
        dtype: DT_INT32
        tensor_shape {
        }
        int_val: 4
      }
    }
  }
}
node {
  name: "dipole_charge/filter_type_0/Reshape_13/shape"
  op: "Pack"
  input: "dipole_charge/filter_type_0/strided_slice_1"
  input: "dipole_charge/filter_type_0/Reshape_13/shape/1"
  input: "dipole_charge/filter_type_0/Reshape_13/shape/2"
  attr {
    key: "N"
    value {
      i: 3
    }
  }
  attr {
    key: "T"
    value {
      type: DT_INT32
    }
  }
  attr {
    key: "axis"
    value {
      i: 0
    }
  }
}
node {
  name: "dipole_charge/filter_type_0/Reshape_13"
  op: "Reshape"
  input: "dipole_charge/filter_type_0/Slice_2"
  input: "dipole_charge/filter_type_0/Reshape_13/shape"
  attr {
    key: "T"
    value {
      type: DT_DOUBLE
    }
  }
  attr {
    key: "Tshape"
    value {
      type: DT_INT32
    }
  }
}
node {
  name: "dipole_charge/filter_type_0/MatMul_7"
  op: "BatchMatMulV2"
  input: "dipole_charge/filter_type_0/Reshape_13"
  input: "dipole_charge/filter_type_0/Reshape_12"
  attr {
    key: "T"
    value {
      type: DT_DOUBLE
    }
  }
  attr {
    key: "adj_x"
    value {
      b: true
    }
  }
  attr {
    key: "adj_y"
    value {
      b: false
    }
  }
}
node {
  name: "dipole_charge/filter_type_0/AddN"
  op: "AddN"
  input: "dipole_charge/filter_type_0/MatMul_3"
  input: "dipole_charge/filter_type_0/MatMul_7"
  attr {
    key: "N"
    value {
      i: 2
    }
  }
  attr {
    key: "T"
    value {
      type: DT_DOUBLE
    }
  }
}
node {
  name: "dipole_charge/filter_type_0/truediv/y"
  op: "Const"
  attr {
    key: "dtype"
    value {
      type: DT_DOUBLE
    }
  }
  attr {
    key: "value"
    value {
      tensor {
        dtype: DT_DOUBLE
        tensor_shape {
        }
        double_val: 138.0
      }
    }
  }
}
node {
  name: "dipole_charge/filter_type_0/truediv"
  op: "RealDiv"
  input: "dipole_charge/filter_type_0/AddN"
  input: "dipole_charge/filter_type_0/truediv/y"
  attr {
    key: "T"
    value {
      type: DT_DOUBLE
    }
  }
}
node {
  name: "dipole_charge/filter_type_0/Slice_4/begin"
  op: "Const"
  attr {
    key: "dtype"
    value {
      type: DT_INT32
    }
  }
  attr {
    key: "value"
    value {
      tensor {
        dtype: DT_INT32
        tensor_shape {
          dim {
            size: 3
          }
        }
        tensor_content: "\000\000\000\000\000\000\000\000\000\000\000\000"
      }
    }
  }
}
node {
  name: "dipole_charge/filter_type_0/Slice_4/size"
  op: "Const"
  attr {
    key: "dtype"
    value {
      type: DT_INT32
    }
  }
  attr {
    key: "value"
    value {
      tensor {
        dtype: DT_INT32
        tensor_shape {
          dim {
            size: 3
          }
        }
        tensor_content: "\377\377\377\377\377\377\377\377\010\000\000\000"
      }
    }
  }
}
node {
  name: "dipole_charge/filter_type_0/Slice_4"
  op: "Slice"
  input: "dipole_charge/filter_type_0/truediv"
  input: "dipole_charge/filter_type_0/Slice_4/begin"
  input: "dipole_charge/filter_type_0/Slice_4/size"
  attr {
    key: "Index"
    value {
      type: DT_INT32
    }
  }
  attr {
    key: "T"
    value {
      type: DT_DOUBLE
    }
  }
}
node {
  name: "dipole_charge/filter_type_0/Slice_5/begin"
  op: "Const"
  attr {
    key: "dtype"
    value {
      type: DT_INT32
    }
  }
  attr {
    key: "value"
    value {
      tensor {
        dtype: DT_INT32
        tensor_shape {
          dim {
            size: 3
          }
        }
        tensor_content: "\000\000\000\000\001\000\000\000\000\000\000\000"
      }
    }
  }
}
node {
  name: "dipole_charge/filter_type_0/Slice_5/size"
  op: "Const"
  attr {
    key: "dtype"
    value {
      type: DT_INT32
    }
  }
  attr {
    key: "value"
    value {
      tensor {
        dtype: DT_INT32
        tensor_shape {
          dim {
            size: 3
          }
        }
        tensor_content: "\377\377\377\377\003\000\000\000\377\377\377\377"
      }
    }
  }
}
node {
  name: "dipole_charge/filter_type_0/Slice_5"
  op: "Slice"
  input: "dipole_charge/filter_type_0/truediv"
  input: "dipole_charge/filter_type_0/Slice_5/begin"
  input: "dipole_charge/filter_type_0/Slice_5/size"
  attr {
    key: "Index"
    value {
      type: DT_INT32
    }
  }
  attr {
    key: "T"
    value {
      type: DT_DOUBLE
    }
  }
}
node {
  name: "dipole_charge/filter_type_0/transpose/perm"
  op: "Const"
  attr {
    key: "dtype"
    value {
      type: DT_INT32
    }
  }
  attr {
    key: "value"
    value {
      tensor {
        dtype: DT_INT32
        tensor_shape {
          dim {
            size: 3
          }
        }
        tensor_content: "\000\000\000\000\002\000\000\000\001\000\000\000"
      }
    }
  }
}
node {
  name: "dipole_charge/filter_type_0/transpose"
  op: "Transpose"
  input: "dipole_charge/filter_type_0/Slice_5"
  input: "dipole_charge/filter_type_0/transpose/perm"
  attr {
    key: "T"
    value {
      type: DT_DOUBLE
    }
  }
  attr {
    key: "Tperm"
    value {
      type: DT_INT32
    }
  }
}
node {
  name: "dipole_charge/filter_type_0/MatMul_8"
  op: "BatchMatMulV2"
  input: "dipole_charge/filter_type_0/truediv"
  input: "dipole_charge/filter_type_0/Slice_4"
  attr {
    key: "T"
    value {
      type: DT_DOUBLE
    }
  }
  attr {
    key: "adj_x"
    value {
      b: true
    }
  }
  attr {
    key: "adj_y"
    value {
      b: false
    }
  }
}
node {
  name: "dipole_charge/filter_type_0/Reshape_14/shape"
  op: "Const"
  attr {
    key: "dtype"
    value {
      type: DT_INT32
    }
  }
  attr {
    key: "value"
    value {
      tensor {
        dtype: DT_INT32
        tensor_shape {
          dim {
            size: 2
          }
        }
        tensor_content: "\377\377\377\377P\000\000\000"
      }
    }
  }
}
node {
  name: "dipole_charge/filter_type_0/Reshape_14"
  op: "Reshape"
  input: "dipole_charge/filter_type_0/MatMul_8"
  input: "dipole_charge/filter_type_0/Reshape_14/shape"
  attr {
    key: "T"
    value {
      type: DT_DOUBLE
    }
  }
  attr {
    key: "Tshape"
    value {
      type: DT_INT32
    }
  }
}
node {
  name: "dipole_charge/Shape_2"
  op: "Shape"
  input: "dipole_charge/Reshape_6"
  attr {
    key: "T"
    value {
      type: DT_DOUBLE
    }
  }
  attr {
    key: "out_type"
    value {
      type: DT_INT32
    }
  }
}
node {
  name: "dipole_charge/strided_slice_10/stack"
  op: "Const"
  attr {
    key: "dtype"
    value {
      type: DT_INT32
    }
  }
  attr {
    key: "value"
    value {
      tensor {
        dtype: DT_INT32
        tensor_shape {
          dim {
            size: 1
          }
        }
        int_val: 0
      }
    }
  }
}
node {
  name: "dipole_charge/strided_slice_10/stack_1"
  op: "Const"
  attr {
    key: "dtype"
    value {
      type: DT_INT32
    }
  }
  attr {
    key: "value"
    value {
      tensor {
        dtype: DT_INT32
        tensor_shape {
          dim {
            size: 1
          }
        }
        int_val: 1
      }
    }
  }
}
node {
  name: "dipole_charge/strided_slice_10/stack_2"
  op: "Const"
  attr {
    key: "dtype"
    value {
      type: DT_INT32
    }
  }
  attr {
    key: "value"
    value {
      tensor {
        dtype: DT_INT32
        tensor_shape {
          dim {
            size: 1
          }
        }
        int_val: 1
      }
    }
  }
}
node {
  name: "dipole_charge/strided_slice_10"
  op: "StridedSlice"
  input: "dipole_charge/Shape_2"
  input: "dipole_charge/strided_slice_10/stack"
  input: "dipole_charge/strided_slice_10/stack_1"
  input: "dipole_charge/strided_slice_10/stack_2"
  attr {
    key: "Index"
    value {
      type: DT_INT32
    }
  }
  attr {
    key: "T"
    value {
      type: DT_INT32
    }
  }
  attr {
    key: "begin_mask"
    value {
      i: 0
    }
  }
  attr {
    key: "ellipsis_mask"
    value {
      i: 0
    }
  }
  attr {
    key: "end_mask"
    value {
      i: 0
    }
  }
  attr {
    key: "new_axis_mask"
    value {
      i: 0
    }
  }
  attr {
    key: "shrink_axis_mask"
    value {
      i: 1
    }
  }
}
node {
  name: "dipole_charge/strided_slice_11/stack"
  op: "Const"
  attr {
    key: "dtype"
    value {
      type: DT_INT32
    }
  }
  attr {
    key: "value"
    value {
      tensor {
        dtype: DT_INT32
        tensor_shape {
          dim {
            size: 1
          }
        }
        int_val: 2
      }
    }
  }
}
node {
  name: "dipole_charge/strided_slice_11/stack_1"
  op: "Const"
  attr {
    key: "dtype"
    value {
      type: DT_INT32
    }
  }
  attr {
    key: "value"
    value {
      tensor {
        dtype: DT_INT32
        tensor_shape {
          dim {
            size: 1
          }
        }
        int_val: 3
      }
    }
  }
}
node {
  name: "dipole_charge/strided_slice_11/stack_2"
  op: "Const"
  attr {
    key: "dtype"
    value {
      type: DT_INT32
    }
  }
  attr {
    key: "value"
    value {
      tensor {
        dtype: DT_INT32
        tensor_shape {
          dim {
            size: 1
          }
        }
        int_val: 1
      }
    }
  }
}
node {
  name: "dipole_charge/strided_slice_11"
  op: "StridedSlice"
  input: "dipole_charge/t_natoms"
  input: "dipole_charge/strided_slice_11/stack"
  input: "dipole_charge/strided_slice_11/stack_1"
  input: "dipole_charge/strided_slice_11/stack_2"
  attr {
    key: "Index"
    value {
      type: DT_INT32
    }
  }
  attr {
    key: "T"
    value {
      type: DT_INT32
    }
  }
  attr {
    key: "begin_mask"
    value {
      i: 0
    }
  }
  attr {
    key: "ellipsis_mask"
    value {
      i: 0
    }
  }
  attr {
    key: "end_mask"
    value {
      i: 0
    }
  }
  attr {
    key: "new_axis_mask"
    value {
      i: 0
    }
  }
  attr {
    key: "shrink_axis_mask"
    value {
      i: 1
    }
  }
}
node {
  name: "dipole_charge/Reshape_9/shape/2"
  op: "Const"
  attr {
    key: "dtype"
    value {
      type: DT_INT32
    }
  }
  attr {
    key: "value"
    value {
      tensor {
        dtype: DT_INT32
        tensor_shape {
        }
        int_val: 80
      }
    }
  }
}
node {
  name: "dipole_charge/Reshape_9/shape"
  op: "Pack"
  input: "dipole_charge/strided_slice_10"
  input: "dipole_charge/strided_slice_11"
  input: "dipole_charge/Reshape_9/shape/2"
  attr {
    key: "N"
    value {
      i: 3
    }
  }
  attr {
    key: "T"
    value {
      type: DT_INT32
    }
  }
  attr {
    key: "axis"
    value {
      i: 0
    }
  }
}
node {
  name: "dipole_charge/Reshape_9"
  op: "Reshape"
  input: "dipole_charge/filter_type_0/Reshape_14"
  input: "dipole_charge/Reshape_9/shape"
  attr {
    key: "T"
    value {
      type: DT_DOUBLE
    }
  }
  attr {
    key: "Tshape"
    value {
      type: DT_INT32
    }
  }
}
node {
  name: "dipole_charge/Shape_3"
  op: "Shape"
  input: "dipole_charge/Reshape_6"
  attr {
    key: "T"
    value {
      type: DT_DOUBLE
    }
  }
  attr {
    key: "out_type"
    value {
      type: DT_INT32
    }
  }
}
node {
  name: "dipole_charge/strided_slice_12/stack"
  op: "Const"
  attr {
    key: "dtype"
    value {
      type: DT_INT32
    }
  }
  attr {
    key: "value"
    value {
      tensor {
        dtype: DT_INT32
        tensor_shape {
          dim {
            size: 1
          }
        }
        int_val: 0
      }
    }
  }
}
node {
  name: "dipole_charge/strided_slice_12/stack_1"
  op: "Const"
  attr {
    key: "dtype"
    value {
      type: DT_INT32
    }
  }
  attr {
    key: "value"
    value {
      tensor {
        dtype: DT_INT32
        tensor_shape {
          dim {
            size: 1
          }
        }
        int_val: 1
      }
    }
  }
}
node {
  name: "dipole_charge/strided_slice_12/stack_2"
  op: "Const"
  attr {
    key: "dtype"
    value {
      type: DT_INT32
    }
  }
  attr {
    key: "value"
    value {
      tensor {
        dtype: DT_INT32
        tensor_shape {
          dim {
            size: 1
          }
        }
        int_val: 1
      }
    }
  }
}
node {
  name: "dipole_charge/strided_slice_12"
  op: "StridedSlice"
  input: "dipole_charge/Shape_3"
  input: "dipole_charge/strided_slice_12/stack"
  input: "dipole_charge/strided_slice_12/stack_1"
  input: "dipole_charge/strided_slice_12/stack_2"
  attr {
    key: "Index"
    value {
      type: DT_INT32
    }
  }
  attr {
    key: "T"
    value {
      type: DT_INT32
    }
  }
  attr {
    key: "begin_mask"
    value {
      i: 0
    }
  }
  attr {
    key: "ellipsis_mask"
    value {
      i: 0
    }
  }
  attr {
    key: "end_mask"
    value {
      i: 0
    }
  }
  attr {
    key: "new_axis_mask"
    value {
      i: 0
    }
  }
  attr {
    key: "shrink_axis_mask"
    value {
      i: 1
    }
  }
}
node {
  name: "dipole_charge/strided_slice_13/stack"
  op: "Const"
  attr {
    key: "dtype"
    value {
      type: DT_INT32
    }
  }
  attr {
    key: "value"
    value {
      tensor {
        dtype: DT_INT32
        tensor_shape {
          dim {
            size: 1
          }
        }
        int_val: 2
      }
    }
  }
}
node {
  name: "dipole_charge/strided_slice_13/stack_1"
  op: "Const"
  attr {
    key: "dtype"
    value {
      type: DT_INT32
    }
  }
  attr {
    key: "value"
    value {
      tensor {
        dtype: DT_INT32
        tensor_shape {
          dim {
            size: 1
          }
        }
        int_val: 3
      }
    }
  }
}
node {
  name: "dipole_charge/strided_slice_13/stack_2"
  op: "Const"
  attr {
    key: "dtype"
    value {
      type: DT_INT32
    }
  }
  attr {
    key: "value"
    value {
      tensor {
        dtype: DT_INT32
        tensor_shape {
          dim {
            size: 1
          }
        }
        int_val: 1
      }
    }
  }
}
node {
  name: "dipole_charge/strided_slice_13"
  op: "StridedSlice"
  input: "dipole_charge/t_natoms"
  input: "dipole_charge/strided_slice_13/stack"
  input: "dipole_charge/strided_slice_13/stack_1"
  input: "dipole_charge/strided_slice_13/stack_2"
  attr {
    key: "Index"
    value {
      type: DT_INT32
    }
  }
  attr {
    key: "T"
    value {
      type: DT_INT32
    }
  }
  attr {
    key: "begin_mask"
    value {
      i: 0
    }
  }
  attr {
    key: "ellipsis_mask"
    value {
      i: 0
    }
  }
  attr {
    key: "end_mask"
    value {
      i: 0
    }
  }
  attr {
    key: "new_axis_mask"
    value {
      i: 0
    }
  }
  attr {
    key: "shrink_axis_mask"
    value {
      i: 1
    }
  }
}
node {
  name: "dipole_charge/Reshape_10/shape/2"
  op: "Const"
  attr {
    key: "dtype"
    value {
      type: DT_INT32
    }
  }
  attr {
    key: "value"
    value {
      tensor {
        dtype: DT_INT32
        tensor_shape {
        }
        int_val: 30
      }
    }
  }
}
node {
  name: "dipole_charge/Reshape_10/shape"
  op: "Pack"
  input: "dipole_charge/strided_slice_12"
  input: "dipole_charge/strided_slice_13"
  input: "dipole_charge/Reshape_10/shape/2"
  attr {
    key: "N"
    value {
      i: 3
    }
  }
  attr {
    key: "T"
    value {
      type: DT_INT32
    }
  }
  attr {
    key: "axis"
    value {
      i: 0
    }
  }
}
node {
  name: "dipole_charge/Reshape_10"
  op: "Reshape"
  input: "dipole_charge/filter_type_0/transpose"
  input: "dipole_charge/Reshape_10/shape"
  attr {
    key: "T"
    value {
      type: DT_DOUBLE
    }
  }
  attr {
    key: "Tshape"
    value {
      type: DT_INT32
    }
  }
}
node {
  name: "dipole_charge/strided_slice_14/stack"
  op: "Const"
  attr {
    key: "dtype"
    value {
      type: DT_INT32
    }
  }
  attr {
    key: "value"
    value {
      tensor {
        dtype: DT_INT32
        tensor_shape {
          dim {
            size: 1
          }
        }
        int_val: 2
      }
    }
  }
}
node {
  name: "dipole_charge/strided_slice_14/stack_1"
  op: "Const"
  attr {
    key: "dtype"
    value {
      type: DT_INT32
    }
  }
  attr {
    key: "value"
    value {
      tensor {
        dtype: DT_INT32
        tensor_shape {
          dim {
            size: 1
          }
        }
        int_val: 3
      }
    }
  }
}
node {
  name: "dipole_charge/strided_slice_14/stack_2"
  op: "Const"
  attr {
    key: "dtype"
    value {
      type: DT_INT32
    }
  }
  attr {
    key: "value"
    value {
      tensor {
        dtype: DT_INT32
        tensor_shape {
          dim {
            size: 1
          }
        }
        int_val: 1
      }
    }
  }
}
node {
  name: "dipole_charge/strided_slice_14"
  op: "StridedSlice"
  input: "dipole_charge/t_natoms"
  input: "dipole_charge/strided_slice_14/stack"
  input: "dipole_charge/strided_slice_14/stack_1"
  input: "dipole_charge/strided_slice_14/stack_2"
  attr {
    key: "Index"
    value {
      type: DT_INT32
    }
  }
  attr {
    key: "T"
    value {
      type: DT_INT32
    }
  }
  attr {
    key: "begin_mask"
    value {
      i: 0
    }
  }
  attr {
    key: "ellipsis_mask"
    value {
      i: 0
    }
  }
  attr {
    key: "end_mask"
    value {
      i: 0
    }
  }
  attr {
    key: "new_axis_mask"
    value {
      i: 0
    }
  }
  attr {
    key: "shrink_axis_mask"
    value {
      i: 1
    }
  }
}
node {
  name: "dipole_charge/add_1/x"
  op: "Const"
  attr {
    key: "dtype"
    value {
      type: DT_INT32
    }
  }
  attr {
    key: "value"
    value {
      tensor {
        dtype: DT_INT32
        tensor_shape {
        }
        int_val: 0
      }
    }
  }
}
node {
  name: "dipole_charge/add_1"
  op: "AddV2"
  input: "dipole_charge/add_1/x"
  input: "dipole_charge/strided_slice_14"
  attr {
    key: "T"
    value {
      type: DT_INT32
    }
  }
}
node {
  name: "dipole_charge/strided_slice_15/stack"
  op: "Const"
  attr {
    key: "dtype"
    value {
      type: DT_INT32
    }
  }
  attr {
    key: "value"
    value {
      tensor {
        dtype: DT_INT32
        tensor_shape {
          dim {
            size: 1
          }
        }
        int_val: 3
      }
    }
  }
}
node {
  name: "dipole_charge/strided_slice_15/stack_1"
  op: "Const"
  attr {
    key: "dtype"
    value {
      type: DT_INT32
    }
  }
  attr {
    key: "value"
    value {
      tensor {
        dtype: DT_INT32
        tensor_shape {
          dim {
            size: 1
          }
        }
        int_val: 4
      }
    }
  }
}
node {
  name: "dipole_charge/strided_slice_15/stack_2"
  op: "Const"
  attr {
    key: "dtype"
    value {
      type: DT_INT32
    }
  }
  attr {
    key: "value"
    value {
      tensor {
        dtype: DT_INT32
        tensor_shape {
          dim {
            size: 1
          }
        }
        int_val: 1
      }
    }
  }
}
node {
  name: "dipole_charge/strided_slice_15"
  op: "StridedSlice"
  input: "dipole_charge/t_natoms"
  input: "dipole_charge/strided_slice_15/stack"
  input: "dipole_charge/strided_slice_15/stack_1"
  input: "dipole_charge/strided_slice_15/stack_2"
  attr {
    key: "Index"
    value {
      type: DT_INT32
    }
  }
  attr {
    key: "T"
    value {
      type: DT_INT32
    }
  }
  attr {
    key: "begin_mask"
    value {
      i: 0
    }
  }
  attr {
    key: "ellipsis_mask"
    value {
      i: 0
    }
  }
  attr {
    key: "end_mask"
    value {
      i: 0
    }
  }
  attr {
    key: "new_axis_mask"
    value {
      i: 0
    }
  }
  attr {
    key: "shrink_axis_mask"
    value {
      i: 1
    }
  }
}
node {
  name: "dipole_charge/Slice_1/begin/0"
  op: "Const"
  attr {
    key: "dtype"
    value {
      type: DT_INT32
    }
  }
  attr {
    key: "value"
    value {
      tensor {
        dtype: DT_INT32
        tensor_shape {
        }
        int_val: 0
      }
    }
  }
}
node {
  name: "dipole_charge/Slice_1/begin/2"
  op: "Const"
  attr {
    key: "dtype"
    value {
      type: DT_INT32
    }
  }
  attr {
    key: "value"
    value {
      tensor {
        dtype: DT_INT32
        tensor_shape {
        }
        int_val: 0
      }
    }
  }
}
node {
  name: "dipole_charge/Slice_1/begin"
  op: "Pack"
  input: "dipole_charge/Slice_1/begin/0"
  input: "dipole_charge/add_1"
  input: "dipole_charge/Slice_1/begin/2"
  attr {
    key: "N"
    value {
      i: 3
    }
  }
  attr {
    key: "T"
    value {
      type: DT_INT32
    }
  }
  attr {
    key: "axis"
    value {
      i: 0
    }
  }
}
node {
  name: "dipole_charge/Slice_1/size/0"
  op: "Const"
  attr {
    key: "dtype"
    value {
      type: DT_INT32
    }
  }
  attr {
    key: "value"
    value {
      tensor {
        dtype: DT_INT32
        tensor_shape {
        }
        int_val: -1
      }
    }
  }
}
node {
  name: "dipole_charge/Slice_1/size/2"
  op: "Const"
  attr {
    key: "dtype"
    value {
      type: DT_INT32
    }
  }
  attr {
    key: "value"
    value {
      tensor {
        dtype: DT_INT32
        tensor_shape {
        }
        int_val: -1
      }
    }
  }
}
node {
  name: "dipole_charge/Slice_1/size"
  op: "Pack"
  input: "dipole_charge/Slice_1/size/0"
  input: "dipole_charge/strided_slice_15"
  input: "dipole_charge/Slice_1/size/2"
  attr {
    key: "N"
    value {
      i: 3
    }
  }
  attr {
    key: "T"
    value {
      type: DT_INT32
    }
  }
  attr {
    key: "axis"
    value {
      i: 0
    }
  }
}
node {
  name: "dipole_charge/Slice_1"
  op: "Slice"
  input: "dipole_charge/Reshape_6"
  input: "dipole_charge/Slice_1/begin"
  input: "dipole_charge/Slice_1/size"
  attr {
    key: "Index"
    value {
      type: DT_INT32
    }
  }
  attr {
    key: "T"
    value {
      type: DT_DOUBLE
    }
  }
}
node {
  name: "dipole_charge/Reshape_11/shape"
  op: "Const"
  attr {
    key: "dtype"
    value {
      type: DT_INT32
    }
  }
  attr {
    key: "value"
    value {
      tensor {
        dtype: DT_INT32
        tensor_shape {
          dim {
            size: 2
          }
        }
        tensor_content: "\377\377\377\377(\002\000\000"
      }
    }
  }
}
node {
  name: "dipole_charge/Reshape_11"
  op: "Reshape"
  input: "dipole_charge/Slice_1"
  input: "dipole_charge/Reshape_11/shape"
  attr {
    key: "T"
    value {
      type: DT_DOUBLE
    }
  }
  attr {
    key: "Tshape"
    value {
      type: DT_INT32
    }
  }
}
node {
  name: "dipole_charge/filter_type_1/Slice/begin"
  op: "Const"
  attr {
    key: "dtype"
    value {
      type: DT_INT32
    }
  }
  attr {
    key: "value"
    value {
      tensor {
        dtype: DT_INT32
        tensor_shape {
          dim {
            size: 2
          }
        }
        tensor_content: "\000\000\000\000\000\000\000\000"
      }
    }
  }
}
node {
  name: "dipole_charge/filter_type_1/Slice/size"
  op: "Const"
  attr {
    key: "dtype"
    value {
      type: DT_INT32
    }
  }
  attr {
    key: "value"
    value {
      tensor {
        dtype: DT_INT32
        tensor_shape {
          dim {
            size: 2
          }
        }
        tensor_content: "\377\377\377\377\270\000\000\000"
      }
    }
  }
}
node {
  name: "dipole_charge/filter_type_1/Slice"
  op: "Slice"
  input: "dipole_charge/Reshape_11"
  input: "dipole_charge/filter_type_1/Slice/begin"
  input: "dipole_charge/filter_type_1/Slice/size"
  attr {
    key: "Index"
    value {
      type: DT_INT32
    }
  }
  attr {
    key: "T"
    value {
      type: DT_DOUBLE
    }
  }
}
node {
  name: "dipole_charge/filter_type_1/Shape"
  op: "Shape"
  input: "dipole_charge/filter_type_1/Slice"
  attr {
    key: "T"
    value {
      type: DT_DOUBLE
    }
  }
  attr {
    key: "out_type"
    value {
      type: DT_INT32
    }
  }
}
node {
  name: "dipole_charge/filter_type_1/strided_slice/stack"
  op: "Const"
  attr {
    key: "dtype"
    value {
      type: DT_INT32
    }
  }
  attr {
    key: "value"
    value {
      tensor {
        dtype: DT_INT32
        tensor_shape {
          dim {
            size: 1
          }
        }
        int_val: 0
      }
    }
  }
}
node {
  name: "dipole_charge/filter_type_1/strided_slice/stack_1"
  op: "Const"
  attr {
    key: "dtype"
    value {
      type: DT_INT32
    }
  }
  attr {
    key: "value"
    value {
      tensor {
        dtype: DT_INT32
        tensor_shape {
          dim {
            size: 1
          }
        }
        int_val: 1
      }
    }
  }
}
node {
  name: "dipole_charge/filter_type_1/strided_slice/stack_2"
  op: "Const"
  attr {
    key: "dtype"
    value {
      type: DT_INT32
    }
  }
  attr {
    key: "value"
    value {
      tensor {
        dtype: DT_INT32
        tensor_shape {
          dim {
            size: 1
          }
        }
        int_val: 1
      }
    }
  }
}
node {
  name: "dipole_charge/filter_type_1/strided_slice"
  op: "StridedSlice"
  input: "dipole_charge/filter_type_1/Shape"
  input: "dipole_charge/filter_type_1/strided_slice/stack"
  input: "dipole_charge/filter_type_1/strided_slice/stack_1"
  input: "dipole_charge/filter_type_1/strided_slice/stack_2"
  attr {
    key: "Index"
    value {
      type: DT_INT32
    }
  }
  attr {
    key: "T"
    value {
      type: DT_INT32
    }
  }
  attr {
    key: "begin_mask"
    value {
      i: 0
    }
  }
  attr {
    key: "ellipsis_mask"
    value {
      i: 0
    }
  }
  attr {
    key: "end_mask"
    value {
      i: 0
    }
  }
  attr {
    key: "new_axis_mask"
    value {
      i: 0
    }
  }
  attr {
    key: "shrink_axis_mask"
    value {
      i: 1
    }
  }
}
node {
  name: "dipole_charge/filter_type_1/Reshape/shape"
  op: "Const"
  attr {
    key: "dtype"
    value {
      type: DT_INT32
    }
  }
  attr {
    key: "value"
    value {
      tensor {
        dtype: DT_INT32
        tensor_shape {
          dim {
            size: 2
          }
        }
        tensor_content: "\377\377\377\377\004\000\000\000"
      }
    }
  }
}
node {
  name: "dipole_charge/filter_type_1/Reshape"
  op: "Reshape"
  input: "dipole_charge/filter_type_1/Slice"
  input: "dipole_charge/filter_type_1/Reshape/shape"
  attr {
    key: "T"
    value {
      type: DT_DOUBLE
    }
  }
  attr {
    key: "Tshape"
    value {
      type: DT_INT32
    }
  }
}
node {
  name: "dipole_charge/filter_type_1/Slice_1/begin"
  op: "Const"
  attr {
    key: "dtype"
    value {
      type: DT_INT32
    }
  }
  attr {
    key: "value"
    value {
      tensor {
        dtype: DT_INT32
        tensor_shape {
          dim {
            size: 2
          }
        }
        tensor_content: "\000\000\000\000\000\000\000\000"
      }
    }
  }
}
node {
  name: "dipole_charge/filter_type_1/Slice_1/size"
  op: "Const"
  attr {
    key: "dtype"
    value {
      type: DT_INT32
    }
  }
  attr {
    key: "value"
    value {
      tensor {
        dtype: DT_INT32
        tensor_shape {
          dim {
            size: 2
          }
        }
        tensor_content: "\377\377\377\377\001\000\000\000"
      }
    }
  }
}
node {
  name: "dipole_charge/filter_type_1/Slice_1"
  op: "Slice"
  input: "dipole_charge/filter_type_1/Reshape"
  input: "dipole_charge/filter_type_1/Slice_1/begin"
  input: "dipole_charge/filter_type_1/Slice_1/size"
  attr {
    key: "Index"
    value {
      type: DT_INT32
    }
  }
  attr {
    key: "T"
    value {
      type: DT_DOUBLE
    }
  }
}
node {
  name: "dipole_charge/filter_type_1/Reshape_1/shape"
  op: "Const"
  attr {
    key: "dtype"
    value {
      type: DT_INT32
    }
  }
  attr {
    key: "value"
    value {
      tensor {
        dtype: DT_INT32
        tensor_shape {
          dim {
            size: 2
          }
        }
        tensor_content: "\377\377\377\377\001\000\000\000"
      }
    }
  }
}
node {
  name: "dipole_charge/filter_type_1/Reshape_1"
  op: "Reshape"
  input: "dipole_charge/filter_type_1/Slice_1"
  input: "dipole_charge/filter_type_1/Reshape_1/shape"
  attr {
    key: "T"
    value {
      type: DT_DOUBLE
    }
  }
  attr {
    key: "Tshape"
    value {
      type: DT_INT32
    }
  }
}
node {
  name: "dipole_charge/filter_type_1/matrix_1_0"
  op: "Const"
  attr {
    key: "dtype"
    value {
      type: DT_DOUBLE
    }
  }
  attr {
    key: "value"
    value {
      tensor {
        dtype: DT_DOUBLE
        tensor_shape {
          dim {
            size: 1
          }
          dim {
            size: 2
          }
        }
        tensor_content: "\350\370n>-\232\320\277\201\326\373\321\322t\356?"
      }
    }
  }
}
node {
  name: "dipole_charge/filter_type_1/matrix_1_0/read"
  op: "Identity"
  input: "dipole_charge/filter_type_1/matrix_1_0"
  attr {
    key: "T"
    value {
      type: DT_DOUBLE
    }
  }
  attr {
    key: "_class"
    value {
      list {
        s: "loc:@dipole_charge/filter_type_1/matrix_1_0"
      }
    }
  }
}
node {
  name: "dipole_charge/filter_type_1/bias_1_0"
  op: "Const"
  attr {
    key: "dtype"
    value {
      type: DT_DOUBLE
    }
  }
  attr {
    key: "value"
    value {
      tensor {
        dtype: DT_DOUBLE
        tensor_shape {
          dim {
            size: 2
          }
        }
        tensor_content: "\230\325\2407\274\331\330\277\244\326\356\274\247\035\337\277"
      }
    }
  }
}
node {
  name: "dipole_charge/filter_type_1/bias_1_0/read"
  op: "Identity"
  input: "dipole_charge/filter_type_1/bias_1_0"
  attr {
    key: "T"
    value {
      type: DT_DOUBLE
    }
  }
  attr {
    key: "_class"
    value {
      list {
        s: "loc:@dipole_charge/filter_type_1/bias_1_0"
      }
    }
  }
}
node {
  name: "dipole_charge/filter_type_1/MatMul"
  op: "MatMul"
  input: "dipole_charge/filter_type_1/Reshape_1"
  input: "dipole_charge/filter_type_1/matrix_1_0/read"
  attr {
    key: "T"
    value {
      type: DT_DOUBLE
    }
  }
  attr {
    key: "transpose_a"
    value {
      b: false
    }
  }
  attr {
    key: "transpose_b"
    value {
      b: false
    }
  }
}
node {
  name: "dipole_charge/filter_type_1/BiasAdd"
  op: "BiasAdd"
  input: "dipole_charge/filter_type_1/MatMul"
  input: "dipole_charge/filter_type_1/bias_1_0/read"
  attr {
    key: "T"
    value {
      type: DT_DOUBLE
    }
  }
  attr {
    key: "data_format"
    value {
      s: "NHWC"
    }
  }
}
node {
  name: "dipole_charge/filter_type_1/Tanh"
  op: "Tanh"
  input: "dipole_charge/filter_type_1/BiasAdd"
  attr {
    key: "T"
    value {
      type: DT_DOUBLE
    }
  }
}
node {
  name: "dipole_charge/filter_type_1/Reshape_2/shape"
  op: "Const"
  attr {
    key: "dtype"
    value {
      type: DT_INT32
    }
  }
  attr {
    key: "value"
    value {
      tensor {
        dtype: DT_INT32
        tensor_shape {
          dim {
            size: 2
          }
        }
        tensor_content: "\377\377\377\377\002\000\000\000"
      }
    }
  }
}
node {
  name: "dipole_charge/filter_type_1/Reshape_2"
  op: "Reshape"
  input: "dipole_charge/filter_type_1/Tanh"
  input: "dipole_charge/filter_type_1/Reshape_2/shape"
  attr {
    key: "T"
    value {
      type: DT_DOUBLE
    }
  }
  attr {
    key: "Tshape"
    value {
      type: DT_INT32
    }
  }
}
node {
  name: "dipole_charge/filter_type_1/concat/axis"
  op: "Const"
  attr {
    key: "dtype"
    value {
      type: DT_INT32
    }
  }
  attr {
    key: "value"
    value {
      tensor {
        dtype: DT_INT32
        tensor_shape {
        }
        int_val: 1
      }
    }
  }
}
node {
  name: "dipole_charge/filter_type_1/concat"
  op: "ConcatV2"
  input: "dipole_charge/filter_type_1/Reshape_1"
  input: "dipole_charge/filter_type_1/Reshape_1"
  input: "dipole_charge/filter_type_1/concat/axis"
  attr {
    key: "N"
    value {
      i: 2
    }
  }
  attr {
    key: "T"
    value {
      type: DT_DOUBLE
    }
  }
  attr {
    key: "Tidx"
    value {
      type: DT_INT32
    }
  }
}
node {
  name: "dipole_charge/filter_type_1/add"
  op: "AddV2"
  input: "dipole_charge/filter_type_1/concat"
  input: "dipole_charge/filter_type_1/Reshape_2"
  attr {
    key: "T"
    value {
      type: DT_DOUBLE
    }
  }
}
node {
  name: "dipole_charge/filter_type_1/matrix_2_0"
  op: "Const"
  attr {
    key: "dtype"
    value {
      type: DT_DOUBLE
    }
  }
  attr {
    key: "value"
    value {
      tensor {
        dtype: DT_DOUBLE
        tensor_shape {
          dim {
            size: 2
          }
          dim {
            size: 5
          }
        }
        tensor_content: "…"
      }
    }
  }
}
node {
  name: "dipole_charge/filter_type_1/matrix_2_0/read"
  op: "Identity"
  input: "dipole_charge/filter_type_1/matrix_2_0"
  attr {
    key: "T"
    value {
      type: DT_DOUBLE
    }
  }
  attr {
    key: "_class"
    value {
      list {
        s: "loc:@dipole_charge/filter_type_1/matrix_2_0"
      }
    }
  }
}
node {
  name: "dipole_charge/filter_type_1/bias_2_0"
  op: "Const"
  attr {
    key: "dtype"
    value {
      type: DT_DOUBLE
    }
  }
  attr {
    key: "value"
    value {
      tensor {
        dtype: DT_DOUBLE
        tensor_shape {
          dim {
            size: 5
          }
        }
        tensor_content: "…"
      }
    }
  }
}
node {
  name: "dipole_charge/filter_type_1/bias_2_0/read"
  op: "Identity"
  input: "dipole_charge/filter_type_1/bias_2_0"
  attr {
    key: "T"
    value {
      type: DT_DOUBLE
    }
  }
  attr {
    key: "_class"
    value {
      list {
        s: "loc:@dipole_charge/filter_type_1/bias_2_0"
      }
    }
  }
}
node {
  name: "dipole_charge/filter_type_1/MatMul_1"
  op: "MatMul"
  input: "dipole_charge/filter_type_1/add"
  input: "dipole_charge/filter_type_1/matrix_2_0/read"
  attr {
    key: "T"
    value {
      type: DT_DOUBLE
    }
  }
  attr {
    key: "transpose_a"
    value {
      b: false
    }
  }
  attr {
    key: "transpose_b"
    value {
      b: false
    }
  }
}
node {
  name: "dipole_charge/filter_type_1/BiasAdd_1"
  op: "BiasAdd"
  input: "dipole_charge/filter_type_1/MatMul_1"
  input: "dipole_charge/filter_type_1/bias_2_0/read"
  attr {
    key: "T"
    value {
      type: DT_DOUBLE
    }
  }
  attr {
    key: "data_format"
    value {
      s: "NHWC"
    }
  }
}
node {
  name: "dipole_charge/filter_type_1/Tanh_1"
  op: "Tanh"
  input: "dipole_charge/filter_type_1/BiasAdd_1"
  attr {
    key: "T"
    value {
      type: DT_DOUBLE
    }
  }
}
node {
  name: "dipole_charge/filter_type_1/Reshape_3/shape"
  op: "Const"
  attr {
    key: "dtype"
    value {
      type: DT_INT32
    }
  }
  attr {
    key: "value"
    value {
      tensor {
        dtype: DT_INT32
        tensor_shape {
          dim {
            size: 2
          }
        }
        tensor_content: "\377\377\377\377\005\000\000\000"
      }
    }
  }
}
node {
  name: "dipole_charge/filter_type_1/Reshape_3"
  op: "Reshape"
  input: "dipole_charge/filter_type_1/Tanh_1"
  input: "dipole_charge/filter_type_1/Reshape_3/shape"
  attr {
    key: "T"
    value {
      type: DT_DOUBLE
    }
  }
  attr {
    key: "Tshape"
    value {
      type: DT_INT32
    }
  }
}
node {
  name: "dipole_charge/filter_type_1/matrix_3_0"
  op: "Const"
  attr {
    key: "dtype"
    value {
      type: DT_DOUBLE
    }
  }
  attr {
    key: "value"
    value {
      tensor {
        dtype: DT_DOUBLE
        tensor_shape {
          dim {
            size: 5
          }
          dim {
            size: 10
          }
        }
        tensor_content: "…"
      }
    }
  }
}
node {
  name: "dipole_charge/filter_type_1/matrix_3_0/read"
  op: "Identity"
  input: "dipole_charge/filter_type_1/matrix_3_0"
  attr {
    key: "T"
    value {
      type: DT_DOUBLE
    }
  }
  attr {
    key: "_class"
    value {
      list {
        s: "loc:@dipole_charge/filter_type_1/matrix_3_0"
      }
    }
  }
}
node {
  name: "dipole_charge/filter_type_1/bias_3_0"
  op: "Const"
  attr {
    key: "dtype"
    value {
      type: DT_DOUBLE
    }
  }
  attr {
    key: "value"
    value {
      tensor {
        dtype: DT_DOUBLE
        tensor_shape {
          dim {
            size: 10
          }
        }
        tensor_content: "…"
      }
    }
  }
}
node {
  name: "dipole_charge/filter_type_1/bias_3_0/read"
  op: "Identity"
  input: "dipole_charge/filter_type_1/bias_3_0"
  attr {
    key: "T"
    value {
      type: DT_DOUBLE
    }
  }
  attr {
    key: "_class"
    value {
      list {
        s: "loc:@dipole_charge/filter_type_1/bias_3_0"
      }
    }
  }
}
node {
  name: "dipole_charge/filter_type_1/MatMul_2"
  op: "MatMul"
  input: "dipole_charge/filter_type_1/Reshape_3"
  input: "dipole_charge/filter_type_1/matrix_3_0/read"
  attr {
    key: "T"
    value {
      type: DT_DOUBLE
    }
  }
  attr {
    key: "transpose_a"
    value {
      b: false
    }
  }
  attr {
    key: "transpose_b"
    value {
      b: false
    }
  }
}
node {
  name: "dipole_charge/filter_type_1/BiasAdd_2"
  op: "BiasAdd"
  input: "dipole_charge/filter_type_1/MatMul_2"
  input: "dipole_charge/filter_type_1/bias_3_0/read"
  attr {
    key: "T"
    value {
      type: DT_DOUBLE
    }
  }
  attr {
    key: "data_format"
    value {
      s: "NHWC"
    }
  }
}
node {
  name: "dipole_charge/filter_type_1/Tanh_2"
  op: "Tanh"
  input: "dipole_charge/filter_type_1/BiasAdd_2"
  attr {
    key: "T"
    value {
      type: DT_DOUBLE
    }
  }
}
node {
  name: "dipole_charge/filter_type_1/Reshape_4/shape"
  op: "Const"
  attr {
    key: "dtype"
    value {
      type: DT_INT32
    }
  }
  attr {
    key: "value"
    value {
      tensor {
        dtype: DT_INT32
        tensor_shape {
          dim {
            size: 2
          }
        }
        tensor_content: "\377\377\377\377\n\000\000\000"
      }
    }
  }
}
node {
  name: "dipole_charge/filter_type_1/Reshape_4"
  op: "Reshape"
  input: "dipole_charge/filter_type_1/Tanh_2"
  input: "dipole_charge/filter_type_1/Reshape_4/shape"
  attr {
    key: "T"
    value {
      type: DT_DOUBLE
    }
  }
  attr {
    key: "Tshape"
    value {
      type: DT_INT32
    }
  }
}
node {
  name: "dipole_charge/filter_type_1/concat_1/axis"
  op: "Const"
  attr {
    key: "dtype"
    value {
      type: DT_INT32
    }
  }
  attr {
    key: "value"
    value {
      tensor {
        dtype: DT_INT32
        tensor_shape {
        }
        int_val: 1
      }
    }
  }
}
node {
  name: "dipole_charge/filter_type_1/concat_1"
  op: "ConcatV2"
  input: "dipole_charge/filter_type_1/Reshape_3"
  input: "dipole_charge/filter_type_1/Reshape_3"
  input: "dipole_charge/filter_type_1/concat_1/axis"
  attr {
    key: "N"
    value {
      i: 2
    }
  }
  attr {
    key: "T"
    value {
      type: DT_DOUBLE
    }
  }
  attr {
    key: "Tidx"
    value {
      type: DT_INT32
    }
  }
}
node {
  name: "dipole_charge/filter_type_1/add_1"
  op: "AddV2"
  input: "dipole_charge/filter_type_1/concat_1"
  input: "dipole_charge/filter_type_1/Reshape_4"
  attr {
    key: "T"
    value {
      type: DT_DOUBLE
    }
  }
}
node {
  name: "dipole_charge/filter_type_1/Reshape_5/shape"
  op: "Const"
  attr {
    key: "dtype"
    value {
      type: DT_INT32
    }
  }
  attr {
    key: "value"
    value {
      tensor {
        dtype: DT_INT32
        tensor_shape {
          dim {
            size: 3
          }
        }
        tensor_content: "\377\377\377\377.\000\000\000\n\000\000\000"
      }
    }
  }
}
node {
  name: "dipole_charge/filter_type_1/Reshape_5"
  op: "Reshape"
  input: "dipole_charge/filter_type_1/add_1"
  input: "dipole_charge/filter_type_1/Reshape_5/shape"
  attr {
    key: "T"
    value {
      type: DT_DOUBLE
    }
  }
  attr {
    key: "Tshape"
    value {
      type: DT_INT32
    }
  }
}
node {
  name: "dipole_charge/filter_type_1/Reshape_6/shape/1"
  op: "Const"
  attr {
    key: "dtype"
    value {
      type: DT_INT32
    }
  }
  attr {
    key: "value"
    value {
      tensor {
        dtype: DT_INT32
        tensor_shape {
        }
        int_val: 46
      }
    }
  }
}
node {
  name: "dipole_charge/filter_type_1/Reshape_6/shape/2"
  op: "Const"
  attr {
    key: "dtype"
    value {
      type: DT_INT32
    }
  }
  attr {
    key: "value"
    value {
      tensor {
        dtype: DT_INT32
        tensor_shape {
        }
        int_val: 4
      }
    }
  }
}
node {
  name: "dipole_charge/filter_type_1/Reshape_6/shape"
  op: "Pack"
  input: "dipole_charge/filter_type_1/strided_slice"
  input: "dipole_charge/filter_type_1/Reshape_6/shape/1"
  input: "dipole_charge/filter_type_1/Reshape_6/shape/2"
  attr {
    key: "N"
    value {
      i: 3
    }
  }
  attr {
    key: "T"
    value {
      type: DT_INT32
    }
  }
  attr {
    key: "axis"
    value {
      i: 0
    }
  }
}
node {
  name: "dipole_charge/filter_type_1/Reshape_6"
  op: "Reshape"
  input: "dipole_charge/filter_type_1/Slice"
  input: "dipole_charge/filter_type_1/Reshape_6/shape"
  attr {
    key: "T"
    value {
      type: DT_DOUBLE
    }
  }
  attr {
    key: "Tshape"
    value {
      type: DT_INT32
    }
  }
}
node {
  name: "dipole_charge/filter_type_1/MatMul_3"
  op: "BatchMatMulV2"
  input: "dipole_charge/filter_type_1/Reshape_6"
  input: "dipole_charge/filter_type_1/Reshape_5"
  attr {
    key: "T"
    value {
      type: DT_DOUBLE
    }
  }
  attr {
    key: "adj_x"
    value {
      b: true
    }
  }
  attr {
    key: "adj_y"
    value {
      b: false
    }
  }
}
node {
  name: "dipole_charge/filter_type_1/Slice_2/begin"
  op: "Const"
  attr {
    key: "dtype"
    value {
      type: DT_INT32
    }
  }
  attr {
    key: "value"
    value {
      tensor {
        dtype: DT_INT32
        tensor_shape {
          dim {
            size: 2
          }
        }
        tensor_content: "\000\000\000\000\270\000\000\000"
      }
    }
  }
}
node {
  name: "dipole_charge/filter_type_1/Slice_2/size"
  op: "Const"
  attr {
    key: "dtype"
    value {
      type: DT_INT32
    }
  }
  attr {
    key: "value"
    value {
      tensor {
        dtype: DT_INT32
        tensor_shape {
          dim {
            size: 2
          }
        }
        tensor_content: "\377\377\377\377p\001\000\000"
      }
    }
  }
}
node {
  name: "dipole_charge/filter_type_1/Slice_2"
  op: "Slice"
  input: "dipole_charge/Reshape_11"
  input: "dipole_charge/filter_type_1/Slice_2/begin"
  input: "dipole_charge/filter_type_1/Slice_2/size"
  attr {
    key: "Index"
    value {
      type: DT_INT32
    }
  }
  attr {
    key: "T"
    value {
      type: DT_DOUBLE
    }
  }
}
node {
  name: "dipole_charge/filter_type_1/Shape_1"
  op: "Shape"
  input: "dipole_charge/filter_type_1/Slice_2"
  attr {
    key: "T"
    value {
      type: DT_DOUBLE
    }
  }
  attr {
    key: "out_type"
    value {
      type: DT_INT32
    }
  }
}
node {
  name: "dipole_charge/filter_type_1/strided_slice_1/stack"
  op: "Const"
  attr {
    key: "dtype"
    value {
      type: DT_INT32
    }
  }
  attr {
    key: "value"
    value {
      tensor {
        dtype: DT_INT32
        tensor_shape {
          dim {
            size: 1
          }
        }
        int_val: 0
      }
    }
  }
}
node {
  name: "dipole_charge/filter_type_1/strided_slice_1/stack_1"
  op: "Const"
  attr {
    key: "dtype"
    value {
      type: DT_INT32
    }
  }
  attr {
    key: "value"
    value {
      tensor {
        dtype: DT_INT32
        tensor_shape {
          dim {
            size: 1
          }
        }
        int_val: 1
      }
    }
  }
}
node {
  name: "dipole_charge/filter_type_1/strided_slice_1/stack_2"
  op: "Const"
  attr {
    key: "dtype"
    value {
      type: DT_INT32
    }
  }
  attr {
    key: "value"
    value {
      tensor {
        dtype: DT_INT32
        tensor_shape {
          dim {
            size: 1
          }
        }
        int_val: 1
      }
    }
  }
}
node {
  name: "dipole_charge/filter_type_1/strided_slice_1"
  op: "StridedSlice"
  input: "dipole_charge/filter_type_1/Shape_1"
  input: "dipole_charge/filter_type_1/strided_slice_1/stack"
  input: "dipole_charge/filter_type_1/strided_slice_1/stack_1"
  input: "dipole_charge/filter_type_1/strided_slice_1/stack_2"
  attr {
    key: "Index"
    value {
      type: DT_INT32
    }
  }
  attr {
    key: "T"
    value {
      type: DT_INT32
    }
  }
  attr {
    key: "begin_mask"
    value {
      i: 0
    }
  }
  attr {
    key: "ellipsis_mask"
    value {
      i: 0
    }
  }
  attr {
    key: "end_mask"
    value {
      i: 0
    }
  }
  attr {
    key: "new_axis_mask"
    value {
      i: 0
    }
  }
  attr {
    key: "shrink_axis_mask"
    value {
      i: 1
    }
  }
}
node {
  name: "dipole_charge/filter_type_1/Reshape_7/shape"
  op: "Const"
  attr {
    key: "dtype"
    value {
      type: DT_INT32
    }
  }
  attr {
    key: "value"
    value {
      tensor {
        dtype: DT_INT32
        tensor_shape {
          dim {
            size: 2
          }
        }
        tensor_content: "\377\377\377\377\004\000\000\000"
      }
    }
  }
}
node {
  name: "dipole_charge/filter_type_1/Reshape_7"
  op: "Reshape"
  input: "dipole_charge/filter_type_1/Slice_2"
  input: "dipole_charge/filter_type_1/Reshape_7/shape"
  attr {
    key: "T"
    value {
      type: DT_DOUBLE
    }
  }
  attr {
    key: "Tshape"
    value {
      type: DT_INT32
    }
  }
}
node {
  name: "dipole_charge/filter_type_1/Slice_3/begin"
  op: "Const"
  attr {
    key: "dtype"
    value {
      type: DT_INT32
    }
  }
  attr {
    key: "value"
    value {
      tensor {
        dtype: DT_INT32
        tensor_shape {
          dim {
            size: 2
          }
        }
        tensor_content: "\000\000\000\000\000\000\000\000"
      }
    }
  }
}
node {
  name: "dipole_charge/filter_type_1/Slice_3/size"
  op: "Const"
  attr {
    key: "dtype"
    value {
      type: DT_INT32
    }
  }
  attr {
    key: "value"
    value {
      tensor {
        dtype: DT_INT32
        tensor_shape {
          dim {
            size: 2
          }
        }
        tensor_content: "\377\377\377\377\001\000\000\000"
      }
    }
  }
}
node {
  name: "dipole_charge/filter_type_1/Slice_3"
  op: "Slice"
  input: "dipole_charge/filter_type_1/Reshape_7"
  input: "dipole_charge/filter_type_1/Slice_3/begin"
  input: "dipole_charge/filter_type_1/Slice_3/size"
  attr {
    key: "Index"
    value {
      type: DT_INT32
    }
  }
  attr {
    key: "T"
    value {
      type: DT_DOUBLE
    }
  }
}
node {
  name: "dipole_charge/filter_type_1/Reshape_8/shape"
  op: "Const"
  attr {
    key: "dtype"
    value {
      type: DT_INT32
    }
  }
  attr {
    key: "value"
    value {
      tensor {
        dtype: DT_INT32
        tensor_shape {
          dim {
            size: 2
          }
        }
        tensor_content: "\377\377\377\377\001\000\000\000"
      }
    }
  }
}
node {
  name: "dipole_charge/filter_type_1/Reshape_8"
  op: "Reshape"
  input: "dipole_charge/filter_type_1/Slice_3"
  input: "dipole_charge/filter_type_1/Reshape_8/shape"
  attr {
    key: "T"
    value {
      type: DT_DOUBLE
    }
  }
  attr {
    key: "Tshape"
    value {
      type: DT_INT32
    }
  }
}
node {
  name: "dipole_charge/filter_type_1/matrix_1_1"
  op: "Const"
  attr {
    key: "dtype"
    value {
      type: DT_DOUBLE
    }
  }
  attr {
    key: "value"
    value {
      tensor {
        dtype: DT_DOUBLE
        tensor_shape {
          dim {
            size: 1
          }
          dim {
            size: 2
          }
        }
        tensor_content: "\261h \267q@\346\277\n\244\213\366\226\375\322\277"
      }
    }
  }
}
node {
  name: "dipole_charge/filter_type_1/matrix_1_1/read"
  op: "Identity"
  input: "dipole_charge/filter_type_1/matrix_1_1"
  attr {
    key: "T"
    value {
      type: DT_DOUBLE
    }
  }
  attr {
    key: "_class"
    value {
      list {
        s: "loc:@dipole_charge/filter_type_1/matrix_1_1"
      }
    }
  }
}
node {
  name: "dipole_charge/filter_type_1/bias_1_1"
  op: "Const"
  attr {
    key: "dtype"
    value {
      type: DT_DOUBLE
    }
  }
  attr {
    key: "value"
    value {
      tensor {
        dtype: DT_DOUBLE
        tensor_shape {
          dim {
            size: 2
          }
        }
        tensor_content: "\303\026\245\237k\277\375?:\314WQ\007\\\361?"
      }
    }
  }
}
node {
  name: "dipole_charge/filter_type_1/bias_1_1/read"
  op: "Identity"
  input: "dipole_charge/filter_type_1/bias_1_1"
  attr {
    key: "T"
    value {
      type: DT_DOUBLE
    }
  }
  attr {
    key: "_class"
    value {
      list {
        s: "loc:@dipole_charge/filter_type_1/bias_1_1"
      }
    }
  }
}
node {
  name: "dipole_charge/filter_type_1/MatMul_4"
  op: "MatMul"
  input: "dipole_charge/filter_type_1/Reshape_8"
  input: "dipole_charge/filter_type_1/matrix_1_1/read"
  attr {
    key: "T"
    value {
      type: DT_DOUBLE
    }
  }
  attr {
    key: "transpose_a"
    value {
      b: false
    }
  }
  attr {
    key: "transpose_b"
    value {
      b: false
    }
  }
}
node {
  name: "dipole_charge/filter_type_1/BiasAdd_3"
  op: "BiasAdd"
  input: "dipole_charge/filter_type_1/MatMul_4"
  input: "dipole_charge/filter_type_1/bias_1_1/read"
  attr {
    key: "T"
    value {
      type: DT_DOUBLE
    }
  }
  attr {
    key: "data_format"
    value {
      s: "NHWC"
    }
  }
}
node {
  name: "dipole_charge/filter_type_1/Tanh_3"
  op: "Tanh"
  input: "dipole_charge/filter_type_1/BiasAdd_3"
  attr {
    key: "T"
    value {
      type: DT_DOUBLE
    }
  }
}
node {
  name: "dipole_charge/filter_type_1/Reshape_9/shape"
  op: "Const"
  attr {
    key: "dtype"
    value {
      type: DT_INT32
    }
  }
  attr {
    key: "value"
    value {
      tensor {
        dtype: DT_INT32
        tensor_shape {
          dim {
            size: 2
          }
        }
        tensor_content: "\377\377\377\377\002\000\000\000"
      }
    }
  }
}
node {
  name: "dipole_charge/filter_type_1/Reshape_9"
  op: "Reshape"
  input: "dipole_charge/filter_type_1/Tanh_3"
  input: "dipole_charge/filter_type_1/Reshape_9/shape"
  attr {
    key: "T"
    value {
      type: DT_DOUBLE
    }
  }
  attr {
    key: "Tshape"
    value {
      type: DT_INT32
    }
  }
}
node {
  name: "dipole_charge/filter_type_1/concat_2/axis"
  op: "Const"
  attr {
    key: "dtype"
    value {
      type: DT_INT32
    }
  }
  attr {
    key: "value"
    value {
      tensor {
        dtype: DT_INT32
        tensor_shape {
        }
        int_val: 1
      }
    }
  }
}
node {
  name: "dipole_charge/filter_type_1/concat_2"
  op: "ConcatV2"
  input: "dipole_charge/filter_type_1/Reshape_8"
  input: "dipole_charge/filter_type_1/Reshape_8"
  input: "dipole_charge/filter_type_1/concat_2/axis"
  attr {
    key: "N"
    value {
      i: 2
    }
  }
  attr {
    key: "T"
    value {
      type: DT_DOUBLE
    }
  }
  attr {
    key: "Tidx"
    value {
      type: DT_INT32
    }
  }
}
node {
  name: "dipole_charge/filter_type_1/add_2"
  op: "AddV2"
  input: "dipole_charge/filter_type_1/concat_2"
  input: "dipole_charge/filter_type_1/Reshape_9"
  attr {
    key: "T"
    value {
      type: DT_DOUBLE
    }
  }
}
node {
  name: "dipole_charge/filter_type_1/matrix_2_1"
  op: "Const"
  attr {
    key: "dtype"
    value {
      type: DT_DOUBLE
    }
  }
  attr {
    key: "value"
    value {
      tensor {
        dtype: DT_DOUBLE
        tensor_shape {
          dim {
            size: 2
          }
          dim {
            size: 5
          }
        }
        tensor_content: "…"
      }
    }
  }
}
node {
  name: "dipole_charge/filter_type_1/matrix_2_1/read"
  op: "Identity"
  input: "dipole_charge/filter_type_1/matrix_2_1"
  attr {
    key: "T"
    value {
      type: DT_DOUBLE
    }
  }
  attr {
    key: "_class"
    value {
      list {
        s: "loc:@dipole_charge/filter_type_1/matrix_2_1"
      }
    }
  }
}
node {
  name: "dipole_charge/filter_type_1/bias_2_1"
  op: "Const"
  attr {
    key: "dtype"
    value {
      type: DT_DOUBLE
    }
  }
  attr {
    key: "value"
    value {
      tensor {
        dtype: DT_DOUBLE
        tensor_shape {
          dim {
            size: 5
          }
        }
        tensor_content: "…"
      }
    }
  }
}
node {
  name: "dipole_charge/filter_type_1/bias_2_1/read"
  op: "Identity"
  input: "dipole_charge/filter_type_1/bias_2_1"
  attr {
    key: "T"
    value {
      type: DT_DOUBLE
    }
  }
  attr {
    key: "_class"
    value {
      list {
        s: "loc:@dipole_charge/filter_type_1/bias_2_1"
      }
    }
  }
}
node {
  name: "dipole_charge/filter_type_1/MatMul_5"
  op: "MatMul"
  input: "dipole_charge/filter_type_1/add_2"
  input: "dipole_charge/filter_type_1/matrix_2_1/read"
  attr {
    key: "T"
    value {
      type: DT_DOUBLE
    }
  }
  attr {
    key: "transpose_a"
    value {
      b: false
    }
  }
  attr {
    key: "transpose_b"
    value {
      b: false
    }
  }
}
node {
  name: "dipole_charge/filter_type_1/BiasAdd_4"
  op: "BiasAdd"
  input: "dipole_charge/filter_type_1/MatMul_5"
  input: "dipole_charge/filter_type_1/bias_2_1/read"
  attr {
    key: "T"
    value {
      type: DT_DOUBLE
    }
  }
  attr {
    key: "data_format"
    value {
      s: "NHWC"
    }
  }
}
node {
  name: "dipole_charge/filter_type_1/Tanh_4"
  op: "Tanh"
  input: "dipole_charge/filter_type_1/BiasAdd_4"
  attr {
    key: "T"
    value {
      type: DT_DOUBLE
    }
  }
}
node {
  name: "dipole_charge/filter_type_1/Reshape_10/shape"
  op: "Const"
  attr {
    key: "dtype"
    value {
      type: DT_INT32
    }
  }
  attr {
    key: "value"
    value {
      tensor {
        dtype: DT_INT32
        tensor_shape {
          dim {
            size: 2
          }
        }
        tensor_content: "\377\377\377\377\005\000\000\000"
      }
    }
  }
}
node {
  name: "dipole_charge/filter_type_1/Reshape_10"
  op: "Reshape"
  input: "dipole_charge/filter_type_1/Tanh_4"
  input: "dipole_charge/filter_type_1/Reshape_10/shape"
  attr {
    key: "T"
    value {
      type: DT_DOUBLE
    }
  }
  attr {
    key: "Tshape"
    value {
      type: DT_INT32
    }
  }
}
node {
  name: "dipole_charge/filter_type_1/matrix_3_1"
  op: "Const"
  attr {
    key: "dtype"
    value {
      type: DT_DOUBLE
    }
  }
  attr {
    key: "value"
    value {
      tensor {
        dtype: DT_DOUBLE
        tensor_shape {
          dim {
            size: 5
          }
          dim {
            size: 10
          }
        }
        tensor_content: "…"
      }
    }
  }
}
node {
  name: "dipole_charge/filter_type_1/matrix_3_1/read"
  op: "Identity"
  input: "dipole_charge/filter_type_1/matrix_3_1"
  attr {
    key: "T"
    value {
      type: DT_DOUBLE
    }
  }
  attr {
    key: "_class"
    value {
      list {
        s: "loc:@dipole_charge/filter_type_1/matrix_3_1"
      }
    }
  }
}
node {
  name: "dipole_charge/filter_type_1/bias_3_1"
  op: "Const"
  attr {
    key: "dtype"
    value {
      type: DT_DOUBLE
    }
  }
  attr {
    key: "value"
    value {
      tensor {
        dtype: DT_DOUBLE
        tensor_shape {
          dim {
            size: 10
          }
        }
        tensor_content: "…"
      }
    }
  }
}
node {
  name: "dipole_charge/filter_type_1/bias_3_1/read"
  op: "Identity"
  input: "dipole_charge/filter_type_1/bias_3_1"
  attr {
    key: "T"
    value {
      type: DT_DOUBLE
    }
  }
  attr {
    key: "_class"
    value {
      list {
        s: "loc:@dipole_charge/filter_type_1/bias_3_1"
      }
    }
  }
}
node {
  name: "dipole_charge/filter_type_1/MatMul_6"
  op: "MatMul"
  input: "dipole_charge/filter_type_1/Reshape_10"
  input: "dipole_charge/filter_type_1/matrix_3_1/read"
  attr {
    key: "T"
    value {
      type: DT_DOUBLE
    }
  }
  attr {
    key: "transpose_a"
    value {
      b: false
    }
  }
  attr {
    key: "transpose_b"
    value {
      b: false
    }
  }
}
node {
  name: "dipole_charge/filter_type_1/BiasAdd_5"
  op: "BiasAdd"
  input: "dipole_charge/filter_type_1/MatMul_6"
  input: "dipole_charge/filter_type_1/bias_3_1/read"
  attr {
    key: "T"
    value {
      type: DT_DOUBLE
    }
  }
  attr {
    key: "data_format"
    value {
      s: "NHWC"
    }
  }
}
node {
  name: "dipole_charge/filter_type_1/Tanh_5"
  op: "Tanh"
  input: "dipole_charge/filter_type_1/BiasAdd_5"
  attr {
    key: "T"
    value {
      type: DT_DOUBLE
    }
  }
}
node {
  name: "dipole_charge/filter_type_1/Reshape_11/shape"
  op: "Const"
  attr {
    key: "dtype"
    value {
      type: DT_INT32
    }
  }
  attr {
    key: "value"
    value {
      tensor {
        dtype: DT_INT32
        tensor_shape {
          dim {
            size: 2
          }
        }
        tensor_content: "\377\377\377\377\n\000\000\000"
      }
    }
  }
}
node {
  name: "dipole_charge/filter_type_1/Reshape_11"
  op: "Reshape"
  input: "dipole_charge/filter_type_1/Tanh_5"
  input: "dipole_charge/filter_type_1/Reshape_11/shape"
  attr {
    key: "T"
    value {
      type: DT_DOUBLE
    }
  }
  attr {
    key: "Tshape"
    value {
      type: DT_INT32
    }
  }
}
node {
  name: "dipole_charge/filter_type_1/concat_3/axis"
  op: "Const"
  attr {
    key: "dtype"
    value {
      type: DT_INT32
    }
  }
  attr {
    key: "value"
    value {
      tensor {
        dtype: DT_INT32
        tensor_shape {
        }
        int_val: 1
      }
    }
  }
}
node {
  name: "dipole_charge/filter_type_1/concat_3"
  op: "ConcatV2"
  input: "dipole_charge/filter_type_1/Reshape_10"
  input: "dipole_charge/filter_type_1/Reshape_10"
  input: "dipole_charge/filter_type_1/concat_3/axis"
  attr {
    key: "N"
    value {
      i: 2
    }
  }
  attr {
    key: "T"
    value {
      type: DT_DOUBLE
    }
  }
  attr {
    key: "Tidx"
    value {
      type: DT_INT32
    }
  }
}
node {
  name: "dipole_charge/filter_type_1/add_3"
  op: "AddV2"
  input: "dipole_charge/filter_type_1/concat_3"
  input: "dipole_charge/filter_type_1/Reshape_11"
  attr {
    key: "T"
    value {
      type: DT_DOUBLE
    }
  }
}
node {
  name: "dipole_charge/filter_type_1/Reshape_12/shape"
  op: "Const"
  attr {
    key: "dtype"
    value {
      type: DT_INT32
    }
  }
  attr {
    key: "value"
    value {
      tensor {
        dtype: DT_INT32
        tensor_shape {
          dim {
            size: 3
          }
        }
        tensor_content: "\377\377\377\377\\\000\000\000\n\000\000\000"
      }
    }
  }
}
node {
  name: "dipole_charge/filter_type_1/Reshape_12"
  op: "Reshape"
  input: "dipole_charge/filter_type_1/add_3"
  input: "dipole_charge/filter_type_1/Reshape_12/shape"
  attr {
    key: "T"
    value {
      type: DT_DOUBLE
    }
  }
  attr {
    key: "Tshape"
    value {
      type: DT_INT32
    }
  }
}
node {
  name: "dipole_charge/filter_type_1/Reshape_13/shape/1"
  op: "Const"
  attr {
    key: "dtype"
    value {
      type: DT_INT32
    }
  }
  attr {
    key: "value"
    value {
      tensor {
        dtype: DT_INT32
        tensor_shape {
        }
        int_val: 92
      }
    }
  }
}
node {
  name: "dipole_charge/filter_type_1/Reshape_13/shape/2"
  op: "Const"
  attr {
    key: "dtype"
    value {
      type: DT_INT32
    }
  }
  attr {
    key: "value"
    value {
      tensor {
        dtype: DT_INT32
        tensor_shape {
        }
        int_val: 4
      }
    }
  }
}
node {
  name: "dipole_charge/filter_type_1/Reshape_13/shape"
  op: "Pack"
  input: "dipole_charge/filter_type_1/strided_slice_1"
  input: "dipole_charge/filter_type_1/Reshape_13/shape/1"
  input: "dipole_charge/filter_type_1/Reshape_13/shape/2"
  attr {
    key: "N"
    value {
      i: 3
    }
  }
  attr {
    key: "T"
    value {
      type: DT_INT32
    }
  }
  attr {
    key: "axis"
    value {
      i: 0
    }
  }
}
node {
  name: "dipole_charge/filter_type_1/Reshape_13"
  op: "Reshape"
  input: "dipole_charge/filter_type_1/Slice_2"
  input: "dipole_charge/filter_type_1/Reshape_13/shape"
  attr {
    key: "T"
    value {
      type: DT_DOUBLE
    }
  }
  attr {
    key: "Tshape"
    value {
      type: DT_INT32
    }
  }
}
node {
  name: "dipole_charge/filter_type_1/MatMul_7"
  op: "BatchMatMulV2"
  input: "dipole_charge/filter_type_1/Reshape_13"
  input: "dipole_charge/filter_type_1/Reshape_12"
  attr {
    key: "T"
    value {
      type: DT_DOUBLE
    }
  }
  attr {
    key: "adj_x"
    value {
      b: true
    }
  }
  attr {
    key: "adj_y"
    value {
      b: false
    }
  }
}
node {
  name: "dipole_charge/filter_type_1/AddN"
  op: "AddN"
  input: "dipole_charge/filter_type_1/MatMul_3"
  input: "dipole_charge/filter_type_1/MatMul_7"
  attr {
    key: "N"
    value {
      i: 2
    }
  }
  attr {
    key: "T"
    value {
      type: DT_DOUBLE
    }
  }
}
node {
  name: "dipole_charge/filter_type_1/truediv/y"
  op: "Const"
  attr {
    key: "dtype"
    value {
      type: DT_DOUBLE
    }
  }
  attr {
    key: "value"
    value {
      tensor {
        dtype: DT_DOUBLE
        tensor_shape {
        }
        double_val: 138.0
      }
    }
  }
}
node {
  name: "dipole_charge/filter_type_1/truediv"
  op: "RealDiv"
  input: "dipole_charge/filter_type_1/AddN"
  input: "dipole_charge/filter_type_1/truediv/y"
  attr {
    key: "T"
    value {
      type: DT_DOUBLE
    }
  }
}
node {
  name: "dipole_charge/filter_type_1/Slice_4/begin"
  op: "Const"
  attr {
    key: "dtype"
    value {
      type: DT_INT32
    }
  }
  attr {
    key: "value"
    value {
      tensor {
        dtype: DT_INT32
        tensor_shape {
          dim {
            size: 3
          }
        }
        tensor_content: "\000\000\000\000\000\000\000\000\000\000\000\000"
      }
    }
  }
}
node {
  name: "dipole_charge/filter_type_1/Slice_4/size"
  op: "Const"
  attr {
    key: "dtype"
    value {
      type: DT_INT32
    }
  }
  attr {
    key: "value"
    value {
      tensor {
        dtype: DT_INT32
        tensor_shape {
          dim {
            size: 3
          }
        }
        tensor_content: "\377\377\377\377\377\377\377\377\010\000\000\000"
      }
    }
  }
}
node {
  name: "dipole_charge/filter_type_1/Slice_4"
  op: "Slice"
  input: "dipole_charge/filter_type_1/truediv"
  input: "dipole_charge/filter_type_1/Slice_4/begin"
  input: "dipole_charge/filter_type_1/Slice_4/size"
  attr {
    key: "Index"
    value {
      type: DT_INT32
    }
  }
  attr {
    key: "T"
    value {
      type: DT_DOUBLE
    }
  }
}
node {
  name: "dipole_charge/filter_type_1/Slice_5/begin"
  op: "Const"
  attr {
    key: "dtype"
    value {
      type: DT_INT32
    }
  }
  attr {
    key: "value"
    value {
      tensor {
        dtype: DT_INT32
        tensor_shape {
          dim {
            size: 3
          }
        }
        tensor_content: "\000\000\000\000\001\000\000\000\000\000\000\000"
      }
    }
  }
}
node {
  name: "dipole_charge/filter_type_1/Slice_5/size"
  op: "Const"
  attr {
    key: "dtype"
    value {
      type: DT_INT32
    }
  }
  attr {
    key: "value"
    value {
      tensor {
        dtype: DT_INT32
        tensor_shape {
          dim {
            size: 3
          }
        }
        tensor_content: "\377\377\377\377\003\000\000\000\377\377\377\377"
      }
    }
  }
}
node {
  name: "dipole_charge/filter_type_1/Slice_5"
  op: "Slice"
  input: "dipole_charge/filter_type_1/truediv"
  input: "dipole_charge/filter_type_1/Slice_5/begin"
  input: "dipole_charge/filter_type_1/Slice_5/size"
  attr {
    key: "Index"
    value {
      type: DT_INT32
    }
  }
  attr {
    key: "T"
    value {
      type: DT_DOUBLE
    }
  }
}
node {
  name: "dipole_charge/filter_type_1/transpose/perm"
  op: "Const"
  attr {
    key: "dtype"
    value {
      type: DT_INT32
    }
  }
  attr {
    key: "value"
    value {
      tensor {
        dtype: DT_INT32
        tensor_shape {
          dim {
            size: 3
          }
        }
        tensor_content: "\000\000\000\000\002\000\000\000\001\000\000\000"
      }
    }
  }
}
node {
  name: "dipole_charge/filter_type_1/transpose"
  op: "Transpose"
  input: "dipole_charge/filter_type_1/Slice_5"
  input: "dipole_charge/filter_type_1/transpose/perm"
  attr {
    key: "T"
    value {
      type: DT_DOUBLE
    }
  }
  attr {
    key: "Tperm"
    value {
      type: DT_INT32
    }
  }
}
node {
  name: "dipole_charge/filter_type_1/MatMul_8"
  op: "BatchMatMulV2"
  input: "dipole_charge/filter_type_1/truediv"
  input: "dipole_charge/filter_type_1/Slice_4"
  attr {
    key: "T"
    value {
      type: DT_DOUBLE
    }
  }
  attr {
    key: "adj_x"
    value {
      b: true
    }
  }
  attr {
    key: "adj_y"
    value {
      b: false
    }
  }
}
node {
  name: "dipole_charge/filter_type_1/Reshape_14/shape"
  op: "Const"
  attr {
    key: "dtype"
    value {
      type: DT_INT32
    }
  }
  attr {
    key: "value"
    value {
      tensor {
        dtype: DT_INT32
        tensor_shape {
          dim {
            size: 2
          }
        }
        tensor_content: "\377\377\377\377P\000\000\000"
      }
    }
  }
}
node {
  name: "dipole_charge/filter_type_1/Reshape_14"
  op: "Reshape"
  input: "dipole_charge/filter_type_1/MatMul_8"
  input: "dipole_charge/filter_type_1/Reshape_14/shape"
  attr {
    key: "T"
    value {
      type: DT_DOUBLE
    }
  }
  attr {
    key: "Tshape"
    value {
      type: DT_INT32
    }
  }
}
node {
  name: "dipole_charge/Shape_5"
  op: "Shape"
  input: "dipole_charge/Reshape_6"
  attr {
    key: "T"
    value {
      type: DT_DOUBLE
    }
  }
  attr {
    key: "out_type"
    value {
      type: DT_INT32
    }
  }
}
node {
  name: "dipole_charge/strided_slice_18/stack"
  op: "Const"
  attr {
    key: "dtype"
    value {
      type: DT_INT32
    }
  }
  attr {
    key: "value"
    value {
      tensor {
        dtype: DT_INT32
        tensor_shape {
          dim {
            size: 1
          }
        }
        int_val: 0
      }
    }
  }
}
node {
  name: "dipole_charge/strided_slice_18/stack_1"
  op: "Const"
  attr {
    key: "dtype"
    value {
      type: DT_INT32
    }
  }
  attr {
    key: "value"
    value {
      tensor {
        dtype: DT_INT32
        tensor_shape {
          dim {
            size: 1
          }
        }
        int_val: 1
      }
    }
  }
}
node {
  name: "dipole_charge/strided_slice_18/stack_2"
  op: "Const"
  attr {
    key: "dtype"
    value {
      type: DT_INT32
    }
  }
  attr {
    key: "value"
    value {
      tensor {
        dtype: DT_INT32
        tensor_shape {
          dim {
            size: 1
          }
        }
        int_val: 1
      }
    }
  }
}
node {
  name: "dipole_charge/strided_slice_18"
  op: "StridedSlice"
  input: "dipole_charge/Shape_5"
  input: "dipole_charge/strided_slice_18/stack"
  input: "dipole_charge/strided_slice_18/stack_1"
  input: "dipole_charge/strided_slice_18/stack_2"
  attr {
    key: "Index"
    value {
      type: DT_INT32
    }
  }
  attr {
    key: "T"
    value {
      type: DT_INT32
    }
  }
  attr {
    key: "begin_mask"
    value {
      i: 0
    }
  }
  attr {
    key: "ellipsis_mask"
    value {
      i: 0
    }
  }
  attr {
    key: "end_mask"
    value {
      i: 0
    }
  }
  attr {
    key: "new_axis_mask"
    value {
      i: 0
    }
  }
  attr {
    key: "shrink_axis_mask"
    value {
      i: 1
    }
  }
}
node {
  name: "dipole_charge/strided_slice_19/stack"
  op: "Const"
  attr {
    key: "dtype"
    value {
      type: DT_INT32
    }
  }
  attr {
    key: "value"
    value {
      tensor {
        dtype: DT_INT32
        tensor_shape {
          dim {
            size: 1
          }
        }
        int_val: 3
      }
    }
  }
}
node {
  name: "dipole_charge/strided_slice_19/stack_1"
  op: "Const"
  attr {
    key: "dtype"
    value {
      type: DT_INT32
    }
  }
  attr {
    key: "value"
    value {
      tensor {
        dtype: DT_INT32
        tensor_shape {
          dim {
            size: 1
          }
        }
        int_val: 4
      }
    }
  }
}
node {
  name: "dipole_charge/strided_slice_19/stack_2"
  op: "Const"
  attr {
    key: "dtype"
    value {
      type: DT_INT32
    }
  }
  attr {
    key: "value"
    value {
      tensor {
        dtype: DT_INT32
        tensor_shape {
          dim {
            size: 1
          }
        }
        int_val: 1
      }
    }
  }
}
node {
  name: "dipole_charge/strided_slice_19"
  op: "StridedSlice"
  input: "dipole_charge/t_natoms"
  input: "dipole_charge/strided_slice_19/stack"
  input: "dipole_charge/strided_slice_19/stack_1"
  input: "dipole_charge/strided_slice_19/stack_2"
  attr {
    key: "Index"
    value {
      type: DT_INT32
    }
  }
  attr {
    key: "T"
    value {
      type: DT_INT32
    }
  }
  attr {
    key: "begin_mask"
    value {
      i: 0
    }
  }
  attr {
    key: "ellipsis_mask"
    value {
      i: 0
    }
  }
  attr {
    key: "end_mask"
    value {
      i: 0
    }
  }
  attr {
    key: "new_axis_mask"
    value {
      i: 0
    }
  }
  attr {
    key: "shrink_axis_mask"
    value {
      i: 1
    }
  }
}
node {
  name: "dipole_charge/Reshape_13/shape/2"
  op: "Const"
  attr {
    key: "dtype"
    value {
      type: DT_INT32
    }
  }
  attr {
    key: "value"
    value {
      tensor {
        dtype: DT_INT32
        tensor_shape {
        }
        int_val: 80
      }
    }
  }
}
node {
  name: "dipole_charge/Reshape_13/shape"
  op: "Pack"
  input: "dipole_charge/strided_slice_18"
  input: "dipole_charge/strided_slice_19"
  input: "dipole_charge/Reshape_13/shape/2"
  attr {
    key: "N"
    value {
      i: 3
    }
  }
  attr {
    key: "T"
    value {
      type: DT_INT32
    }
  }
  attr {
    key: "axis"
    value {
      i: 0
    }
  }
}
node {
  name: "dipole_charge/Reshape_13"
  op: "Reshape"
  input: "dipole_charge/filter_type_1/Reshape_14"
  input: "dipole_charge/Reshape_13/shape"
  attr {
    key: "T"
    value {
      type: DT_DOUBLE
    }
  }
  attr {
    key: "Tshape"
    value {
      type: DT_INT32
    }
  }
}
node {
  name: "dipole_charge/Shape_6"
  op: "Shape"
  input: "dipole_charge/Reshape_6"
  attr {
    key: "T"
    value {
      type: DT_DOUBLE
    }
  }
  attr {
    key: "out_type"
    value {
      type: DT_INT32
    }
  }
}
node {
  name: "dipole_charge/strided_slice_20/stack"
  op: "Const"
  attr {
    key: "dtype"
    value {
      type: DT_INT32
    }
  }
  attr {
    key: "value"
    value {
      tensor {
        dtype: DT_INT32
        tensor_shape {
          dim {
            size: 1
          }
        }
        int_val: 0
      }
    }
  }
}
node {
  name: "dipole_charge/strided_slice_20/stack_1"
  op: "Const"
  attr {
    key: "dtype"
    value {
      type: DT_INT32
    }
  }
  attr {
    key: "value"
    value {
      tensor {
        dtype: DT_INT32
        tensor_shape {
          dim {
            size: 1
          }
        }
        int_val: 1
      }
    }
  }
}
node {
  name: "dipole_charge/strided_slice_20/stack_2"
  op: "Const"
  attr {
    key: "dtype"
    value {
      type: DT_INT32
    }
  }
  attr {
    key: "value"
    value {
      tensor {
        dtype: DT_INT32
        tensor_shape {
          dim {
            size: 1
          }
        }
        int_val: 1
      }
    }
  }
}
node {
  name: "dipole_charge/strided_slice_20"
  op: "StridedSlice"
  input: "dipole_charge/Shape_6"
  input: "dipole_charge/strided_slice_20/stack"
  input: "dipole_charge/strided_slice_20/stack_1"
  input: "dipole_charge/strided_slice_20/stack_2"
  attr {
    key: "Index"
    value {
      type: DT_INT32
    }
  }
  attr {
    key: "T"
    value {
      type: DT_INT32
    }
  }
  attr {
    key: "begin_mask"
    value {
      i: 0
    }
  }
  attr {
    key: "ellipsis_mask"
    value {
      i: 0
    }
  }
  attr {
    key: "end_mask"
    value {
      i: 0
    }
  }
  attr {
    key: "new_axis_mask"
    value {
      i: 0
    }
  }
  attr {
    key: "shrink_axis_mask"
    value {
      i: 1
    }
  }
}
node {
  name: "dipole_charge/strided_slice_21/stack"
  op: "Const"
  attr {
    key: "dtype"
    value {
      type: DT_INT32
    }
  }
  attr {
    key: "value"
    value {
      tensor {
        dtype: DT_INT32
        tensor_shape {
          dim {
            size: 1
          }
        }
        int_val: 3
      }
    }
  }
}
node {
  name: "dipole_charge/strided_slice_21/stack_1"
  op: "Const"
  attr {
    key: "dtype"
    value {
      type: DT_INT32
    }
  }
  attr {
    key: "value"
    value {
      tensor {
        dtype: DT_INT32
        tensor_shape {
          dim {
            size: 1
          }
        }
        int_val: 4
      }
    }
  }
}
node {
  name: "dipole_charge/strided_slice_21/stack_2"
  op: "Const"
  attr {
    key: "dtype"
    value {
      type: DT_INT32
    }
  }
  attr {
    key: "value"
    value {
      tensor {
        dtype: DT_INT32
        tensor_shape {
          dim {
            size: 1
          }
        }
        int_val: 1
      }
    }
  }
}
node {
  name: "dipole_charge/strided_slice_21"
  op: "StridedSlice"
  input: "dipole_charge/t_natoms"
  input: "dipole_charge/strided_slice_21/stack"
  input: "dipole_charge/strided_slice_21/stack_1"
  input: "dipole_charge/strided_slice_21/stack_2"
  attr {
    key: "Index"
    value {
      type: DT_INT32
    }
  }
  attr {
    key: "T"
    value {
      type: DT_INT32
    }
  }
  attr {
    key: "begin_mask"
    value {
      i: 0
    }
  }
  attr {
    key: "ellipsis_mask"
    value {
      i: 0
    }
  }
  attr {
    key: "end_mask"
    value {
      i: 0
    }
  }
  attr {
    key: "new_axis_mask"
    value {
      i: 0
    }
  }
  attr {
    key: "shrink_axis_mask"
    value {
      i: 1
    }
  }
}
node {
  name: "dipole_charge/Reshape_14/shape/2"
  op: "Const"
  attr {
    key: "dtype"
    value {
      type: DT_INT32
    }
  }
  attr {
    key: "value"
    value {
      tensor {
        dtype: DT_INT32
        tensor_shape {
        }
        int_val: 30
      }
    }
  }
}
node {
  name: "dipole_charge/Reshape_14/shape"
  op: "Pack"
  input: "dipole_charge/strided_slice_20"
  input: "dipole_charge/strided_slice_21"
  input: "dipole_charge/Reshape_14/shape/2"
  attr {
    key: "N"
    value {
      i: 3
    }
  }
  attr {
    key: "T"
    value {
      type: DT_INT32
    }
  }
  attr {
    key: "axis"
    value {
      i: 0
    }
  }
}
node {
  name: "dipole_charge/Reshape_14"
  op: "Reshape"
  input: "dipole_charge/filter_type_1/transpose"
  input: "dipole_charge/Reshape_14/shape"
  attr {
    key: "T"
    value {
      type: DT_DOUBLE
    }
  }
  attr {
    key: "Tshape"
    value {
      type: DT_INT32
    }
  }
}
node {
  name: "dipole_charge/concat/axis"
  op: "Const"
  attr {
    key: "dtype"
    value {
      type: DT_INT32
    }
  }
  attr {
    key: "value"
    value {
      tensor {
        dtype: DT_INT32
        tensor_shape {
        }
        int_val: 1
      }
    }
  }
}
node {
  name: "dipole_charge/concat"
  op: "ConcatV2"
  input: "dipole_charge/Reshape_9"
  input: "dipole_charge/Reshape_13"
  input: "dipole_charge/concat/axis"
  attr {
    key: "N"
    value {
      i: 2
    }
  }
  attr {
    key: "T"
    value {
      type: DT_DOUBLE
    }
  }
  attr {
    key: "Tidx"
    value {
      type: DT_INT32
    }
  }
}
node {
  name: "dipole_charge/concat_1/axis"
  op: "Const"
  attr {
    key: "dtype"
    value {
      type: DT_INT32
    }
  }
  attr {
    key: "value"
    value {
      tensor {
        dtype: DT_INT32
        tensor_shape {
        }
        int_val: 1
      }
    }
  }
}
node {
  name: "dipole_charge/concat_1"
  op: "ConcatV2"
  input: "dipole_charge/Reshape_10"
  input: "dipole_charge/Reshape_14"
  input: "dipole_charge/concat_1/axis"
  attr {
    key: "N"
    value {
      i: 2
    }
  }
  attr {
    key: "T"
    value {
      type: DT_DOUBLE
    }
  }
  attr {
    key: "Tidx"
    value {
      type: DT_INT32
    }
  }
}
node {
  name: "dipole_charge/o_descriptor"
  op: "Identity"
  input: "dipole_charge/concat"
  attr {
    key: "T"
    value {
      type: DT_DOUBLE
    }
  }
}
node {
  name: "dipole_charge/o_rot_mat"
  op: "Identity"
  input: "dipole_charge/concat_1"
  attr {
    key: "T"
    value {
      type: DT_DOUBLE
    }
  }
}
node {
  name: "dipole_charge/strided_slice_23/stack"
  op: "Const"
  attr {
    key: "dtype"
    value {
      type: DT_INT32
    }
  }
  attr {
    key: "value"
    value {
      tensor {
        dtype: DT_INT32
        tensor_shape {
          dim {
            size: 1
          }
        }
        int_val: 0
      }
    }
  }
}
node {
  name: "dipole_charge/strided_slice_23/stack_1"
  op: "Const"
  attr {
    key: "dtype"
    value {
      type: DT_INT32
    }
  }
  attr {
    key: "value"
    value {
      tensor {
        dtype: DT_INT32
        tensor_shape {
          dim {
            size: 1
          }
        }
        int_val: 1
      }
    }
  }
}
node {
  name: "dipole_charge/strided_slice_23/stack_2"
  op: "Const"
  attr {
    key: "dtype"
    value {
      type: DT_INT32
    }
  }
  attr {
    key: "value"
    value {
      tensor {
        dtype: DT_INT32
        tensor_shape {
          dim {
            size: 1
          }
        }
        int_val: 1
      }
    }
  }
}
node {
  name: "dipole_charge/strided_slice_23"
  op: "StridedSlice"
  input: "dipole_charge/t_natoms"
  input: "dipole_charge/strided_slice_23/stack"
  input: "dipole_charge/strided_slice_23/stack_1"
  input: "dipole_charge/strided_slice_23/stack_2"
  attr {
    key: "Index"
    value {
      type: DT_INT32
    }
  }
  attr {
    key: "T"
    value {
      type: DT_INT32
    }
  }
  attr {
    key: "begin_mask"
    value {
      i: 0
    }
  }
  attr {
    key: "ellipsis_mask"
    value {
      i: 0
    }
  }
  attr {
    key: "end_mask"
    value {
      i: 0
    }
  }
  attr {
    key: "new_axis_mask"
    value {
      i: 0
    }
  }
  attr {
    key: "shrink_axis_mask"
    value {
      i: 1
    }
  }
}
node {
  name: "dipole_charge/Reshape_15/shape/0"
  op: "Const"
  attr {
    key: "dtype"
    value {
      type: DT_INT32
    }
  }
  attr {
    key: "value"
    value {
      tensor {
        dtype: DT_INT32
        tensor_shape {
        }
        int_val: -1
      }
    }
  }
}
node {
  name: "dipole_charge/Reshape_15/shape/2"
  op: "Const"
  attr {
    key: "dtype"
    value {
      type: DT_INT32
    }
  }
  attr {
    key: "value"
    value {
      tensor {
        dtype: DT_INT32
        tensor_shape {
        }
        int_val: 80
      }
    }
  }
}
node {
  name: "dipole_charge/Reshape_15/shape"
  op: "Pack"
  input: "dipole_charge/Reshape_15/shape/0"
  input: "dipole_charge/strided_slice_23"
  input: "dipole_charge/Reshape_15/shape/2"
  attr {
    key: "N"
    value {
      i: 3
    }
  }
  attr {
    key: "T"
    value {
      type: DT_INT32
    }
  }
  attr {
    key: "axis"
    value {
      i: 0
    }
  }
}
node {
  name: "dipole_charge/Reshape_15"
  op: "Reshape"
  input: "dipole_charge/o_descriptor"
  input: "dipole_charge/Reshape_15/shape"
  attr {
    key: "T"
    value {
      type: DT_DOUBLE
    }
  }
  attr {
    key: "Tshape"
    value {
      type: DT_INT32
    }
  }
}
node {
  name: "dipole_charge/strided_slice_24/stack"
  op: "Const"
  attr {
    key: "dtype"
    value {
      type: DT_INT32
    }
  }
  attr {
    key: "value"
    value {
      tensor {
        dtype: DT_INT32
        tensor_shape {
          dim {
            size: 1
          }
        }
        int_val: 0
      }
    }
  }
}
node {
  name: "dipole_charge/strided_slice_24/stack_1"
  op: "Const"
  attr {
    key: "dtype"
    value {
      type: DT_INT32
    }
  }
  attr {
    key: "value"
    value {
      tensor {
        dtype: DT_INT32
        tensor_shape {
          dim {
            size: 1
          }
        }
        int_val: 1
      }
    }
  }
}
node {
  name: "dipole_charge/strided_slice_24/stack_2"
  op: "Const"
  attr {
    key: "dtype"
    value {
      type: DT_INT32
    }
  }
  attr {
    key: "value"
    value {
      tensor {
        dtype: DT_INT32
        tensor_shape {
          dim {
            size: 1
          }
        }
        int_val: 1
      }
    }
  }
}
node {
  name: "dipole_charge/strided_slice_24"
  op: "StridedSlice"
  input: "dipole_charge/t_natoms"
  input: "dipole_charge/strided_slice_24/stack"
  input: "dipole_charge/strided_slice_24/stack_1"
  input: "dipole_charge/strided_slice_24/stack_2"
  attr {
    key: "Index"
    value {
      type: DT_INT32
    }
  }
  attr {
    key: "T"
    value {
      type: DT_INT32
    }
  }
  attr {
    key: "begin_mask"
    value {
      i: 0
    }
  }
  attr {
    key: "ellipsis_mask"
    value {
      i: 0
    }
  }
  attr {
    key: "end_mask"
    value {
      i: 0
    }
  }
  attr {
    key: "new_axis_mask"
    value {
      i: 0
    }
  }
  attr {
    key: "shrink_axis_mask"
    value {
      i: 1
    }
  }
}
node {
  name: "dipole_charge/Reshape_16/shape/0"
  op: "Const"
  attr {
    key: "dtype"
    value {
      type: DT_INT32
    }
  }
  attr {
    key: "value"
    value {
      tensor {
        dtype: DT_INT32
        tensor_shape {
        }
        int_val: -1
      }
    }
  }
}
node {
  name: "dipole_charge/Reshape_16/shape/2"
  op: "Const"
  attr {
    key: "dtype"
    value {
      type: DT_INT32
    }
  }
  attr {
    key: "value"
    value {
      tensor {
        dtype: DT_INT32
        tensor_shape {
        }
        int_val: 30
      }
    }
  }
}
node {
  name: "dipole_charge/Reshape_16/shape"
  op: "Pack"
  input: "dipole_charge/Reshape_16/shape/0"
  input: "dipole_charge/strided_slice_24"
  input: "dipole_charge/Reshape_16/shape/2"
  attr {
    key: "N"
    value {
      i: 3
    }
  }
  attr {
    key: "T"
    value {
      type: DT_INT32
    }
  }
  attr {
    key: "axis"
    value {
      i: 0
    }
  }
}
node {
  name: "dipole_charge/Reshape_16"
  op: "Reshape"
  input: "dipole_charge/o_rot_mat"
  input: "dipole_charge/Reshape_16/shape"
  attr {
    key: "T"
    value {
      type: DT_DOUBLE
    }
  }
  attr {
    key: "Tshape"
    value {
      type: DT_INT32
    }
  }
}
node {
  name: "dipole_charge/strided_slice_25/stack"
  op: "Const"
  attr {
    key: "dtype"
    value {
      type: DT_INT32
    }
  }
  attr {
    key: "value"
    value {
      tensor {
        dtype: DT_INT32
        tensor_shape {
          dim {
            size: 1
          }
        }
        int_val: 2
      }
    }
  }
}
node {
  name: "dipole_charge/strided_slice_25/stack_1"
  op: "Const"
  attr {
    key: "dtype"
    value {
      type: DT_INT32
    }
  }
  attr {
    key: "value"
    value {
      tensor {
        dtype: DT_INT32
        tensor_shape {
          dim {
            size: 1
          }
        }
        int_val: 3
      }
    }
  }
}
node {
  name: "dipole_charge/strided_slice_25/stack_2"
  op: "Const"
  attr {
    key: "dtype"
    value {
      type: DT_INT32
    }
  }
  attr {
    key: "value"
    value {
      tensor {
        dtype: DT_INT32
        tensor_shape {
          dim {
            size: 1
          }
        }
        int_val: 1
      }
    }
  }
}
node {
  name: "dipole_charge/strided_slice_25"
  op: "StridedSlice"
  input: "dipole_charge/t_natoms"
  input: "dipole_charge/strided_slice_25/stack"
  input: "dipole_charge/strided_slice_25/stack_1"
  input: "dipole_charge/strided_slice_25/stack_2"
  attr {
    key: "Index"
    value {
      type: DT_INT32
    }
  }
  attr {
    key: "T"
    value {
      type: DT_INT32
    }
  }
  attr {
    key: "begin_mask"
    value {
      i: 0
    }
  }
  attr {
    key: "ellipsis_mask"
    value {
      i: 0
    }
  }
  attr {
    key: "end_mask"
    value {
      i: 0
    }
  }
  attr {
    key: "new_axis_mask"
    value {
      i: 0
    }
  }
  attr {
    key: "shrink_axis_mask"
    value {
      i: 1
    }
  }
}
node {
  name: "dipole_charge/Slice_2/begin"
  op: "Const"
  attr {
    key: "dtype"
    value {
      type: DT_INT32
    }
  }
  attr {
    key: "value"
    value {
      tensor {
        dtype: DT_INT32
        tensor_shape {
          dim {
            size: 3
          }
        }
        tensor_content: "\000\000\000\000\000\000\000\000\000\000\000\000"
      }
    }
  }
}
node {
  name: "dipole_charge/Slice_2/size/0"
  op: "Const"
  attr {
    key: "dtype"
    value {
      type: DT_INT32
    }
  }
  attr {
    key: "value"
    value {
      tensor {
        dtype: DT_INT32
        tensor_shape {
        }
        int_val: -1
      }
    }
  }
}
node {
  name: "dipole_charge/Slice_2/size/2"
  op: "Const"
  attr {
    key: "dtype"
    value {
      type: DT_INT32
    }
  }
  attr {
    key: "value"
    value {
      tensor {
        dtype: DT_INT32
        tensor_shape {
        }
        int_val: -1
…
  input: "filter_type_0_1/Reshape_6"
  attr {
    key: "T"
    value {
      type: DT_DOUBLE
    }
  }
  attr {
    key: "out_type"
    value {
      type: DT_INT32
    }
  }
}
node {
  name: "gradients_2/filter_type_0_1/add_3_grad/BroadcastGradientArgs"
  op: "BroadcastGradientArgs"
  input: "gradients_2/filter_type_0_1/add_3_grad/Shape"
  input: "gradients_2/filter_type_0_1/add_3_grad/Shape_1"
  attr {
    key: "T"
    value {
      type: DT_INT32
    }
  }
}
node {
  name: "gradients_2/filter_type_0_1/add_3_grad/Sum"
  op: "Sum"
  input: "gradients_2/AddN_10"
  input: "gradients_2/filter_type_0_1/add_3_grad/BroadcastGradientArgs"
  attr {
    key: "T"
    value {
      type: DT_DOUBLE
    }
  }
  attr {
    key: "Tidx"
    value {
      type: DT_INT32
    }
  }
  attr {
    key: "keep_dims"
    value {
      b: false
    }
  }
}
node {
  name: "gradients_2/filter_type_0_1/add_3_grad/Reshape"
  op: "Reshape"
  input: "gradients_2/filter_type_0_1/add_3_grad/Sum"
  input: "gradients_2/filter_type_0_1/add_3_grad/Shape"
  attr {
    key: "T"
    value {
      type: DT_DOUBLE
    }
  }
  attr {
    key: "Tshape"
    value {
      type: DT_INT32
    }
  }
}
node {
  name: "gradients_2/filter_type_0_1/add_3_grad/Sum_1"
  op: "Sum"
  input: "gradients_2/AddN_10"
  input: "gradients_2/filter_type_0_1/add_3_grad/BroadcastGradientArgs:1"
  attr {
    key: "T"
    value {
      type: DT_DOUBLE
    }
  }
  attr {
    key: "Tidx"
    value {
      type: DT_INT32
    }
  }
  attr {
    key: "keep_dims"
    value {
      b: false
    }
  }
}
node {
  name: "gradients_2/filter_type_0_1/add_3_grad/Reshape_1"
  op: "Reshape"
  input: "gradients_2/filter_type_0_1/add_3_grad/Sum_1"
  input: "gradients_2/filter_type_0_1/add_3_grad/Shape_1"
  attr {
    key: "T"
    value {
      type: DT_DOUBLE
    }
  }
  attr {
    key: "Tshape"
    value {
      type: DT_INT32
    }
  }
}
node {
  name: "gradients_2/AddN_11"
  op: "AddN"
  input: "gradients_2/filter_type_1_1/concat_grad/Slice"
  input: "gradients_2/filter_type_1_1/concat_grad/Slice_1"
  input: "gradients_2/filter_type_1_1/MatMul_1_grad/MatMul"
  attr {
    key: "N"
    value {
      i: 3
    }
  }
  attr {
    key: "T"
    value {
      type: DT_DOUBLE
    }
  }
  attr {
    key: "_class"
    value {
      list {
        s: "loc:@gradients_2/filter_type_1_1/concat_grad/Slice"
      }
    }
  }
}
node {
  name: "gradients_2/filter_type_1_1/add_grad/Shape"
  op: "Shape"
  input: "filter_type_1_1/Reshape"
  attr {
    key: "T"
    value {
      type: DT_DOUBLE
    }
  }
  attr {
    key: "out_type"
    value {
      type: DT_INT32
    }
  }
}
node {
  name: "gradients_2/filter_type_1_1/add_grad/Shape_1"
  op: "Shape"
  input: "filter_type_1_1/Reshape_1"
  attr {
    key: "T"
    value {
      type: DT_DOUBLE
    }
  }
  attr {
    key: "out_type"
    value {
      type: DT_INT32
    }
  }
}
node {
  name: "gradients_2/filter_type_1_1/add_grad/BroadcastGradientArgs"
  op: "BroadcastGradientArgs"
  input: "gradients_2/filter_type_1_1/add_grad/Shape"
  input: "gradients_2/filter_type_1_1/add_grad/Shape_1"
  attr {
    key: "T"
    value {
      type: DT_INT32
    }
  }
}
node {
  name: "gradients_2/filter_type_1_1/add_grad/Sum"
  op: "Sum"
  input: "gradients_2/AddN_11"
  input: "gradients_2/filter_type_1_1/add_grad/BroadcastGradientArgs"
  attr {
    key: "T"
    value {
      type: DT_DOUBLE
    }
  }
  attr {
    key: "Tidx"
    value {
      type: DT_INT32
    }
  }
  attr {
    key: "keep_dims"
    value {
      b: false
    }
  }
}
node {
  name: "gradients_2/filter_type_1_1/add_grad/Reshape"
  op: "Reshape"
  input: "gradients_2/filter_type_1_1/add_grad/Sum"
  input: "gradients_2/filter_type_1_1/add_grad/Shape"
  attr {
    key: "T"
    value {
      type: DT_DOUBLE
    }
  }
  attr {
    key: "Tshape"
    value {
      type: DT_INT32
    }
  }
}
node {
  name: "gradients_2/filter_type_1_1/add_grad/Sum_1"
  op: "Sum"
  input: "gradients_2/AddN_11"
  input: "gradients_2/filter_type_1_1/add_grad/BroadcastGradientArgs:1"
  attr {
    key: "T"
    value {
      type: DT_DOUBLE
    }
  }
  attr {
    key: "Tidx"
    value {
      type: DT_INT32
    }
  }
  attr {
    key: "keep_dims"
    value {
      b: false
    }
  }
}
node {
  name: "gradients_2/filter_type_1_1/add_grad/Reshape_1"
  op: "Reshape"
  input: "gradients_2/filter_type_1_1/add_grad/Sum_1"
  input: "gradients_2/filter_type_1_1/add_grad/Shape_1"
  attr {
    key: "T"
    value {
      type: DT_DOUBLE
    }
  }
  attr {
    key: "Tshape"
    value {
      type: DT_INT32
    }
  }
}
node {
  name: "gradients_2/AddN_12"
  op: "AddN"
  input: "gradients_2/filter_type_1_1/concat_2_grad/Slice"
  input: "gradients_2/filter_type_1_1/concat_2_grad/Slice_1"
  input: "gradients_2/filter_type_1_1/MatMul_4_grad/MatMul"
  attr {
    key: "N"
    value {
      i: 3
    }
  }
  attr {
    key: "T"
    value {
      type: DT_DOUBLE
    }
  }
  attr {
    key: "_class"
    value {
      list {
        s: "loc:@gradients_2/filter_type_1_1/concat_2_grad/Slice"
      }
    }
  }
}
node {
  name: "gradients_2/filter_type_1_1/add_3_grad/Shape"
  op: "Shape"
  input: "filter_type_1_1/Reshape_5"
  attr {
    key: "T"
    value {
      type: DT_DOUBLE
    }
  }
  attr {
    key: "out_type"
    value {
      type: DT_INT32
    }
  }
}
node {
  name: "gradients_2/filter_type_1_1/add_3_grad/Shape_1"
  op: "Shape"
  input: "filter_type_1_1/Reshape_6"
  attr {
    key: "T"
    value {
      type: DT_DOUBLE
    }
  }
  attr {
    key: "out_type"
    value {
      type: DT_INT32
    }
  }
}
node {
  name: "gradients_2/filter_type_1_1/add_3_grad/BroadcastGradientArgs"
  op: "BroadcastGradientArgs"
  input: "gradients_2/filter_type_1_1/add_3_grad/Shape"
  input: "gradients_2/filter_type_1_1/add_3_grad/Shape_1"
  attr {
    key: "T"
    value {
      type: DT_INT32
    }
  }
}
node {
  name: "gradients_2/filter_type_1_1/add_3_grad/Sum"
  op: "Sum"
  input: "gradients_2/AddN_12"
  input: "gradients_2/filter_type_1_1/add_3_grad/BroadcastGradientArgs"
  attr {
    key: "T"
    value {
      type: DT_DOUBLE
    }
  }
  attr {
    key: "Tidx"
    value {
      type: DT_INT32
    }
  }
  attr {
    key: "keep_dims"
    value {
      b: false
    }
  }
}
node {
  name: "gradients_2/filter_type_1_1/add_3_grad/Reshape"
  op: "Reshape"
  input: "gradients_2/filter_type_1_1/add_3_grad/Sum"
  input: "gradients_2/filter_type_1_1/add_3_grad/Shape"
  attr {
    key: "T"
    value {
      type: DT_DOUBLE
    }
  }
  attr {
    key: "Tshape"
    value {
      type: DT_INT32
    }
  }
}
node {
  name: "gradients_2/filter_type_1_1/add_3_grad/Sum_1"
  op: "Sum"
  input: "gradients_2/AddN_12"
  input: "gradients_2/filter_type_1_1/add_3_grad/BroadcastGradientArgs:1"
  attr {
    key: "T"
    value {
      type: DT_DOUBLE
    }
  }
  attr {
    key: "Tidx"
    value {
      type: DT_INT32
    }
  }
  attr {
    key: "keep_dims"
    value {
      b: false
    }
  }
}
node {
  name: "gradients_2/filter_type_1_1/add_3_grad/Reshape_1"
  op: "Reshape"
  input: "gradients_2/filter_type_1_1/add_3_grad/Sum_1"
  input: "gradients_2/filter_type_1_1/add_3_grad/Shape_1"
  attr {
    key: "T"
    value {
      type: DT_DOUBLE
    }
  }
  attr {
    key: "Tshape"
    value {
      type: DT_INT32
    }
  }
}
node {
  name: "gradients_2/filter_type_0_1/Reshape_1_grad/Shape"
  op: "Shape"
  input: "filter_type_0_1/Tanh"
  attr {
    key: "T"
    value {
      type: DT_DOUBLE
    }
  }
  attr {
    key: "out_type"
    value {
      type: DT_INT32
    }
  }
}
node {
  name: "gradients_2/filter_type_0_1/Reshape_1_grad/Reshape"
  op: "Reshape"
  input: "gradients_2/filter_type_0_1/add_grad/Reshape_1"
  input: "gradients_2/filter_type_0_1/Reshape_1_grad/Shape"
  attr {
    key: "T"
    value {
      type: DT_DOUBLE
    }
  }
  attr {
    key: "Tshape"
    value {
      type: DT_INT32
    }
  }
}
node {
  name: "gradients_2/filter_type_0_1/Reshape_6_grad/Shape"
  op: "Shape"
  input: "filter_type_0_1/Tanh_3"
  attr {
    key: "T"
    value {
      type: DT_DOUBLE
    }
  }
  attr {
    key: "out_type"
    value {
      type: DT_INT32
    }
  }
}
node {
  name: "gradients_2/filter_type_0_1/Reshape_6_grad/Reshape"
  op: "Reshape"
  input: "gradients_2/filter_type_0_1/add_3_grad/Reshape_1"
  input: "gradients_2/filter_type_0_1/Reshape_6_grad/Shape"
  attr {
    key: "T"
    value {
      type: DT_DOUBLE
    }
  }
  attr {
    key: "Tshape"
    value {
      type: DT_INT32
    }
  }
}
node {
  name: "gradients_2/filter_type_1_1/Reshape_1_grad/Shape"
  op: "Shape"
  input: "filter_type_1_1/Tanh"
  attr {
    key: "T"
    value {
      type: DT_DOUBLE
    }
  }
  attr {
    key: "out_type"
    value {
      type: DT_INT32
    }
  }
}
node {
  name: "gradients_2/filter_type_1_1/Reshape_1_grad/Reshape"
  op: "Reshape"
  input: "gradients_2/filter_type_1_1/add_grad/Reshape_1"
  input: "gradients_2/filter_type_1_1/Reshape_1_grad/Shape"
  attr {
    key: "T"
    value {
      type: DT_DOUBLE
    }
  }
  attr {
    key: "Tshape"
    value {
      type: DT_INT32
    }
  }
}
node {
  name: "gradients_2/filter_type_1_1/Reshape_6_grad/Shape"
  op: "Shape"
  input: "filter_type_1_1/Tanh_3"
  attr {
    key: "T"
    value {
      type: DT_DOUBLE
    }
  }
  attr {
    key: "out_type"
    value {
      type: DT_INT32
    }
  }
}
node {
  name: "gradients_2/filter_type_1_1/Reshape_6_grad/Reshape"
  op: "Reshape"
  input: "gradients_2/filter_type_1_1/add_3_grad/Reshape_1"
  input: "gradients_2/filter_type_1_1/Reshape_6_grad/Shape"
  attr {
    key: "T"
    value {
      type: DT_DOUBLE
    }
  }
  attr {
    key: "Tshape"
    value {
      type: DT_INT32
    }
  }
}
node {
  name: "gradients_2/filter_type_0_1/Tanh_grad/TanhGrad"
  op: "TanhGrad"
  input: "filter_type_0_1/Tanh"
  input: "gradients_2/filter_type_0_1/Reshape_1_grad/Reshape"
  attr {
    key: "T"
    value {
      type: DT_DOUBLE
    }
  }
}
node {
  name: "gradients_2/filter_type_0_1/Tanh_3_grad/TanhGrad"
  op: "TanhGrad"
  input: "filter_type_0_1/Tanh_3"
  input: "gradients_2/filter_type_0_1/Reshape_6_grad/Reshape"
  attr {
    key: "T"
    value {
      type: DT_DOUBLE
    }
  }
}
node {
  name: "gradients_2/filter_type_1_1/Tanh_grad/TanhGrad"
  op: "TanhGrad"
  input: "filter_type_1_1/Tanh"
  input: "gradients_2/filter_type_1_1/Reshape_1_grad/Reshape"
  attr {
    key: "T"
    value {
      type: DT_DOUBLE
    }
  }
}
node {
  name: "gradients_2/filter_type_1_1/Tanh_3_grad/TanhGrad"
  op: "TanhGrad"
  input: "filter_type_1_1/Tanh_3"
  input: "gradients_2/filter_type_1_1/Reshape_6_grad/Reshape"
  attr {
    key: "T"
    value {
      type: DT_DOUBLE
    }
  }
}
node {
  name: "gradients_2/filter_type_0_1/MatMul_grad/MatMul"
  op: "MatMul"
  input: "gradients_2/filter_type_0_1/Tanh_grad/TanhGrad"
  input: "filter_type_0_1/matrix_1_0/read"
  attr {
    key: "T"
    value {
      type: DT_DOUBLE
    }
  }
  attr {
    key: "transpose_a"
    value {
      b: false
    }
  }
  attr {
    key: "transpose_b"
    value {
      b: true
    }
  }
}
node {
  name: "gradients_2/filter_type_0_1/MatMul_3_grad/MatMul"
  op: "MatMul"
  input: "gradients_2/filter_type_0_1/Tanh_3_grad/TanhGrad"
  input: "filter_type_0_1/matrix_1_1/read"
  attr {
    key: "T"
    value {
      type: DT_DOUBLE
    }
  }
  attr {
    key: "transpose_a"
    value {
      b: false
    }
  }
  attr {
    key: "transpose_b"
    value {
      b: true
    }
  }
}
node {
  name: "gradients_2/filter_type_1_1/MatMul_grad/MatMul"
  op: "MatMul"
  input: "gradients_2/filter_type_1_1/Tanh_grad/TanhGrad"
  input: "filter_type_1_1/matrix_1_0/read"
  attr {
    key: "T"
    value {
      type: DT_DOUBLE
    }
  }
  attr {
    key: "transpose_a"
    value {
      b: false
    }
  }
  attr {
    key: "transpose_b"
    value {
      b: true
    }
  }
}
node {
  name: "gradients_2/filter_type_1_1/MatMul_3_grad/MatMul"
  op: "MatMul"
  input: "gradients_2/filter_type_1_1/Tanh_3_grad/TanhGrad"
  input: "filter_type_1_1/matrix_1_1/read"
  attr {
    key: "T"
    value {
      type: DT_DOUBLE
    }
  }
  attr {
    key: "transpose_a"
    value {
      b: false
    }
  }
  attr {
    key: "transpose_b"
    value {
      b: true
    }
  }
}
node {
  name: "gradients_2/AddN_13"
  op: "AddN"
  input: "gradients_2/filter_type_0_1/add_grad/Reshape"
  input: "gradients_2/filter_type_0_1/MatMul_grad/MatMul"
  attr {
    key: "N"
    value {
      i: 2
    }
  }
  attr {
    key: "T"
    value {
      type: DT_DOUBLE
    }
  }
  attr {
    key: "_class"
    value {
      list {
        s: "loc:@gradients_2/filter_type_0_1/add_grad/Reshape"
      }
    }
  }
}
node {
  name: "gradients_2/filter_type_0_1/Reshape_grad/Shape"
  op: "Shape"
  input: "filter_type_0_1/Slice"
  attr {
    key: "T"
    value {
      type: DT_DOUBLE
    }
  }
  attr {
    key: "out_type"
    value {
      type: DT_INT32
    }
  }
}
node {
  name: "gradients_2/filter_type_0_1/Reshape_grad/Reshape"
  op: "Reshape"
  input: "gradients_2/AddN_13"
  input: "gradients_2/filter_type_0_1/Reshape_grad/Shape"
  attr {
    key: "T"
    value {
      type: DT_DOUBLE
    }
  }
  attr {
    key: "Tshape"
    value {
      type: DT_INT32
    }
  }
}
node {
  name: "gradients_2/AddN_14"
  op: "AddN"
  input: "gradients_2/filter_type_0_1/add_3_grad/Reshape"
  input: "gradients_2/filter_type_0_1/MatMul_3_grad/MatMul"
  attr {
    key: "N"
    value {
      i: 2
    }
  }
  attr {
    key: "T"
    value {
      type: DT_DOUBLE
    }
  }
  attr {
    key: "_class"
    value {
      list {
        s: "loc:@gradients_2/filter_type_0_1/add_3_grad/Reshape"
      }
    }
  }
}
node {
  name: "gradients_2/filter_type_0_1/Reshape_5_grad/Shape"
  op: "Shape"
  input: "filter_type_0_1/Slice_1"
  attr {
    key: "T"
    value {
      type: DT_DOUBLE
    }
  }
  attr {
    key: "out_type"
    value {
      type: DT_INT32
    }
  }
}
node {
  name: "gradients_2/filter_type_0_1/Reshape_5_grad/Reshape"
  op: "Reshape"
  input: "gradients_2/AddN_14"
  input: "gradients_2/filter_type_0_1/Reshape_5_grad/Shape"
  attr {
    key: "T"
    value {
      type: DT_DOUBLE
    }
  }
  attr {
    key: "Tshape"
    value {
      type: DT_INT32
    }
  }
}
node {
  name: "gradients_2/AddN_15"
  op: "AddN"
  input: "gradients_2/filter_type_1_1/add_grad/Reshape"
  input: "gradients_2/filter_type_1_1/MatMul_grad/MatMul"
  attr {
    key: "N"
    value {
      i: 2
    }
  }
  attr {
    key: "T"
    value {
      type: DT_DOUBLE
    }
  }
  attr {
    key: "_class"
    value {
      list {
        s: "loc:@gradients_2/filter_type_1_1/add_grad/Reshape"
      }
    }
  }
}
node {
  name: "gradients_2/filter_type_1_1/Reshape_grad/Shape"
  op: "Shape"
  input: "filter_type_1_1/Slice"
  attr {
    key: "T"
    value {
      type: DT_DOUBLE
    }
  }
  attr {
    key: "out_type"
    value {
      type: DT_INT32
    }
  }
}
node {
  name: "gradients_2/filter_type_1_1/Reshape_grad/Reshape"
  op: "Reshape"
  input: "gradients_2/AddN_15"
  input: "gradients_2/filter_type_1_1/Reshape_grad/Shape"
  attr {
    key: "T"
    value {
      type: DT_DOUBLE
    }
  }
  attr {
    key: "Tshape"
    value {
      type: DT_INT32
    }
  }
}
node {
  name: "gradients_2/AddN_16"
  op: "AddN"
  input: "gradients_2/filter_type_1_1/add_3_grad/Reshape"
  input: "gradients_2/filter_type_1_1/MatMul_3_grad/MatMul"
  attr {
    key: "N"
    value {
      i: 2
    }
  }
  attr {
    key: "T"
    value {
      type: DT_DOUBLE
    }
  }
  attr {
    key: "_class"
    value {
      list {
        s: "loc:@gradients_2/filter_type_1_1/add_3_grad/Reshape"
      }
    }
  }
}
node {
  name: "gradients_2/filter_type_1_1/Reshape_5_grad/Shape"
  op: "Shape"
  input: "filter_type_1_1/Slice_1"
  attr {
    key: "T"
    value {
      type: DT_DOUBLE
    }
  }
  attr {
    key: "out_type"
    value {
      type: DT_INT32
    }
  }
}
node {
  name: "gradients_2/filter_type_1_1/Reshape_5_grad/Reshape"
  op: "Reshape"
  input: "gradients_2/AddN_16"
  input: "gradients_2/filter_type_1_1/Reshape_5_grad/Shape"
  attr {
    key: "T"
    value {
      type: DT_DOUBLE
    }
  }
  attr {
    key: "Tshape"
    value {
      type: DT_INT32
    }
  }
}
node {
  name: "gradients_2/filter_type_0_1/Slice_grad/Rank"
  op: "Const"
  attr {
    key: "dtype"
    value {
      type: DT_INT32
    }
  }
  attr {
    key: "value"
    value {
      tensor {
        dtype: DT_INT32
        tensor_shape {
        }
        int_val: 2
      }
    }
  }
}
node {
  name: "gradients_2/filter_type_0_1/Slice_grad/Shape"
  op: "Shape"
  input: "filter_type_0_1/Slice"
  attr {
    key: "T"
    value {
      type: DT_DOUBLE
    }
  }
  attr {
    key: "out_type"
    value {
      type: DT_INT32
    }
  }
}
node {
  name: "gradients_2/filter_type_0_1/Slice_grad/stack/1"
  op: "Const"
  attr {
    key: "dtype"
    value {
      type: DT_INT32
    }
  }
  attr {
    key: "value"
    value {
      tensor {
        dtype: DT_INT32
        tensor_shape {
        }
        int_val: 1
      }
    }
  }
}
node {
  name: "gradients_2/filter_type_0_1/Slice_grad/stack"
  op: "Pack"
  input: "gradients_2/filter_type_0_1/Slice_grad/Rank"
  input: "gradients_2/filter_type_0_1/Slice_grad/stack/1"
  attr {
    key: "N"
    value {
      i: 2
    }
  }
  attr {
    key: "T"
    value {
      type: DT_INT32
    }
  }
  attr {
    key: "axis"
    value {
      i: 0
    }
  }
}
node {
  name: "gradients_2/filter_type_0_1/Slice_grad/Reshape"
  op: "Reshape"
  input: "filter_type_0_1/Slice/begin"
  input: "gradients_2/filter_type_0_1/Slice_grad/stack"
  attr {
    key: "T"
    value {
      type: DT_INT32
    }
  }
  attr {
    key: "Tshape"
    value {
      type: DT_INT32
    }
  }
}
node {
  name: "gradients_2/filter_type_0_1/Slice_grad/Shape_1"
  op: "Shape"
  input: "Reshape_27"
  attr {
    key: "T"
    value {
      type: DT_DOUBLE
    }
  }
  attr {
    key: "out_type"
    value {
      type: DT_INT32
    }
  }
}
node {
  name: "gradients_2/filter_type_0_1/Slice_grad/sub"
  op: "Sub"
  input: "gradients_2/filter_type_0_1/Slice_grad/Shape_1"
  input: "gradients_2/filter_type_0_1/Slice_grad/Shape"
  attr {
    key: "T"
    value {
      type: DT_INT32
    }
  }
}
node {
  name: "gradients_2/filter_type_0_1/Slice_grad/sub_1"
  op: "Sub"
  input: "gradients_2/filter_type_0_1/Slice_grad/sub"
  input: "filter_type_0_1/Slice/begin"
  attr {
    key: "T"
    value {
      type: DT_INT32
    }
  }
}
node {
  name: "gradients_2/filter_type_0_1/Slice_grad/Reshape_1"
  op: "Reshape"
  input: "gradients_2/filter_type_0_1/Slice_grad/sub_1"
  input: "gradients_2/filter_type_0_1/Slice_grad/stack"
  attr {
    key: "T"
    value {
      type: DT_INT32
    }
  }
  attr {
    key: "Tshape"
    value {
      type: DT_INT32
    }
  }
}
node {
  name: "gradients_2/filter_type_0_1/Slice_grad/concat/axis"
  op: "Const"
  attr {
    key: "dtype"
    value {
      type: DT_INT32
    }
  }
  attr {
    key: "value"
    value {
      tensor {
        dtype: DT_INT32
        tensor_shape {
        }
        int_val: 1
      }
    }
  }
}
node {
  name: "gradients_2/filter_type_0_1/Slice_grad/concat"
  op: "ConcatV2"
  input: "gradients_2/filter_type_0_1/Slice_grad/Reshape"
  input: "gradients_2/filter_type_0_1/Slice_grad/Reshape_1"
  input: "gradients_2/filter_type_0_1/Slice_grad/concat/axis"
  attr {
    key: "N"
    value {
      i: 2
    }
  }
  attr {
    key: "T"
    value {
      type: DT_INT32
    }
  }
  attr {
    key: "Tidx"
    value {
      type: DT_INT32
    }
  }
}
node {
  name: "gradients_2/filter_type_0_1/Slice_grad/Pad"
  op: "Pad"
  input: "gradients_2/filter_type_0_1/Reshape_grad/Reshape"
  input: "gradients_2/filter_type_0_1/Slice_grad/concat"
  attr {
    key: "T"
    value {
      type: DT_DOUBLE
    }
  }
  attr {
    key: "Tpaddings"
    value {
      type: DT_INT32
    }
  }
}
node {
  name: "gradients_2/filter_type_0_1/Slice_1_grad/Rank"
  op: "Const"
  attr {
    key: "dtype"
    value {
      type: DT_INT32
    }
  }
  attr {
    key: "value"
    value {
      tensor {
        dtype: DT_INT32
        tensor_shape {
        }
        int_val: 2
      }
    }
  }
}
node {
  name: "gradients_2/filter_type_0_1/Slice_1_grad/Shape"
  op: "Shape"
  input: "filter_type_0_1/Slice_1"
  attr {
    key: "T"
    value {
      type: DT_DOUBLE
    }
  }
  attr {
    key: "out_type"
    value {
      type: DT_INT32
    }
  }
}
node {
  name: "gradients_2/filter_type_0_1/Slice_1_grad/stack/1"
  op: "Const"
  attr {
    key: "dtype"
    value {
      type: DT_INT32
    }
  }
  attr {
    key: "value"
    value {
      tensor {
        dtype: DT_INT32
        tensor_shape {
        }
        int_val: 1
      }
    }
  }
}
node {
  name: "gradients_2/filter_type_0_1/Slice_1_grad/stack"
  op: "Pack"
  input: "gradients_2/filter_type_0_1/Slice_1_grad/Rank"
  input: "gradients_2/filter_type_0_1/Slice_1_grad/stack/1"
  attr {
    key: "N"
    value {
      i: 2
    }
  }
  attr {
    key: "T"
    value {
      type: DT_INT32
    }
  }
  attr {
    key: "axis"
    value {
      i: 0
    }
  }
}
node {
  name: "gradients_2/filter_type_0_1/Slice_1_grad/Reshape"
  op: "Reshape"
  input: "filter_type_0_1/Slice_1/begin"
  input: "gradients_2/filter_type_0_1/Slice_1_grad/stack"
  attr {
    key: "T"
    value {
      type: DT_INT32
    }
  }
  attr {
    key: "Tshape"
    value {
      type: DT_INT32
    }
  }
}
node {
  name: "gradients_2/filter_type_0_1/Slice_1_grad/Shape_1"
  op: "Shape"
  input: "Reshape_27"
  attr {
    key: "T"
    value {
      type: DT_DOUBLE
    }
  }
  attr {
    key: "out_type"
    value {
      type: DT_INT32
    }
  }
}
node {
  name: "gradients_2/filter_type_0_1/Slice_1_grad/sub"
  op: "Sub"
  input: "gradients_2/filter_type_0_1/Slice_1_grad/Shape_1"
  input: "gradients_2/filter_type_0_1/Slice_1_grad/Shape"
  attr {
    key: "T"
    value {
      type: DT_INT32
    }
  }
}
node {
  name: "gradients_2/filter_type_0_1/Slice_1_grad/sub_1"
  op: "Sub"
  input: "gradients_2/filter_type_0_1/Slice_1_grad/sub"
  input: "filter_type_0_1/Slice_1/begin"
  attr {
    key: "T"
    value {
      type: DT_INT32
    }
  }
}
node {
  name: "gradients_2/filter_type_0_1/Slice_1_grad/Reshape_1"
  op: "Reshape"
  input: "gradients_2/filter_type_0_1/Slice_1_grad/sub_1"
  input: "gradients_2/filter_type_0_1/Slice_1_grad/stack"
  attr {
    key: "T"
    value {
      type: DT_INT32
    }
  }
  attr {
    key: "Tshape"
    value {
      type: DT_INT32
    }
  }
}
node {
  name: "gradients_2/filter_type_0_1/Slice_1_grad/concat/axis"
  op: "Const"
  attr {
    key: "dtype"
    value {
      type: DT_INT32
    }
  }
  attr {
    key: "value"
    value {
      tensor {
        dtype: DT_INT32
        tensor_shape {
        }
        int_val: 1
      }
    }
  }
}
node {
  name: "gradients_2/filter_type_0_1/Slice_1_grad/concat"
  op: "ConcatV2"
  input: "gradients_2/filter_type_0_1/Slice_1_grad/Reshape"
  input: "gradients_2/filter_type_0_1/Slice_1_grad/Reshape_1"
  input: "gradients_2/filter_type_0_1/Slice_1_grad/concat/axis"
  attr {
    key: "N"
    value {
      i: 2
    }
  }
  attr {
    key: "T"
    value {
      type: DT_INT32
    }
  }
  attr {
    key: "Tidx"
    value {
      type: DT_INT32
    }
  }
}
node {
  name: "gradients_2/filter_type_0_1/Slice_1_grad/Pad"
  op: "Pad"
  input: "gradients_2/filter_type_0_1/Reshape_5_grad/Reshape"
  input: "gradients_2/filter_type_0_1/Slice_1_grad/concat"
  attr {
    key: "T"
    value {
      type: DT_DOUBLE
    }
  }
  attr {
    key: "Tpaddings"
    value {
      type: DT_INT32
    }
  }
}
node {
  name: "gradients_2/filter_type_1_1/Slice_grad/Rank"
  op: "Const"
  attr {
    key: "dtype"
    value {
      type: DT_INT32
    }
  }
  attr {
    key: "value"
    value {
      tensor {
        dtype: DT_INT32
        tensor_shape {
        }
        int_val: 2
      }
    }
  }
}
node {
  name: "gradients_2/filter_type_1_1/Slice_grad/Shape"
  op: "Shape"
  input: "filter_type_1_1/Slice"
  attr {
    key: "T"
    value {
      type: DT_DOUBLE
    }
  }
  attr {
    key: "out_type"
    value {
      type: DT_INT32
    }
  }
}
node {
  name: "gradients_2/filter_type_1_1/Slice_grad/stack/1"
  op: "Const"
  attr {
    key: "dtype"
    value {
      type: DT_INT32
    }
  }
  attr {
    key: "value"
    value {
      tensor {
        dtype: DT_INT32
        tensor_shape {
        }
        int_val: 1
      }
    }
  }
}
node {
  name: "gradients_2/filter_type_1_1/Slice_grad/stack"
  op: "Pack"
  input: "gradients_2/filter_type_1_1/Slice_grad/Rank"
  input: "gradients_2/filter_type_1_1/Slice_grad/stack/1"
  attr {
    key: "N"
    value {
      i: 2
    }
  }
  attr {
    key: "T"
    value {
      type: DT_INT32
    }
  }
  attr {
    key: "axis"
    value {
      i: 0
    }
  }
}
node {
  name: "gradients_2/filter_type_1_1/Slice_grad/Reshape"
  op: "Reshape"
  input: "filter_type_1_1/Slice/begin"
  input: "gradients_2/filter_type_1_1/Slice_grad/stack"
  attr {
    key: "T"
    value {
      type: DT_INT32
    }
  }
  attr {
    key: "Tshape"
    value {
      type: DT_INT32
    }
  }
}
node {
  name: "gradients_2/filter_type_1_1/Slice_grad/Shape_1"
  op: "Shape"
  input: "Reshape_29"
  attr {
    key: "T"
    value {
      type: DT_DOUBLE
    }
  }
  attr {
    key: "out_type"
    value {
      type: DT_INT32
    }
  }
}
node {
  name: "gradients_2/filter_type_1_1/Slice_grad/sub"
  op: "Sub"
  input: "gradients_2/filter_type_1_1/Slice_grad/Shape_1"
  input: "gradients_2/filter_type_1_1/Slice_grad/Shape"
  attr {
    key: "T"
    value {
      type: DT_INT32
    }
  }
}
node {
  name: "gradients_2/filter_type_1_1/Slice_grad/sub_1"
  op: "Sub"
  input: "gradients_2/filter_type_1_1/Slice_grad/sub"
  input: "filter_type_1_1/Slice/begin"
  attr {
    key: "T"
    value {
      type: DT_INT32
    }
  }
}
node {
  name: "gradients_2/filter_type_1_1/Slice_grad/Reshape_1"
  op: "Reshape"
  input: "gradients_2/filter_type_1_1/Slice_grad/sub_1"
  input: "gradients_2/filter_type_1_1/Slice_grad/stack"
  attr {
    key: "T"
    value {
      type: DT_INT32
    }
  }
  attr {
    key: "Tshape"
    value {
      type: DT_INT32
    }
  }
}
node {
  name: "gradients_2/filter_type_1_1/Slice_grad/concat/axis"
  op: "Const"
  attr {
    key: "dtype"
    value {
      type: DT_INT32
    }
  }
  attr {
    key: "value"
    value {
      tensor {
        dtype: DT_INT32
        tensor_shape {
        }
        int_val: 1
      }
    }
  }
}
node {
  name: "gradients_2/filter_type_1_1/Slice_grad/concat"
  op: "ConcatV2"
  input: "gradients_2/filter_type_1_1/Slice_grad/Reshape"
  input: "gradients_2/filter_type_1_1/Slice_grad/Reshape_1"
  input: "gradients_2/filter_type_1_1/Slice_grad/concat/axis"
  attr {
    key: "N"
    value {
      i: 2
    }
  }
  attr {
    key: "T"
    value {
      type: DT_INT32
    }
  }
  attr {
    key: "Tidx"
    value {
      type: DT_INT32
    }
  }
}
node {
  name: "gradients_2/filter_type_1_1/Slice_grad/Pad"
  op: "Pad"
  input: "gradients_2/filter_type_1_1/Reshape_grad/Reshape"
  input: "gradients_2/filter_type_1_1/Slice_grad/concat"
  attr {
    key: "T"
    value {
      type: DT_DOUBLE
    }
  }
  attr {
    key: "Tpaddings"
    value {
      type: DT_INT32
    }
  }
}
node {
  name: "gradients_2/filter_type_1_1/Slice_1_grad/Rank"
  op: "Const"
  attr {
    key: "dtype"
    value {
      type: DT_INT32
    }
  }
  attr {
    key: "value"
    value {
      tensor {
        dtype: DT_INT32
        tensor_shape {
        }
        int_val: 2
      }
    }
  }
}
node {
  name: "gradients_2/filter_type_1_1/Slice_1_grad/Shape"
  op: "Shape"
  input: "filter_type_1_1/Slice_1"
  attr {
    key: "T"
    value {
      type: DT_DOUBLE
    }
  }
  attr {
    key: "out_type"
    value {
      type: DT_INT32
    }
  }
}
node {
  name: "gradients_2/filter_type_1_1/Slice_1_grad/stack/1"
  op: "Const"
  attr {
    key: "dtype"
    value {
      type: DT_INT32
    }
  }
  attr {
    key: "value"
    value {
      tensor {
        dtype: DT_INT32
        tensor_shape {
        }
        int_val: 1
      }
    }
  }
}
node {
  name: "gradients_2/filter_type_1_1/Slice_1_grad/stack"
  op: "Pack"
  input: "gradients_2/filter_type_1_1/Slice_1_grad/Rank"
  input: "gradients_2/filter_type_1_1/Slice_1_grad/stack/1"
  attr {
    key: "N"
    value {
      i: 2
    }
  }
  attr {
    key: "T"
    value {
      type: DT_INT32
    }
  }
  attr {
    key: "axis"
    value {
      i: 0
    }
  }
}
node {
  name: "gradients_2/filter_type_1_1/Slice_1_grad/Reshape"
  op: "Reshape"
  input: "filter_type_1_1/Slice_1/begin"
  input: "gradients_2/filter_type_1_1/Slice_1_grad/stack"
  attr {
    key: "T"
    value {
      type: DT_INT32
    }
  }
  attr {
    key: "Tshape"
    value {
      type: DT_INT32
    }
  }
}
node {
  name: "gradients_2/filter_type_1_1/Slice_1_grad/Shape_1"
  op: "Shape"
  input: "Reshape_29"
  attr {
    key: "T"
    value {
      type: DT_DOUBLE
    }
  }
  attr {
    key: "out_type"
    value {
      type: DT_INT32
    }
  }
}
node {
  name: "gradients_2/filter_type_1_1/Slice_1_grad/sub"
  op: "Sub"
  input: "gradients_2/filter_type_1_1/Slice_1_grad/Shape_1"
  input: "gradients_2/filter_type_1_1/Slice_1_grad/Shape"
  attr {
    key: "T"
    value {
      type: DT_INT32
    }
  }
}
node {
  name: "gradients_2/filter_type_1_1/Slice_1_grad/sub_1"
  op: "Sub"
  input: "gradients_2/filter_type_1_1/Slice_1_grad/sub"
  input: "filter_type_1_1/Slice_1/begin"
  attr {
    key: "T"
    value {
      type: DT_INT32
    }
  }
}
node {
  name: "gradients_2/filter_type_1_1/Slice_1_grad/Reshape_1"
  op: "Reshape"
  input: "gradients_2/filter_type_1_1/Slice_1_grad/sub_1"
  input: "gradients_2/filter_type_1_1/Slice_1_grad/stack"
  attr {
    key: "T"
    value {
      type: DT_INT32
    }
  }
  attr {
    key: "Tshape"
    value {
      type: DT_INT32
    }
  }
}
node {
  name: "gradients_2/filter_type_1_1/Slice_1_grad/concat/axis"
  op: "Const"
  attr {
    key: "dtype"
    value {
      type: DT_INT32
    }
  }
  attr {
    key: "value"
    value {
      tensor {
        dtype: DT_INT32
        tensor_shape {
        }
        int_val: 1
      }
    }
  }
}
node {
  name: "gradients_2/filter_type_1_1/Slice_1_grad/concat"
  op: "ConcatV2"
  input: "gradients_2/filter_type_1_1/Slice_1_grad/Reshape"
  input: "gradients_2/filter_type_1_1/Slice_1_grad/Reshape_1"
  input: "gradients_2/filter_type_1_1/Slice_1_grad/concat/axis"
  attr {
    key: "N"
    value {
      i: 2
    }
  }
  attr {
    key: "T"
    value {
      type: DT_INT32
    }
  }
  attr {
    key: "Tidx"
    value {
      type: DT_INT32
    }
  }
}
node {
  name: "gradients_2/filter_type_1_1/Slice_1_grad/Pad"
  op: "Pad"
  input: "gradients_2/filter_type_1_1/Reshape_5_grad/Reshape"
  input: "gradients_2/filter_type_1_1/Slice_1_grad/concat"
  attr {
    key: "T"
    value {
      type: DT_DOUBLE
    }
  }
  attr {
    key: "Tpaddings"
    value {
      type: DT_INT32
    }
  }
}
node {
  name: "gradients_2/AddN_17"
  op: "AddN"
  input: "gradients_2/filter_type_0_1/Slice_grad/Pad"
  input: "gradients_2/filter_type_0_1/Slice_1_grad/Pad"
  attr {
    key: "N"
    value {
      i: 2
    }
  }
  attr {
    key: "T"
    value {
      type: DT_DOUBLE
    }
  }
  attr {
    key: "_class"
    value {
      list {
        s: "loc:@gradients_2/filter_type_0_1/Slice_grad/Pad"
      }
    }
  }
}
node {
  name: "gradients_2/Reshape_27_grad/Shape"
  op: "Shape"
  input: "Slice_4"
  attr {
    key: "T"
    value {
      type: DT_DOUBLE
    }
  }
  attr {
    key: "out_type"
    value {
      type: DT_INT32
    }
  }
}
node {
  name: "gradients_2/Reshape_27_grad/Reshape"
  op: "Reshape"
  input: "gradients_2/AddN_17"
  input: "gradients_2/Reshape_27_grad/Shape"
  attr {
    key: "T"
    value {
      type: DT_DOUBLE
    }
  }
  attr {
    key: "Tshape"
    value {
      type: DT_INT32
    }
  }
}
node {
  name: "gradients_2/AddN_18"
  op: "AddN"
  input: "gradients_2/filter_type_1_1/Slice_grad/Pad"
  input: "gradients_2/filter_type_1_1/Slice_1_grad/Pad"
  attr {
    key: "N"
    value {
      i: 2
    }
  }
  attr {
    key: "T"
    value {
      type: DT_DOUBLE
    }
  }
  attr {
    key: "_class"
    value {
      list {
        s: "loc:@gradients_2/filter_type_1_1/Slice_grad/Pad"
      }
    }
  }
}
node {
  name: "gradients_2/Reshape_29_grad/Shape"
  op: "Shape"
  input: "Slice_5"
  attr {
    key: "T"
    value {
      type: DT_DOUBLE
    }
  }
  attr {
    key: "out_type"
    value {
      type: DT_INT32
    }
  }
}
node {
  name: "gradients_2/Reshape_29_grad/Reshape"
  op: "Reshape"
  input: "gradients_2/AddN_18"
  input: "gradients_2/Reshape_29_grad/Shape"
  attr {
    key: "T"
    value {
      type: DT_DOUBLE
    }
  }
  attr {
    key: "Tshape"
    value {
      type: DT_INT32
    }
  }
}
node {
  name: "gradients_2/Slice_4_grad/Rank"
  op: "Const"
  attr {
    key: "dtype"
    value {
      type: DT_INT32
    }
  }
  attr {
    key: "value"
    value {
      tensor {
        dtype: DT_INT32
        tensor_shape {
        }
        int_val: 3
      }
    }
  }
}
node {
  name: "gradients_2/Slice_4_grad/Shape"
  op: "Shape"
  input: "Slice_4"
  attr {
    key: "T"
    value {
      type: DT_DOUBLE
    }
  }
  attr {
    key: "out_type"
    value {
      type: DT_INT32
    }
  }
}
node {
  name: "gradients_2/Slice_4_grad/stack/1"
  op: "Const"
  attr {
    key: "dtype"
    value {
      type: DT_INT32
    }
  }
  attr {
    key: "value"
    value {
      tensor {
        dtype: DT_INT32
        tensor_shape {
        }
        int_val: 1
      }
    }
  }
}
node {
  name: "gradients_2/Slice_4_grad/stack"
  op: "Pack"
  input: "gradients_2/Slice_4_grad/Rank"
  input: "gradients_2/Slice_4_grad/stack/1"
  attr {
    key: "N"
    value {
      i: 2
    }
  }
  attr {
    key: "T"
    value {
      type: DT_INT32
    }
  }
  attr {
    key: "axis"
    value {
      i: 0
    }
  }
}
node {
  name: "gradients_2/Slice_4_grad/Reshape"
  op: "Reshape"
  input: "Slice_4/begin"
  input: "gradients_2/Slice_4_grad/stack"
  attr {
    key: "T"
    value {
      type: DT_INT32
    }
  }
  attr {
    key: "Tshape"
    value {
      type: DT_INT32
    }
  }
}
node {
  name: "gradients_2/Slice_4_grad/Shape_1"
  op: "Shape"
  input: "Reshape_26"
  attr {
    key: "T"
    value {
      type: DT_DOUBLE
    }
  }
  attr {
    key: "out_type"
    value {
      type: DT_INT32
    }
  }
}
node {
  name: "gradients_2/Slice_4_grad/sub"
  op: "Sub"
  input: "gradients_2/Slice_4_grad/Shape_1"
  input: "gradients_2/Slice_4_grad/Shape"
  attr {
    key: "T"
    value {
      type: DT_INT32
    }
  }
}
node {
  name: "gradients_2/Slice_4_grad/sub_1"
  op: "Sub"
  input: "gradients_2/Slice_4_grad/sub"
  input: "Slice_4/begin"
  attr {
    key: "T"
    value {
      type: DT_INT32
    }
  }
}
node {
  name: "gradients_2/Slice_4_grad/Reshape_1"
  op: "Reshape"
  input: "gradients_2/Slice_4_grad/sub_1"
  input: "gradients_2/Slice_4_grad/stack"
  attr {
    key: "T"
    value {
      type: DT_INT32
    }
  }
  attr {
    key: "Tshape"
    value {
      type: DT_INT32
    }
  }
}
node {
  name: "gradients_2/Slice_4_grad/concat/axis"
  op: "Const"
  attr {
    key: "dtype"
    value {
      type: DT_INT32
    }
  }
  attr {
    key: "value"
    value {
      tensor {
        dtype: DT_INT32
        tensor_shape {
        }
        int_val: 1
      }
    }
  }
}
node {
  name: "gradients_2/Slice_4_grad/concat"
  op: "ConcatV2"
  input: "gradients_2/Slice_4_grad/Reshape"
  input: "gradients_2/Slice_4_grad/Reshape_1"
  input: "gradients_2/Slice_4_grad/concat/axis"
  attr {
    key: "N"
    value {
      i: 2
    }
  }
  attr {
    key: "T"
    value {
      type: DT_INT32
    }
  }
  attr {
    key: "Tidx"
    value {
      type: DT_INT32
    }
  }
}
node {
  name: "gradients_2/Slice_4_grad/Pad"
  op: "Pad"
  input: "gradients_2/Reshape_27_grad/Reshape"
  input: "gradients_2/Slice_4_grad/concat"
  attr {
    key: "T"
    value {
      type: DT_DOUBLE
    }
  }
  attr {
    key: "Tpaddings"
    value {
      type: DT_INT32
    }
  }
}
node {
  name: "gradients_2/Slice_5_grad/Rank"
  op: "Const"
  attr {
    key: "dtype"
    value {
      type: DT_INT32
    }
  }
  attr {
    key: "value"
    value {
      tensor {
        dtype: DT_INT32
        tensor_shape {
        }
        int_val: 3
      }
    }
  }
}
node {
  name: "gradients_2/Slice_5_grad/Shape"
  op: "Shape"
  input: "Slice_5"
  attr {
    key: "T"
    value {
      type: DT_DOUBLE
    }
  }
  attr {
    key: "out_type"
    value {
      type: DT_INT32
    }
  }
}
node {
  name: "gradients_2/Slice_5_grad/stack/1"
  op: "Const"
  attr {
    key: "dtype"
    value {
      type: DT_INT32
    }
  }
  attr {
    key: "value"
    value {
      tensor {
        dtype: DT_INT32
        tensor_shape {
        }
        int_val: 1
      }
    }
  }
}
node {
  name: "gradients_2/Slice_5_grad/stack"
  op: "Pack"
  input: "gradients_2/Slice_5_grad/Rank"
  input: "gradients_2/Slice_5_grad/stack/1"
  attr {
    key: "N"
    value {
      i: 2
    }
  }
  attr {
    key: "T"
    value {
      type: DT_INT32
    }
  }
  attr {
    key: "axis"
    value {
      i: 0
    }
  }
}
node {
  name: "gradients_2/Slice_5_grad/Reshape"
  op: "Reshape"
  input: "Slice_5/begin"
  input: "gradients_2/Slice_5_grad/stack"
  attr {
    key: "T"
    value {
      type: DT_INT32
    }
  }
  attr {
    key: "Tshape"
    value {
      type: DT_INT32
    }
  }
}
node {
  name: "gradients_2/Slice_5_grad/Shape_1"
  op: "Shape"
  input: "Reshape_26"
  attr {
    key: "T"
    value {
      type: DT_DOUBLE
    }
  }
  attr {
    key: "out_type"
    value {
      type: DT_INT32
    }
  }
}
node {
  name: "gradients_2/Slice_5_grad/sub"
  op: "Sub"
  input: "gradients_2/Slice_5_grad/Shape_1"
  input: "gradients_2/Slice_5_grad/Shape"
  attr {
    key: "T"
    value {
      type: DT_INT32
    }
  }
}
node {
  name: "gradients_2/Slice_5_grad/sub_1"
  op: "Sub"
  input: "gradients_2/Slice_5_grad/sub"
  input: "Slice_5/begin"
  attr {
    key: "T"
    value {
      type: DT_INT32
    }
  }
}
node {
  name: "gradients_2/Slice_5_grad/Reshape_1"
  op: "Reshape"
  input: "gradients_2/Slice_5_grad/sub_1"
  input: "gradients_2/Slice_5_grad/stack"
  attr {
    key: "T"
    value {
      type: DT_INT32
    }
  }
  attr {
    key: "Tshape"
    value {
      type: DT_INT32
    }
  }
}
node {
  name: "gradients_2/Slice_5_grad/concat/axis"
  op: "Const"
  attr {
    key: "dtype"
    value {
      type: DT_INT32
    }
  }
  attr {
    key: "value"
    value {
      tensor {
        dtype: DT_INT32
        tensor_shape {
        }
        int_val: 1
      }
    }
  }
}
node {
  name: "gradients_2/Slice_5_grad/concat"
  op: "ConcatV2"
  input: "gradients_2/Slice_5_grad/Reshape"
  input: "gradients_2/Slice_5_grad/Reshape_1"
  input: "gradients_2/Slice_5_grad/concat/axis"
  attr {
    key: "N"
    value {
      i: 2
    }
  }
  attr {
    key: "T"
    value {
      type: DT_INT32
    }
  }
  attr {
    key: "Tidx"
    value {
      type: DT_INT32
    }
  }
}
node {
  name: "gradients_2/Slice_5_grad/Pad"
  op: "Pad"
  input: "gradients_2/Reshape_29_grad/Reshape"
  input: "gradients_2/Slice_5_grad/concat"
  attr {
    key: "T"
    value {
      type: DT_DOUBLE
    }
  }
  attr {
    key: "Tpaddings"
    value {
      type: DT_INT32
    }
  }
}
node {
  name: "gradients_2/AddN_19"
  op: "AddN"
  input: "gradients_2/Slice_4_grad/Pad"
  input: "gradients_2/Slice_5_grad/Pad"
  attr {
    key: "N"
    value {
      i: 2
    }
  }
  attr {
    key: "T"
    value {
      type: DT_DOUBLE
    }
  }
  attr {
    key: "_class"
    value {
      list {
        s: "loc:@gradients_2/Slice_4_grad/Pad"
      }
    }
  }
}
node {
  name: "gradients_2/Reshape_26_grad/Shape"
  op: "Shape"
  input: "o_rmat_1"
  attr {
    key: "T"
    value {
      type: DT_DOUBLE
    }
  }
  attr {
    key: "out_type"
    value {
      type: DT_INT32
    }
  }
}
node {
  name: "gradients_2/Reshape_26_grad/Reshape"
  op: "Reshape"
  input: "gradients_2/AddN_19"
  input: "gradients_2/Reshape_26_grad/Shape"
  attr {
    key: "T"
    value {
      type: DT_DOUBLE
    }
  }
  attr {
    key: "Tshape"
    value {
      type: DT_INT32
    }
  }
}
node {
  name: "strided_slice_59/stack"
  op: "Const"
  attr {
    key: "dtype"
    value {
      type: DT_INT32
    }
  }
  attr {
    key: "value"
    value {
      tensor {
        dtype: DT_INT32
        tensor_shape {
          dim {
            size: 1
          }
        }
        int_val: 0
      }
    }
  }
}
node {
  name: "strided_slice_59/stack_1"
  op: "Const"
  attr {
    key: "dtype"
    value {
      type: DT_INT32
    }
  }
  attr {
    key: "value"
    value {
      tensor {
        dtype: DT_INT32
        tensor_shape {
          dim {
            size: 1
          }
        }
        int_val: 1
      }
    }
  }
}
node {
  name: "strided_slice_59/stack_2"
  op: "Const"
  attr {
    key: "dtype"
    value {
      type: DT_INT32
    }
  }
  attr {
    key: "value"
    value {
      tensor {
        dtype: DT_INT32
        tensor_shape {
          dim {
            size: 1
          }
        }
        int_val: 1
      }
    }
  }
}
node {
  name: "strided_slice_59"
  op: "StridedSlice"
  input: "t_natoms"
  input: "strided_slice_59/stack"
  input: "strided_slice_59/stack_1"
  input: "strided_slice_59/stack_2"
  attr {
    key: "Index"
    value {
      type: DT_INT32
    }
  }
  attr {
    key: "T"
    value {
      type: DT_INT32
    }
  }
  attr {
    key: "begin_mask"
    value {
      i: 0
    }
  }
  attr {
    key: "ellipsis_mask"
    value {
      i: 0
    }
  }
  attr {
    key: "end_mask"
    value {
      i: 0
    }
  }
  attr {
    key: "new_axis_mask"
    value {
      i: 0
    }
  }
  attr {
    key: "shrink_axis_mask"
    value {
      i: 1
    }
  }
}
node {
  name: "mul_11/y"
  op: "Const"
  attr {
    key: "dtype"
    value {
      type: DT_INT32
    }
  }
  attr {
    key: "value"
    value {
      tensor {
        dtype: DT_INT32
        tensor_shape {
        }
        int_val: 138
      }
    }
  }
}
node {
  name: "mul_11"
  op: "Mul"
  input: "strided_slice_59"
  input: "mul_11/y"
  attr {
    key: "T"
    value {
      type: DT_INT32
    }
  }
}
node {
  name: "Reshape_43/shape/0"
  op: "Const"
  attr {
    key: "dtype"
    value {
      type: DT_INT32
    }
  }
  attr {
    key: "value"
    value {
      tensor {
        dtype: DT_INT32
        tensor_shape {
        }
        int_val: -1
      }
    }
  }
}
node {
  name: "Reshape_43/shape"
  op: "Pack"
  input: "Reshape_43/shape/0"
  input: "mul_11"
  attr {
    key: "N"
    value {
      i: 2
    }
  }
  attr {
    key: "T"
    value {
      type: DT_INT32
    }
  }
  attr {
    key: "axis"
    value {
      i: 0
    }
  }
}
node {
  name: "Reshape_43"
  op: "Reshape"
  input: "gradients_2/Reshape_26_grad/Reshape"
  input: "Reshape_43/shape"
  attr {
    key: "T"
    value {
      type: DT_DOUBLE
    }
  }
  attr {
    key: "Tshape"
    value {
      type: DT_INT32
    }
  }
}
node {
  name: "ProdForceSeR"
  op: "ProdForceSeR"
  input: "Reshape_43"
  input: "o_rmat_deriv_1"
  input: "o_nlist_1"
  input: "t_natoms"
  attr {
    key: "T"
    value {
      type: DT_DOUBLE
    }
  }
}
node {
  name: "ProdVirialSeR"
  op: "ProdVirialSeR"
  input: "Reshape_43"
  input: "o_rmat_deriv_1"
  input: "o_rij_1"
  input: "o_nlist_1"
  input: "t_natoms"
  attr {
    key: "T"
    value {
      type: DT_DOUBLE
    }
  }
}
node {
  name: "add_13"
  op: "AddV2"
  input: "ProdForceSeA_1"
  input: "ProdForceSeR"
  attr {
    key: "T"
    value {
      type: DT_DOUBLE
    }
  }
}
node {
  name: "add_14"
  op: "AddV2"
  input: "ProdVirialSeA_1"
  input: "ProdVirialSeR"
  attr {
    key: "T"
    value {
      type: DT_DOUBLE
    }
  }
}
node {
  name: "add_15"
  op: "AddV2"
  input: "ProdVirialSeA_1:1"
  input: "ProdVirialSeR:1"
  attr {
    key: "T"
    value {
      type: DT_DOUBLE
    }
  }
}
node {
  name: "strided_slice_60/stack"
  op: "Const"
  attr {
    key: "dtype"
    value {
      type: DT_INT32
    }
  }
  attr {
    key: "value"
    value {
      tensor {
        dtype: DT_INT32
        tensor_shape {
          dim {
            size: 1
          }
        }
        int_val: 1
      }
    }
  }
}
node {
  name: "strided_slice_60/stack_1"
  op: "Const"
  attr {
    key: "dtype"
    value {
      type: DT_INT32
    }
  }
  attr {
    key: "value"
    value {
      tensor {
        dtype: DT_INT32
        tensor_shape {
          dim {
            size: 1
          }
        }
        int_val: 2
      }
    }
  }
}
node {
  name: "strided_slice_60/stack_2"
  op: "Const"
  attr {
    key: "dtype"
    value {
      type: DT_INT32
    }
  }
  attr {
    key: "value"
    value {
      tensor {
        dtype: DT_INT32
        tensor_shape {
          dim {
            size: 1
          }
        }
        int_val: 1
      }
    }
  }
}
node {
  name: "strided_slice_60"
  op: "StridedSlice"
  input: "t_natoms"
  input: "strided_slice_60/stack"
  input: "strided_slice_60/stack_1"
  input: "strided_slice_60/stack_2"
  attr {
    key: "Index"
    value {
      type: DT_INT32
    }
  }
  attr {
    key: "T"
    value {
      type: DT_INT32
    }
  }
  attr {
    key: "begin_mask"
    value {
      i: 0
    }
  }
  attr {
    key: "ellipsis_mask"
    value {
      i: 0
    }
  }
  attr {
    key: "end_mask"
    value {
      i: 0
    }
  }
  attr {
    key: "new_axis_mask"
    value {
      i: 0
    }
  }
  attr {
    key: "shrink_axis_mask"
    value {
      i: 1
    }
  }
}
node {
  name: "mul_12/x"
  op: "Const"
  attr {
    key: "dtype"
    value {
      type: DT_INT32
    }
  }
  attr {
    key: "value"
    value {
      tensor {
        dtype: DT_INT32
        tensor_shape {
        }
        int_val: 3
      }
    }
  }
}
node {
  name: "mul_12"
  op: "Mul"
  input: "mul_12/x"
  input: "strided_slice_60"
  attr {
    key: "T"
    value {
      type: DT_INT32
    }
  }
}
node {
  name: "o_force/shape/0"
  op: "Const"
  attr {
    key: "dtype"
    value {
      type: DT_INT32
    }
  }
  attr {
    key: "value"
    value {
      tensor {
        dtype: DT_INT32
        tensor_shape {
        }
        int_val: -1
      }
    }
  }
}
node {
  name: "o_force/shape"
  op: "Pack"
  input: "o_force/shape/0"
  input: "mul_12"
  attr {
    key: "N"
    value {
      i: 2
    }
  }
  attr {
    key: "T"
    value {
      type: DT_INT32
    }
  }
  attr {
    key: "axis"
    value {
      i: 0
    }
  }
}
node {
  name: "o_force"
  op: "Reshape"
  input: "add_13"
  input: "o_force/shape"
  attr {
    key: "T"
    value {
      type: DT_DOUBLE
    }
  }
  attr {
    key: "Tshape"
    value {
      type: DT_INT32
    }
  }
}
node {
  name: "o_virial/shape"
  op: "Const"
  attr {
    key: "dtype"
    value {
      type: DT_INT32
    }
  }
  attr {
    key: "value"
    value {
      tensor {
        dtype: DT_INT32
        tensor_shape {
          dim {
            size: 2
          }
        }
        tensor_content: "\377\377\377\377\t\000\000\000"
      }
    }
  }
}
node {
  name: "o_virial"
  op: "Reshape"
  input: "add_14"
  input: "o_virial/shape"
  attr {
    key: "T"
    value {
      type: DT_DOUBLE
    }
  }
  attr {
    key: "Tshape"
    value {
      type: DT_INT32
    }
  }
}
node {
  name: "strided_slice_61/stack"
  op: "Const"
  attr {
    key: "dtype"
    value {
      type: DT_INT32
    }
  }
  attr {
    key: "value"
    value {
      tensor {
        dtype: DT_INT32
        tensor_shape {
          dim {
            size: 1
          }
        }
        int_val: 1
      }
    }
  }
}
node {
  name: "strided_slice_61/stack_1"
  op: "Const"
  attr {
    key: "dtype"
    value {
      type: DT_INT32
    }
  }
  attr {
    key: "value"
    value {
      tensor {
        dtype: DT_INT32
        tensor_shape {
          dim {
            size: 1
          }
        }
        int_val: 2
      }
    }
  }
}
node {
  name: "strided_slice_61/stack_2"
  op: "Const"
  attr {
    key: "dtype"
    value {
      type: DT_INT32
    }
  }
  attr {
    key: "value"
    value {
      tensor {
        dtype: DT_INT32
        tensor_shape {
          dim {
            size: 1
          }
        }
        int_val: 1
      }
    }
  }
}
node {
  name: "strided_slice_61"
  op: "StridedSlice"
  input: "t_natoms"
  input: "strided_slice_61/stack"
  input: "strided_slice_61/stack_1"
  input: "strided_slice_61/stack_2"
  attr {
    key: "Index"
    value {
      type: DT_INT32
    }
  }
  attr {
    key: "T"
    value {
      type: DT_INT32
    }
  }
  attr {
    key: "begin_mask"
    value {
      i: 0
    }
  }
  attr {
    key: "ellipsis_mask"
    value {
      i: 0
    }
  }
  attr {
    key: "end_mask"
    value {
      i: 0
    }
  }
  attr {
    key: "new_axis_mask"
    value {
      i: 0
    }
  }
  attr {
    key: "shrink_axis_mask"
    value {
      i: 1
    }
  }
}
node {
  name: "mul_13/x"
  op: "Const"
  attr {
    key: "dtype"
    value {
      type: DT_INT32
    }
  }
  attr {
    key: "value"
    value {
      tensor {
        dtype: DT_INT32
        tensor_shape {
        }
        int_val: 9
      }
    }
  }
}
node {
  name: "mul_13"
  op: "Mul"
  input: "mul_13/x"
  input: "strided_slice_61"
  attr {
    key: "T"
    value {
      type: DT_INT32
    }
  }
}
node {
  name: "o_atom_virial/shape/0"
  op: "Const"
  attr {
    key: "dtype"
    value {
      type: DT_INT32
    }
  }
  attr {
    key: "value"
    value {
      tensor {
        dtype: DT_INT32
        tensor_shape {
        }
        int_val: -1
      }
    }
  }
}
node {
  name: "o_atom_virial/shape"
  op: "Pack"
  input: "o_atom_virial/shape/0"
  input: "mul_13"
  attr {
    key: "N"
    value {
      i: 2
    }
  }
  attr {
    key: "T"
    value {
      type: DT_INT32
    }
  }
  attr {
    key: "axis"
    value {
      i: 0
    }
  }
}
node {
  name: "o_atom_virial"
  op: "Reshape"
  input: "add_15"
  input: "o_atom_virial/shape"
  attr {
    key: "T"
    value {
      type: DT_DOUBLE
    }
  }
  attr {
    key: "Tshape"
    value {
      type: DT_INT32
    }
  }
}
library {
}
versions {
}
