node {
  name: "Reshape_24/shape"
  op: "Const"
  attr {
    key: "dtype"
    value {
      type: DT_INT32
    }
  }
  attr {
    key: "value"
    value {
      tensor {
        dtype: DT_INT32
        tensor_shape {
          dim {
            size: 1
          }
        }
        int_val: -1
      }
    }
  }
}
node {
  name: "concat_2/axis"
  op: "Const"
  attr {
    key: "dtype"
    value {
      type: DT_INT32
    }
  }
  attr {
    key: "value"
    value {
      tensor {
        dtype: DT_INT32
        tensor_shape {
        }
        int_val: 1
      }
    }
  }
}
node {
  name: "Reshape_21/shape/2"
  op: "Const"
  attr {
    key: "dtype"
    value {
      type: DT_INT32
    }
  }
  attr {
    key: "value"
    value {
      tensor {
        dtype: DT_INT32
        tensor_shape {
        }
        int_val: 3
      }
    }
  }
}
node {
  name: "strided_slice_28/stack_2"
  op: "Const"
  attr {
    key: "dtype"
    value {
      type: DT_INT32
    }
  }
  attr {
    key: "value"
    value {
      tensor {
        dtype: DT_INT32
        tensor_shape {
          dim {
            size: 1
          }
        }
        int_val: 1
      }
    }
  }
}
node {
  name: "strided_slice_28/stack_1"
  op: "Const"
  attr {
    key: "dtype"
    value {
      type: DT_INT32
    }
  }
  attr {
    key: "value"
    value {
      tensor {
        dtype: DT_INT32
        tensor_shape {
          dim {
            size: 1
          }
        }
        int_val: 6
      }
    }
  }
}
node {
  name: "strided_slice_28/stack"
  op: "Const"
  attr {
    key: "dtype"
    value {
      type: DT_INT32
    }
  }
  attr {
    key: "value"
    value {
      tensor {
        dtype: DT_INT32
        tensor_shape {
          dim {
            size: 1
          }
        }
        int_val: 5
      }
    }
  }
}
node {
  name: "strided_slice_27/stack_2"
  op: "Const"
  attr {
    key: "dtype"
    value {
      type: DT_INT32
    }
  }
  attr {
    key: "value"
    value {
      tensor {
        dtype: DT_INT32
        tensor_shape {
          dim {
            size: 1
          }
        }
        int_val: 1
      }
    }
  }
}
node {
  name: "strided_slice_27/stack_1"
  op: "Const"
  attr {
    key: "dtype"
    value {
      type: DT_INT32
    }
  }
  attr {
    key: "value"
    value {
      tensor {
        dtype: DT_INT32
        tensor_shape {
          dim {
            size: 1
          }
        }
        int_val: 1
      }
    }
  }
}
node {
  name: "strided_slice_27/stack"
  op: "Const"
  attr {
    key: "dtype"
    value {
      type: DT_INT32
    }
  }
  attr {
    key: "value"
    value {
      tensor {
        dtype: DT_INT32
        tensor_shape {
          dim {
            size: 1
          }
        }
        int_val: 0
      }
    }
  }
}
node {
  name: "Reshape_20/shape/2"
  op: "Const"
  attr {
    key: "dtype"
    value {
      type: DT_INT32
    }
  }
  attr {
    key: "value"
    value {
      tensor {
        dtype: DT_INT32
        tensor_shape {
        }
        int_val: 8
      }
    }
  }
}
node {
  name: "Reshape_20/shape/1"
  op: "Const"
  attr {
    key: "dtype"
    value {
      type: DT_INT32
    }
  }
  attr {
    key: "value"
    value {
      tensor {
        dtype: DT_INT32
        tensor_shape {
        }
        int_val: 1
      }
    }
  }
}
node {
  name: "strided_slice_26/stack_2"
  op: "Const"
  attr {
    key: "dtype"
    value {
      type: DT_INT32
    }
  }
  attr {
    key: "value"
    value {
      tensor {
        dtype: DT_INT32
        tensor_shape {
          dim {
            size: 1
          }
        }
        int_val: 1
      }
    }
  }
}
node {
  name: "strided_slice_26/stack_1"
  op: "Const"
  attr {
    key: "dtype"
    value {
      type: DT_INT32
    }
  }
  attr {
    key: "value"
    value {
      tensor {
        dtype: DT_INT32
        tensor_shape {
          dim {
            size: 1
          }
        }
        int_val: 6
      }
    }
  }
}
node {
  name: "strided_slice_26/stack"
  op: "Const"
  attr {
    key: "dtype"
    value {
      type: DT_INT32
    }
  }
  attr {
    key: "value"
    value {
      tensor {
        dtype: DT_INT32
        tensor_shape {
          dim {
            size: 1
          }
        }
        int_val: 5
      }
    }
  }
}
node {
  name: "strided_slice_25/stack_2"
  op: "Const"
  attr {
    key: "dtype"
    value {
      type: DT_INT32
    }
  }
  attr {
    key: "value"
    value {
      tensor {
        dtype: DT_INT32
        tensor_shape {
          dim {
            size: 1
          }
        }
        int_val: 1
      }
    }
  }
}
node {
  name: "strided_slice_25/stack_1"
  op: "Const"
  attr {
    key: "dtype"
    value {
      type: DT_INT32
    }
  }
  attr {
    key: "value"
    value {
      tensor {
        dtype: DT_INT32
        tensor_shape {
          dim {
            size: 1
          }
        }
        int_val: 1
      }
    }
  }
}
node {
  name: "strided_slice_25/stack"
  op: "Const"
  attr {
    key: "dtype"
    value {
      type: DT_INT32
    }
  }
  attr {
    key: "value"
    value {
      tensor {
        dtype: DT_INT32
        tensor_shape {
          dim {
            size: 1
          }
        }
        int_val: 0
      }
    }
  }
}
node {
  name: "final_layer_type_3/bias"
  op: "Const"
  attr {
    key: "dtype"
    value {
      type: DT_DOUBLE
    }
  }
  attr {
    key: "value"
    value {
      tensor {
        dtype: DT_DOUBLE
        tensor_shape {
          dim {
            size: 8
          }
        }
        tensor_content: "…"
      }
    }
  }
}
node {
  name: "final_layer_type_3/bias/read"
  op: "Identity"
  input: "final_layer_type_3/bias"
  attr {
    key: "T"
    value {
      type: DT_DOUBLE
    }
  }
  attr {
    key: "_class"
    value {
      list {
        s: "loc:@final_layer_type_3/bias"
      }
    }
  }
}
node {
  name: "final_layer_type_3/matrix"
  op: "Const"
  attr {
    key: "dtype"
    value {
      type: DT_DOUBLE
    }
  }
  attr {
    key: "value"
    value {
      tensor {
        dtype: DT_DOUBLE
        tensor_shape {
          dim {
            size: 4
          }
          dim {
            size: 8
          }
        }
        tensor_content: "…"
      }
    }
  }
}
node {
  name: "final_layer_type_3/matrix/read"
  op: "Identity"
  input: "final_layer_type_3/matrix"
  attr {
    key: "T"
    value {
      type: DT_DOUBLE
    }
  }
  attr {
    key: "_class"
    value {
      list {
        s: "loc:@final_layer_type_3/matrix"
      }
    }
  }
}
node {
  name: "layer_2_type_3/Reshape/shape"
  op: "Const"
  attr {
    key: "dtype"
    value {
      type: DT_INT32
    }
  }
  attr {
    key: "value"
    value {
      tensor {
        dtype: DT_INT32
        tensor_shape {
          dim {
            size: 2
          }
        }
        tensor_content: "\377\377\377\377\004\000\000\000"
      }
    }
  }
}
node {
  name: "layer_2_type_3/idt"
  op: "Const"
  attr {
    key: "dtype"
    value {
      type: DT_DOUBLE
    }
  }
  attr {
    key: "value"
    value {
      tensor {
        dtype: DT_DOUBLE
        tensor_shape {
          dim {
            size: 4
          }
        }
        tensor_content: "\240\267\320ZqC\271?\343s\376\214\224\350\271?\254|\247\333\356\310\271?\200T\350\244\211#\271?"
      }
    }
  }
}
node {
  name: "layer_2_type_3/idt/read"
  op: "Identity"
  input: "layer_2_type_3/idt"
  attr {
    key: "T"
    value {
      type: DT_DOUBLE
    }
  }
  attr {
    key: "_class"
    value {
      list {
        s: "loc:@layer_2_type_3/idt"
      }
    }
  }
}
node {
  name: "layer_2_type_3/bias"
  op: "Const"
  attr {
    key: "dtype"
    value {
      type: DT_DOUBLE
    }
  }
  attr {
    key: "value"
    value {
      tensor {
        dtype: DT_DOUBLE
        tensor_shape {
          dim {
            size: 4
          }
        }
        tensor_content: "…"
      }
    }
  }
}
node {
  name: "layer_2_type_3/bias/read"
  op: "Identity"
  input: "layer_2_type_3/bias"
  attr {
    key: "T"
    value {
      type: DT_DOUBLE
    }
  }
  attr {
    key: "_class"
    value {
      list {
        s: "loc:@layer_2_type_3/bias"
      }
    }
  }
}
node {
  name: "layer_2_type_3/matrix"
  op: "Const"
  attr {
    key: "dtype"
    value {
      type: DT_DOUBLE
    }
  }
  attr {
    key: "value"
    value {
      tensor {
        dtype: DT_DOUBLE
        tensor_shape {
          dim {
            size: 4
          }
          dim {
            size: 4
          }
        }
        tensor_content: "…"
      }
    }
  }
}
node {
  name: "layer_2_type_3/matrix/read"
  op: "Identity"
  input: "layer_2_type_3/matrix"
  attr {
    key: "T"
    value {
      type: DT_DOUBLE
    }
  }
  attr {
    key: "_class"
    value {
      list {
        s: "loc:@layer_2_type_3/matrix"
      }
    }
  }
}
node {
  name: "layer_1_type_3/Reshape/shape"
  op: "Const"
  attr {
    key: "dtype"
    value {
      type: DT_INT32
    }
  }
  attr {
    key: "value"
    value {
      tensor {
        dtype: DT_INT32
        tensor_shape {
          dim {
            size: 2
          }
        }
        tensor_content: "\377\377\377\377\004\000\000\000"
      }
    }
  }
}
node {
  name: "layer_1_type_3/idt"
  op: "Const"
  attr {
    key: "dtype"
    value {
      type: DT_DOUBLE
    }
  }
  attr {
    key: "value"
    value {
      tensor {
        dtype: DT_DOUBLE
        tensor_shape {
          dim {
            size: 4
          }
        }
        tensor_content: "\010$\315\236pC\271?2H\373\343\224\350\271?\247\177\230o\356\310\271? HA5\207#\271?"
      }
    }
  }
}
node {
  name: "layer_1_type_3/idt/read"
  op: "Identity"
  input: "layer_1_type_3/idt"
  attr {
    key: "T"
    value {
      type: DT_DOUBLE
    }
  }
  attr {
    key: "_class"
    value {
      list {
        s: "loc:@layer_1_type_3/idt"
      }
    }
  }
}
node {
  name: "layer_1_type_3/bias"
  op: "Const"
  attr {
    key: "dtype"
    value {
      type: DT_DOUBLE
    }
  }
  attr {
    key: "value"
    value {
      tensor {
        dtype: DT_DOUBLE
        tensor_shape {
          dim {
            size: 4
          }
        }
        tensor_content: "^M\244g\357\341\316?#\324l*\r\261\326\277L9\377\334p\321\352\277V\034Q\0256\372\316\277"
      }
    }
  }
}
node {
  name: "layer_1_type_3/bias/read"
  op: "Identity"
  input: "layer_1_type_3/bias"
  attr {
    key: "T"
    value {
      type: DT_DOUBLE
    }
  }
  attr {
    key: "_class"
    value {
      list {
        s: "loc:@layer_1_type_3/bias"
      }
    }
  }
}
node {
  name: "layer_1_type_3/matrix"
  op: "Const"
  attr {
    key: "dtype"
    value {
      type: DT_DOUBLE
    }
  }
  attr {
    key: "value"
    value {
      tensor {
        dtype: DT_DOUBLE
        tensor_shape {
          dim {
            size: 4
          }
          dim {
            size: 4
          }
        }
        tensor_content: "…"
      }
    }
  }
}
node {
  name: "layer_1_type_3/matrix/read"
  op: "Identity"
  input: "layer_1_type_3/matrix"
  attr {
    key: "T"
    value {
      type: DT_DOUBLE
    }
  }
  attr {
    key: "_class"
    value {
      list {
        s: "loc:@layer_1_type_3/matrix"
      }
    }
  }
}
node {
  name: "layer_0_type_3/Reshape/shape"
  op: "Const"
  attr {
    key: "dtype"
    value {
      type: DT_INT32
    }
  }
  attr {
    key: "value"
    value {
      tensor {
        dtype: DT_INT32
        tensor_shape {
          dim {
            size: 2
          }
        }
        tensor_content: "\377\377\377\377\004\000\000\000"
      }
    }
  }
}
node {
  name: "layer_0_type_3/bias"
  op: "Const"
  attr {
    key: "dtype"
    value {
      type: DT_DOUBLE
    }
  }
  attr {
    key: "value"
    value {
      tensor {
        dtype: DT_DOUBLE
        tensor_shape {
          dim {
            size: 4
          }
        }
        tensor_content: "k8-Tv\344\316?h\007\225\326\205\227\326\277ET\321\207\355\320\352\277\315[\376\006E-\317\277"
      }
    }
  }
}
node {
  name: "layer_0_type_3/bias/read"
  op: "Identity"
  input: "layer_0_type_3/bias"
  attr {
    key: "T"
    value {
      type: DT_DOUBLE
    }
  }
  attr {
    key: "_class"
    value {
      list {
        s: "loc:@layer_0_type_3/bias"
      }
    }
  }
}
node {
  name: "layer_0_type_3/matrix"
  op: "Const"
  attr {
    key: "dtype"
    value {
      type: DT_DOUBLE
    }
  }
  attr {
    key: "value"
    value {
      tensor {
        dtype: DT_DOUBLE
        tensor_shape {
          dim {
            size: 32
          }
          dim {
            size: 4
          }
        }
        tensor_content: "…"
      }
    }
  }
}
node {
  name: "layer_0_type_3/matrix/read"
  op: "Identity"
  input: "layer_0_type_3/matrix"
  attr {
    key: "T"
    value {
      type: DT_DOUBLE
    }
  }
  attr {
    key: "_class"
    value {
      list {
        s: "loc:@layer_0_type_3/matrix"
      }
    }
  }
}
node {
  name: "Reshape_19/shape"
  op: "Const"
  attr {
    key: "dtype"
    value {
      type: DT_INT32
    }
  }
  attr {
    key: "value"
    value {
      tensor {
        dtype: DT_INT32
        tensor_shape {
          dim {
            size: 3
          }
        }
        tensor_content: "\377\377\377\377\010\000\000\000\003\000\000\000"
      }
    }
  }
}
node {
  name: "Slice_7/size/0"
  op: "Const"
  attr {
    key: "dtype"
    value {
      type: DT_INT32
    }
  }
  attr {
    key: "value"
    value {
      tensor {
        dtype: DT_INT32
        tensor_shape {
        }
        int_val: -1
      }
    }
  }
}
node {
  name: "Slice_7/begin/0"
  op: "Const"
  attr {
    key: "dtype"
    value {
      type: DT_INT32
    }
  }
  attr {
    key: "value"
    value {
      tensor {
        dtype: DT_INT32
        tensor_shape {
        }
        int_val: 0
      }
    }
  }
}
node {
  name: "mul_21/y"
  op: "Const"
  attr {
    key: "dtype"
    value {
      type: DT_INT32
    }
  }
  attr {
    key: "value"
    value {
      tensor {
        dtype: DT_INT32
        tensor_shape {
        }
        int_val: 24
      }
    }
  }
}
node {
  name: "strided_slice_23/stack_2"
  op: "Const"
  attr {
    key: "dtype"
    value {
      type: DT_INT32
    }
  }
  attr {
    key: "value"
    value {
      tensor {
        dtype: DT_INT32
        tensor_shape {
          dim {
            size: 1
          }
        }
        int_val: 1
      }
    }
  }
}
node {
  name: "strided_slice_23/stack_1"
  op: "Const"
  attr {
    key: "dtype"
    value {
      type: DT_INT32
    }
  }
  attr {
    key: "value"
    value {
      tensor {
        dtype: DT_INT32
        tensor_shape {
          dim {
            size: 1
          }
        }
        int_val: 6
      }
    }
  }
}
node {
  name: "strided_slice_23/stack"
  op: "Const"
  attr {
    key: "dtype"
    value {
      type: DT_INT32
    }
  }
  attr {
    key: "value"
    value {
      tensor {
        dtype: DT_INT32
        tensor_shape {
          dim {
            size: 1
          }
        }
        int_val: 5
      }
    }
  }
}
node {
  name: "mul_20/y"
  op: "Const"
  attr {
    key: "dtype"
    value {
      type: DT_INT32
    }
  }
  attr {
    key: "value"
    value {
      tensor {
        dtype: DT_INT32
        tensor_shape {
        }
        int_val: 24
      }
    }
  }
}
node {
  name: "Reshape_18/shape"
  op: "Const"
  attr {
    key: "dtype"
    value {
      type: DT_INT32
    }
  }
  attr {
    key: "value"
    value {
      tensor {
        dtype: DT_INT32
        tensor_shape {
          dim {
            size: 2
          }
        }
        tensor_content: "\377\377\377\377 \000\000\000"
      }
    }
  }
}
node {
  name: "Slice_6/size/0"
  op: "Const"
  attr {
    key: "dtype"
    value {
      type: DT_INT32
    }
  }
  attr {
    key: "value"
    value {
      tensor {
        dtype: DT_INT32
        tensor_shape {
        }
        int_val: -1
      }
    }
  }
}
node {
  name: "Slice_6/begin/0"
  op: "Const"
  attr {
    key: "dtype"
    value {
      type: DT_INT32
    }
  }
  attr {
    key: "value"
    value {
      tensor {
        dtype: DT_INT32
        tensor_shape {
        }
        int_val: 0
      }
    }
  }
}
node {
  name: "mul_19/y"
  op: "Const"
  attr {
    key: "dtype"
    value {
      type: DT_INT32
    }
  }
  attr {
    key: "value"
    value {
      tensor {
        dtype: DT_INT32
        tensor_shape {
        }
        int_val: 32
      }
    }
  }
}
node {
  name: "strided_slice_22/stack_2"
  op: "Const"
  attr {
    key: "dtype"
    value {
      type: DT_INT32
    }
  }
  attr {
    key: "value"
    value {
      tensor {
        dtype: DT_INT32
        tensor_shape {
          dim {
            size: 1
          }
        }
        int_val: 1
      }
    }
  }
}
node {
  name: "strided_slice_22/stack_1"
  op: "Const"
  attr {
    key: "dtype"
    value {
      type: DT_INT32
    }
  }
  attr {
    key: "value"
    value {
      tensor {
        dtype: DT_INT32
        tensor_shape {
          dim {
            size: 1
          }
        }
        int_val: 6
      }
    }
  }
}
node {
  name: "strided_slice_22/stack"
  op: "Const"
  attr {
    key: "dtype"
    value {
      type: DT_INT32
    }
  }
  attr {
    key: "value"
    value {
      tensor {
        dtype: DT_INT32
        tensor_shape {
          dim {
            size: 1
          }
        }
        int_val: 5
      }
    }
  }
}
node {
  name: "mul_18/y"
  op: "Const"
  attr {
    key: "dtype"
    value {
      type: DT_INT32
    }
  }
  attr {
    key: "value"
    value {
      tensor {
        dtype: DT_INT32
        tensor_shape {
        }
        int_val: 32
      }
    }
  }
}
node {
  name: "strided_slice_21/stack_2"
  op: "Const"
  attr {
    key: "dtype"
    value {
      type: DT_INT32
    }
  }
  attr {
    key: "value"
    value {
      tensor {
        dtype: DT_INT32
        tensor_shape {
          dim {
            size: 1
          }
        }
        int_val: 1
      }
    }
  }
}
node {
  name: "strided_slice_21/stack_1"
  op: "Const"
  attr {
    key: "dtype"
    value {
      type: DT_INT32
    }
  }
  attr {
    key: "value"
    value {
      tensor {
        dtype: DT_INT32
        tensor_shape {
          dim {
            size: 1
          }
        }
        int_val: 5
      }
    }
  }
}
node {
  name: "strided_slice_21/stack"
  op: "Const"
  attr {
    key: "dtype"
    value {
      type: DT_INT32
    }
  }
  attr {
    key: "value"
    value {
      tensor {
        dtype: DT_INT32
        tensor_shape {
          dim {
            size: 1
          }
        }
        int_val: 4
      }
    }
  }
}
node {
  name: "Reshape_15/shape/2"
  op: "Const"
  attr {
    key: "dtype"
    value {
      type: DT_INT32
    }
  }
  attr {
    key: "value"
    value {
      tensor {
        dtype: DT_INT32
        tensor_shape {
        }
        int_val: 3
      }
    }
  }
}
node {
  name: "strided_slice_18/stack_2"
  op: "Const"
  attr {
    key: "dtype"
    value {
      type: DT_INT32
    }
  }
  attr {
    key: "value"
    value {
      tensor {
        dtype: DT_INT32
        tensor_shape {
          dim {
            size: 1
          }
        }
        int_val: 1
      }
    }
  }
}
node {
  name: "strided_slice_18/stack_1"
  op: "Const"
  attr {
    key: "dtype"
    value {
      type: DT_INT32
    }
  }
  attr {
    key: "value"
    value {
      tensor {
        dtype: DT_INT32
        tensor_shape {
          dim {
            size: 1
          }
        }
        int_val: 4
      }
    }
  }
}
node {
  name: "strided_slice_18/stack"
  op: "Const"
  attr {
    key: "dtype"
    value {
      type: DT_INT32
    }
  }
  attr {
    key: "value"
    value {
      tensor {
        dtype: DT_INT32
        tensor_shape {
          dim {
            size: 1
          }
        }
        int_val: 3
      }
    }
  }
}
node {
  name: "strided_slice_17/stack_2"
  op: "Const"
  attr {
    key: "dtype"
    value {
      type: DT_INT32
    }
  }
  attr {
    key: "value"
    value {
      tensor {
        dtype: DT_INT32
        tensor_shape {
          dim {
            size: 1
          }
        }
        int_val: 1
      }
    }
  }
}
node {
  name: "strided_slice_17/stack_1"
  op: "Const"
  attr {
    key: "dtype"
    value {
      type: DT_INT32
    }
  }
  attr {
    key: "value"
    value {
      tensor {
        dtype: DT_INT32
        tensor_shape {
          dim {
            size: 1
          }
        }
        int_val: 1
      }
    }
  }
}
node {
  name: "strided_slice_17/stack"
  op: "Const"
  attr {
    key: "dtype"
    value {
      type: DT_INT32
    }
  }
  attr {
    key: "value"
    value {
      tensor {
        dtype: DT_INT32
        tensor_shape {
          dim {
            size: 1
          }
        }
        int_val: 0
      }
    }
  }
}
node {
  name: "Reshape_14/shape/2"
  op: "Const"
  attr {
    key: "dtype"
    value {
      type: DT_INT32
    }
  }
  attr {
    key: "value"
    value {
      tensor {
        dtype: DT_INT32
        tensor_shape {
        }
        int_val: 8
      }
    }
  }
}
node {
  name: "Reshape_14/shape/1"
  op: "Const"
  attr {
    key: "dtype"
    value {
      type: DT_INT32
    }
  }
  attr {
    key: "value"
    value {
      tensor {
        dtype: DT_INT32
        tensor_shape {
        }
        int_val: 1
      }
    }
  }
}
node {
  name: "strided_slice_16/stack_2"
  op: "Const"
  attr {
    key: "dtype"
    value {
      type: DT_INT32
    }
  }
  attr {
    key: "value"
    value {
      tensor {
        dtype: DT_INT32
        tensor_shape {
          dim {
            size: 1
          }
        }
        int_val: 1
      }
    }
  }
}
node {
  name: "strided_slice_16/stack_1"
  op: "Const"
  attr {
    key: "dtype"
    value {
      type: DT_INT32
    }
  }
  attr {
    key: "value"
    value {
      tensor {
        dtype: DT_INT32
        tensor_shape {
          dim {
            size: 1
          }
        }
        int_val: 4
      }
    }
  }
}
node {
  name: "strided_slice_16/stack"
  op: "Const"
  attr {
    key: "dtype"
    value {
      type: DT_INT32
    }
  }
  attr {
    key: "value"
    value {
      tensor {
        dtype: DT_INT32
        tensor_shape {
          dim {
            size: 1
          }
        }
        int_val: 3
      }
    }
  }
}
node {
  name: "strided_slice_15/stack_2"
  op: "Const"
  attr {
    key: "dtype"
    value {
      type: DT_INT32
    }
  }
  attr {
    key: "value"
    value {
      tensor {
        dtype: DT_INT32
        tensor_shape {
          dim {
            size: 1
          }
        }
        int_val: 1
      }
    }
  }
}
node {
  name: "strided_slice_15/stack_1"
  op: "Const"
  attr {
    key: "dtype"
    value {
      type: DT_INT32
    }
  }
  attr {
    key: "value"
    value {
      tensor {
        dtype: DT_INT32
        tensor_shape {
          dim {
            size: 1
          }
        }
        int_val: 1
      }
    }
  }
}
node {
  name: "strided_slice_15/stack"
  op: "Const"
  attr {
    key: "dtype"
    value {
      type: DT_INT32
    }
  }
  attr {
    key: "value"
    value {
      tensor {
        dtype: DT_INT32
        tensor_shape {
          dim {
            size: 1
          }
        }
        int_val: 0
      }
    }
  }
}
node {
  name: "final_layer_type_1/bias"
  op: "Const"
  attr {
    key: "dtype"
    value {
      type: DT_DOUBLE
    }
  }
  attr {
    key: "value"
    value {
      tensor {
        dtype: DT_DOUBLE
        tensor_shape {
          dim {
            size: 8
          }
        }
        tensor_content: "…"
      }
    }
  }
}
node {
  name: "final_layer_type_1/bias/read"
  op: "Identity"
  input: "final_layer_type_1/bias"
  attr {
    key: "T"
    value {
      type: DT_DOUBLE
    }
  }
  attr {
    key: "_class"
    value {
      list {
        s: "loc:@final_layer_type_1/bias"
      }
    }
  }
}
node {
  name: "final_layer_type_1/matrix"
  op: "Const"
  attr {
    key: "dtype"
    value {
      type: DT_DOUBLE
    }
  }
  attr {
    key: "value"
    value {
      tensor {
        dtype: DT_DOUBLE
        tensor_shape {
          dim {
            size: 4
          }
          dim {
            size: 8
          }
        }
        tensor_content: "…"
      }
    }
  }
}
node {
  name: "final_layer_type_1/matrix/read"
  op: "Identity"
  input: "final_layer_type_1/matrix"
  attr {
    key: "T"
    value {
      type: DT_DOUBLE
    }
  }
  attr {
    key: "_class"
    value {
      list {
        s: "loc:@final_layer_type_1/matrix"
      }
    }
  }
}
node {
  name: "layer_2_type_1/Reshape/shape"
  op: "Const"
  attr {
    key: "dtype"
    value {
      type: DT_INT32
    }
  }
  attr {
    key: "value"
    value {
      tensor {
        dtype: DT_INT32
        tensor_shape {
          dim {
            size: 2
          }
        }
        tensor_content: "\377\377\377\377\004\000\000\000"
      }
    }
  }
}
node {
  name: "layer_2_type_1/idt"
  op: "Const"
  attr {
    key: "dtype"
    value {
      type: DT_DOUBLE
    }
  }
  attr {
    key: "value"
    value {
      tensor {
        dtype: DT_DOUBLE
        tensor_shape {
          dim {
            size: 4
          }
        }
        tensor_content: "\206\357\242\315qC\271?\234\311\304\277\223\350\271?\342M~3\356\310\271?\242B\372\"\213#\271?"
      }
    }
  }
}
node {
  name: "layer_2_type_1/idt/read"
  op: "Identity"
  input: "layer_2_type_1/idt"
  attr {
    key: "T"
    value {
      type: DT_DOUBLE
    }
  }
  attr {
    key: "_class"
    value {
      list {
        s: "loc:@layer_2_type_1/idt"
      }
    }
  }
}
node {
  name: "layer_2_type_1/bias"
  op: "Const"
  attr {
    key: "dtype"
    value {
      type: DT_DOUBLE
    }
  }
  attr {
    key: "value"
    value {
      tensor {
        dtype: DT_DOUBLE
        tensor_shape {
          dim {
            size: 4
          }
        }
        tensor_content: "6\234\020\r\356\341\316?\254KF5\r\261\326\277\241\316T\336p\321\352\277\336*(\2256\372\316\277"
      }
    }
  }
}
node {
  name: "layer_2_type_1/bias/read"
  op: "Identity"
  input: "layer_2_type_1/bias"
  attr {
    key: "T"
    value {
      type: DT_DOUBLE
    }
  }
  attr {
    key: "_class"
    value {
      list {
        s: "loc:@layer_2_type_1/bias"
      }
    }
  }
}
node {
  name: "layer_2_type_1/matrix"
  op: "Const"
  attr {
    key: "dtype"
    value {
      type: DT_DOUBLE
    }
  }
  attr {
    key: "value"
    value {
      tensor {
        dtype: DT_DOUBLE
        tensor_shape {
          dim {
            size: 4
          }
          dim {
            size: 4
          }
        }
        tensor_content: "…"
      }
    }
  }
}
node {
  name: "layer_2_type_1/matrix/read"
  op: "Identity"
  input: "layer_2_type_1/matrix"
  attr {
    key: "T"
    value {
      type: DT_DOUBLE
    }
  }
  attr {
    key: "_class"
    value {
      list {
        s: "loc:@layer_2_type_1/matrix"
      }
    }
  }
}
node {
  name: "layer_1_type_1/Reshape/shape"
  op: "Const"
  attr {
    key: "dtype"
    value {
      type: DT_INT32
    }
  }
  attr {
    key: "value"
    value {
      tensor {
        dtype: DT_INT32
        tensor_shape {
          dim {
            size: 2
          }
        }
        tensor_content: "\377\377\377\377\004\000\000\000"
      }
    }
  }
}
node {
  name: "layer_1_type_1/idt"
  op: "Const"
  attr {
    key: "dtype"
    value {
      type: DT_DOUBLE
    }
  }
  attr {
    key: "value"
    value {
      tensor {
        dtype: DT_DOUBLE
        tensor_shape {
          dim {
            size: 4
          }
        }
        tensor_content: "…"
      }
    }
  }
}
node {
  name: "layer_1_type_1/idt/read"
  op: "Identity"
  input: "layer_1_type_1/idt"
  attr {
    key: "T"
    value {
      type: DT_DOUBLE
    }
  }
  attr {
    key: "_class"
    value {
      list {
        s: "loc:@layer_1_type_1/idt"
      }
    }
  }
}
node {
  name: "layer_1_type_1/bias"
  op: "Const"
  attr {
    key: "dtype"
    value {
      type: DT_DOUBLE
    }
  }
  attr {
    key: "value"
    value {
      tensor {
        dtype: DT_DOUBLE
        tensor_shape {
          dim {
            size: 4
          }
        }
        tensor_content: "…"
      }
    }
  }
}
node {
  name: "layer_1_type_1/bias/read"
  op: "Identity"
  input: "layer_1_type_1/bias"
  attr {
    key: "T"
    value {
      type: DT_DOUBLE
    }
  }
  attr {
    key: "_class"
    value {
      list {
        s: "loc:@layer_1_type_1/bias"
      }
    }
  }
}
node {
  name: "layer_1_type_1/matrix"
  op: "Const"
  attr {
    key: "dtype"
    value {
      type: DT_DOUBLE
    }
  }
  attr {
    key: "value"
    value {
      tensor {
        dtype: DT_DOUBLE
        tensor_shape {
          dim {
            size: 4
          }
          dim {
            size: 4
          }
        }
        tensor_content: "…"
      }
    }
  }
}
node {
  name: "layer_1_type_1/matrix/read"
  op: "Identity"
  input: "layer_1_type_1/matrix"
  attr {
    key: "T"
    value {
      type: DT_DOUBLE
    }
  }
  attr {
    key: "_class"
    value {
      list {
        s: "loc:@layer_1_type_1/matrix"
      }
    }
  }
}
node {
  name: "layer_0_type_1/Reshape/shape"
  op: "Const"
  attr {
    key: "dtype"
    value {
      type: DT_INT32
    }
  }
  attr {
    key: "value"
    value {
      tensor {
        dtype: DT_INT32
        tensor_shape {
          dim {
            size: 2
          }
        }
        tensor_content: "\377\377\377\377\004\000\000\000"
      }
    }
  }
}
node {
  name: "layer_0_type_1/bias"
  op: "Const"
  attr {
    key: "dtype"
    value {
      type: DT_DOUBLE
    }
  }
  attr {
    key: "value"
    value {
      tensor {
        dtype: DT_DOUBLE
        tensor_shape {
          dim {
            size: 4
          }
        }
        tensor_content: "…"
      }
    }
  }
}
node {
  name: "layer_0_type_1/bias/read"
  op: "Identity"
  input: "layer_0_type_1/bias"
  attr {
    key: "T"
    value {
      type: DT_DOUBLE
    }
  }
  attr {
    key: "_class"
    value {
      list {
        s: "loc:@layer_0_type_1/bias"
      }
    }
  }
}
node {
  name: "layer_0_type_1/matrix"
  op: "Const"
  attr {
    key: "dtype"
    value {
      type: DT_DOUBLE
    }
  }
  attr {
    key: "value"
    value {
      tensor {
        dtype: DT_DOUBLE
        tensor_shape {
          dim {
            size: 32
          }
          dim {
            size: 4
          }
        }
        tensor_content: "…"
      }
    }
  }
}
node {
  name: "layer_0_type_1/matrix/read"
  op: "Identity"
  input: "layer_0_type_1/matrix"
  attr {
    key: "T"
    value {
      type: DT_DOUBLE
    }
  }
  attr {
    key: "_class"
    value {
      list {
        s: "loc:@layer_0_type_1/matrix"
      }
    }
  }
}
node {
  name: "strided_slice_14/stack_2"
  op: "Const"
  attr {
    key: "dtype"
    value {
      type: DT_INT32
    }
  }
  attr {
    key: "value"
    value {
      tensor {
        dtype: DT_INT32
        tensor_shape {
          dim {
            size: 1
          }
        }
        int_val: 1
      }
    }
  }
}
node {
  name: "strided_slice_14/stack_1"
  op: "Const"
  attr {
    key: "dtype"
    value {
      type: DT_INT32
    }
  }
  attr {
    key: "value"
    value {
      tensor {
        dtype: DT_INT32
        tensor_shape {
          dim {
            size: 1
          }
        }
        int_val: 4
      }
    }
  }
}
node {
  name: "strided_slice_14/stack"
  op: "Const"
  attr {
    key: "dtype"
    value {
      type: DT_INT32
    }
  }
  attr {
    key: "value"
    value {
      tensor {
        dtype: DT_INT32
        tensor_shape {
          dim {
            size: 1
          }
        }
        int_val: 3
      }
    }
  }
}
node {
  name: "Reshape_13/shape"
  op: "Const"
  attr {
    key: "dtype"
    value {
      type: DT_INT32
    }
  }
  attr {
    key: "value"
    value {
      tensor {
        dtype: DT_INT32
        tensor_shape {
          dim {
            size: 3
          }
        }
        tensor_content: "\377\377\377\377\010\000\000\000\003\000\000\000"
      }
    }
  }
}
node {
  name: "Slice_3/size/0"
  op: "Const"
  attr {
    key: "dtype"
    value {
      type: DT_INT32
    }
  }
  attr {
    key: "value"
    value {
      tensor {
        dtype: DT_INT32
        tensor_shape {
        }
        int_val: -1
      }
    }
  }
}
node {
  name: "Slice_3/begin/0"
  op: "Const"
  attr {
    key: "dtype"
    value {
      type: DT_INT32
    }
  }
  attr {
    key: "value"
    value {
      tensor {
        dtype: DT_INT32
        tensor_shape {
        }
        int_val: 0
      }
    }
  }
}
node {
  name: "mul_12/y"
  op: "Const"
  attr {
    key: "dtype"
    value {
      type: DT_INT32
    }
  }
  attr {
    key: "value"
    value {
      tensor {
        dtype: DT_INT32
        tensor_shape {
        }
        int_val: 24
      }
    }
  }
}
node {
  name: "strided_slice_13/stack_2"
  op: "Const"
  attr {
    key: "dtype"
    value {
      type: DT_INT32
    }
  }
  attr {
    key: "value"
    value {
      tensor {
        dtype: DT_INT32
        tensor_shape {
          dim {
            size: 1
          }
        }
        int_val: 1
      }
    }
  }
}
node {
  name: "strided_slice_13/stack_1"
  op: "Const"
  attr {
    key: "dtype"
    value {
      type: DT_INT32
    }
  }
  attr {
    key: "value"
    value {
      tensor {
        dtype: DT_INT32
        tensor_shape {
          dim {
            size: 1
          }
        }
        int_val: 4
      }
    }
  }
}
node {
  name: "strided_slice_13/stack"
  op: "Const"
  attr {
    key: "dtype"
    value {
      type: DT_INT32
    }
  }
  attr {
    key: "value"
    value {
      tensor {
        dtype: DT_INT32
        tensor_shape {
          dim {
            size: 1
          }
        }
        int_val: 3
      }
    }
  }
}
node {
  name: "mul_11/y"
  op: "Const"
  attr {
    key: "dtype"
    value {
      type: DT_INT32
    }
  }
  attr {
    key: "value"
    value {
      tensor {
        dtype: DT_INT32
        tensor_shape {
        }
        int_val: 24
      }
    }
  }
}
node {
  name: "Reshape_12/shape"
  op: "Const"
  attr {
    key: "dtype"
    value {
      type: DT_INT32
    }
  }
  attr {
    key: "value"
    value {
      tensor {
        dtype: DT_INT32
        tensor_shape {
          dim {
            size: 2
          }
        }
        tensor_content: "\377\377\377\377 \000\000\000"
      }
    }
  }
}
node {
  name: "Slice_2/size/0"
  op: "Const"
  attr {
    key: "dtype"
    value {
      type: DT_INT32
    }
  }
  attr {
    key: "value"
    value {
      tensor {
        dtype: DT_INT32
        tensor_shape {
        }
        int_val: -1
      }
    }
  }
}
node {
  name: "Slice_2/begin/0"
  op: "Const"
  attr {
    key: "dtype"
    value {
      type: DT_INT32
    }
  }
  attr {
    key: "value"
    value {
      tensor {
        dtype: DT_INT32
        tensor_shape {
        }
        int_val: 0
      }
    }
  }
}
node {
  name: "mul_10/y"
  op: "Const"
  attr {
    key: "dtype"
    value {
      type: DT_INT32
    }
  }
  attr {
    key: "value"
    value {
      tensor {
        dtype: DT_INT32
        tensor_shape {
        }
        int_val: 32
      }
    }
  }
}
node {
  name: "strided_slice_12/stack_2"
  op: "Const"
  attr {
    key: "dtype"
    value {
      type: DT_INT32
    }
  }
  attr {
    key: "value"
    value {
      tensor {
        dtype: DT_INT32
        tensor_shape {
          dim {
            size: 1
          }
        }
        int_val: 1
      }
    }
  }
}
node {
  name: "strided_slice_12/stack_1"
  op: "Const"
  attr {
    key: "dtype"
    value {
      type: DT_INT32
    }
  }
  attr {
    key: "value"
    value {
      tensor {
        dtype: DT_INT32
        tensor_shape {
          dim {
            size: 1
          }
        }
        int_val: 4
      }
    }
  }
}
node {
  name: "strided_slice_12/stack"
  op: "Const"
  attr {
    key: "dtype"
    value {
      type: DT_INT32
    }
  }
  attr {
    key: "value"
    value {
      tensor {
        dtype: DT_INT32
        tensor_shape {
          dim {
            size: 1
          }
        }
        int_val: 3
      }
    }
  }
}
node {
  name: "mul_9/y"
  op: "Const"
  attr {
    key: "dtype"
    value {
      type: DT_INT32
    }
  }
  attr {
    key: "value"
    value {
      tensor {
        dtype: DT_INT32
        tensor_shape {
        }
        int_val: 32
      }
    }
  }
}
node {
  name: "add/x"
  op: "Const"
  attr {
    key: "dtype"
    value {
      type: DT_INT32
    }
  }
  attr {
    key: "value"
    value {
      tensor {
        dtype: DT_INT32
        tensor_shape {
        }
        int_val: 0
      }
    }
  }
}
node {
  name: "strided_slice_11/stack_2"
  op: "Const"
  attr {
    key: "dtype"
    value {
      type: DT_INT32
    }
  }
  attr {
    key: "value"
    value {
      tensor {
        dtype: DT_INT32
        tensor_shape {
          dim {
            size: 1
          }
        }
        int_val: 1
      }
    }
  }
}
node {
  name: "strided_slice_11/stack_1"
  op: "Const"
  attr {
    key: "dtype"
    value {
      type: DT_INT32
    }
  }
  attr {
    key: "value"
    value {
      tensor {
        dtype: DT_INT32
        tensor_shape {
          dim {
            size: 1
          }
        }
        int_val: 3
      }
    }
  }
}
node {
  name: "strided_slice_11/stack"
  op: "Const"
  attr {
    key: "dtype"
    value {
      type: DT_INT32
    }
  }
  attr {
    key: "value"
    value {
      tensor {
        dtype: DT_INT32
        tensor_shape {
          dim {
            size: 1
          }
        }
        int_val: 2
      }
    }
  }
}
node {
  name: "Reshape_9/shape/0"
  op: "Const"
  attr {
    key: "dtype"
    value {
      type: DT_INT32
    }
  }
  attr {
    key: "value"
    value {
      tensor {
        dtype: DT_INT32
        tensor_shape {
        }
        int_val: -1
      }
    }
  }
}
node {
  name: "mul_6/x"
  op: "Const"
  attr {
    key: "dtype"
    value {
      type: DT_INT32
    }
  }
  attr {
    key: "value"
    value {
      tensor {
        dtype: DT_INT32
        tensor_shape {
        }
        int_val: 24
      }
    }
  }
}
node {
  name: "strided_slice_8/stack_2"
  op: "Const"
  attr {
    key: "dtype"
    value {
      type: DT_INT32
    }
  }
  attr {
    key: "value"
    value {
      tensor {
        dtype: DT_INT32
        tensor_shape {
          dim {
            size: 1
          }
        }
        int_val: 1
      }
    }
  }
}
node {
  name: "strided_slice_8/stack_1"
  op: "Const"
  attr {
    key: "dtype"
    value {
      type: DT_INT32
    }
  }
  attr {
    key: "value"
    value {
      tensor {
        dtype: DT_INT32
        tensor_shape {
          dim {
            size: 1
          }
        }
        int_val: 1
      }
    }
  }
}
node {
  name: "strided_slice_8/stack"
  op: "Const"
  attr {
    key: "dtype"
    value {
      type: DT_INT32
    }
  }
  attr {
    key: "value"
    value {
      tensor {
        dtype: DT_INT32
        tensor_shape {
          dim {
            size: 1
          }
        }
        int_val: 0
      }
    }
  }
}
node {
  name: "Reshape_8/shape/0"
  op: "Const"
  attr {
    key: "dtype"
    value {
      type: DT_INT32
    }
  }
  attr {
    key: "value"
    value {
      tensor {
        dtype: DT_INT32
        tensor_shape {
        }
        int_val: -1
      }
    }
  }
}
node {
  name: "mul_5/x"
  op: "Const"
  attr {
    key: "dtype"
    value {
      type: DT_INT32
    }
  }
  attr {
    key: "value"
    value {
      tensor {
        dtype: DT_INT32
        tensor_shape {
        }
        int_val: 32
      }
    }
  }
}
node {
  name: "strided_slice_7/stack_2"
  op: "Const"
  attr {
    key: "dtype"
    value {
      type: DT_INT32
    }
  }
  attr {
    key: "value"
    value {
      tensor {
        dtype: DT_INT32
        tensor_shape {
          dim {
            size: 1
          }
        }
        int_val: 1
      }
    }
  }
}
node {
  name: "strided_slice_7/stack_1"
  op: "Const"
  attr {
    key: "dtype"
    value {
      type: DT_INT32
    }
  }
  attr {
    key: "value"
    value {
      tensor {
        dtype: DT_INT32
        tensor_shape {
          dim {
            size: 1
          }
        }
        int_val: 1
      }
    }
  }
}
node {
  name: "strided_slice_7/stack"
  op: "Const"
  attr {
    key: "dtype"
    value {
      type: DT_INT32
    }
  }
  attr {
    key: "value"
    value {
      tensor {
        dtype: DT_INT32
        tensor_shape {
          dim {
            size: 1
          }
        }
        int_val: 0
      }
    }
  }
}
node {
  name: "mul_4/y"
  op: "Const"
  attr {
    key: "dtype"
    value {
      type: DT_INT32
    }
  }
  attr {
    key: "value"
    value {
      tensor {
        dtype: DT_INT32
        tensor_shape {
        }
        int_val: 3
      }
    }
  }
}
node {
  name: "mul_3/y"
  op: "Const"
  attr {
    key: "dtype"
    value {
      type: DT_INT32
    }
  }
  attr {
    key: "value"
    value {
      tensor {
        dtype: DT_INT32
        tensor_shape {
        }
        int_val: 8
      }
    }
  }
}
node {
  name: "strided_slice_6/stack_2"
  op: "Const"
  attr {
    key: "dtype"
    value {
      type: DT_INT32
    }
  }
  attr {
    key: "value"
    value {
      tensor {
        dtype: DT_INT32
        tensor_shape {
          dim {
            size: 1
          }
        }
        int_val: 1
      }
    }
  }
}
node {
  name: "strided_slice_6/stack_1"
  op: "Const"
  attr {
    key: "dtype"
    value {
      type: DT_INT32
    }
  }
  attr {
    key: "value"
    value {
      tensor {
        dtype: DT_INT32
        tensor_shape {
          dim {
            size: 1
          }
        }
        int_val: 1
      }
    }
  }
}
node {
  name: "strided_slice_6/stack"
  op: "Const"
  attr {
    key: "dtype"
    value {
      type: DT_INT32
    }
  }
  attr {
    key: "value"
    value {
      tensor {
        dtype: DT_INT32
        tensor_shape {
          dim {
            size: 1
          }
        }
        int_val: 0
      }
    }
  }
}
node {
  name: "strided_slice_5/stack_2"
  op: "Const"
  attr {
    key: "dtype"
    value {
      type: DT_INT32
    }
  }
  attr {
    key: "value"
    value {
      tensor {
        dtype: DT_INT32
        tensor_shape {
          dim {
            size: 1
          }
        }
        int_val: 1
      }
    }
  }
}
node {
  name: "strided_slice_5/stack_1"
  op: "Const"
  attr {
    key: "dtype"
    value {
      type: DT_INT32
    }
  }
  attr {
    key: "value"
    value {
      tensor {
        dtype: DT_INT32
        tensor_shape {
          dim {
            size: 1
          }
        }
        int_val: 1
      }
    }
  }
}
node {
  name: "strided_slice_5/stack"
  op: "Const"
  attr {
    key: "dtype"
    value {
      type: DT_INT32
    }
  }
  attr {
    key: "value"
    value {
      tensor {
        dtype: DT_INT32
        tensor_shape {
          dim {
            size: 1
          }
        }
        int_val: 0
      }
    }
  }
}
node {
  name: "mul_2/y"
  op: "Const"
  attr {
    key: "dtype"
    value {
      type: DT_INT32
    }
  }
  attr {
    key: "value"
    value {
      tensor {
        dtype: DT_INT32
        tensor_shape {
        }
        int_val: 32
      }
    }
  }
}
node {
  name: "strided_slice_4/stack_2"
  op: "Const"
  attr {
    key: "dtype"
    value {
      type: DT_INT32
    }
  }
  attr {
    key: "value"
    value {
      tensor {
        dtype: DT_INT32
        tensor_shape {
          dim {
            size: 1
          }
        }
        int_val: 1
      }
    }
  }
}
node {
  name: "strided_slice_4/stack_1"
  op: "Const"
  attr {
    key: "dtype"
    value {
      type: DT_INT32
    }
  }
  attr {
    key: "value"
    value {
      tensor {
        dtype: DT_INT32
        tensor_shape {
          dim {
            size: 1
          }
        }
        int_val: 1
      }
    }
  }
}
node {
  name: "strided_slice_4/stack"
  op: "Const"
  attr {
    key: "dtype"
    value {
      type: DT_INT32
    }
  }
  attr {
    key: "value"
    value {
      tensor {
        dtype: DT_INT32
        tensor_shape {
          dim {
            size: 1
          }
        }
        int_val: 0
      }
    }
  }
}
node {
  name: "strided_slice_3/stack_2"
  op: "Const"
  attr {
    key: "dtype"
    value {
      type: DT_INT32
    }
  }
  attr {
    key: "value"
    value {
      tensor {
        dtype: DT_INT32
        tensor_shape {
          dim {
            size: 1
          }
        }
        int_val: 1
      }
    }
  }
}
node {
  name: "strided_slice_3/stack_1"
  op: "Const"
  attr {
    key: "dtype"
    value {
      type: DT_INT32
    }
  }
  attr {
    key: "value"
    value {
      tensor {
        dtype: DT_INT32
        tensor_shape {
          dim {
            size: 1
          }
        }
        int_val: 1
      }
    }
  }
}
node {
  name: "strided_slice_3/stack"
  op: "Const"
  attr {
    key: "dtype"
    value {
      type: DT_INT32
    }
  }
  attr {
    key: "value"
    value {
      tensor {
        dtype: DT_INT32
        tensor_shape {
          dim {
            size: 1
          }
        }
        int_val: 0
      }
    }
  }
}
node {
  name: "filter_type_all/Reshape_35/shape"
  op: "Const"
  attr {
    key: "dtype"
    value {
      type: DT_INT32
    }
  }
  attr {
    key: "value"
    value {
      tensor {
        dtype: DT_INT32
        tensor_shape {
          dim {
            size: 2
          }
        }
        tensor_content: "\377\377\377\377 \000\000\000"
      }
    }
  }
}
node {
  name: "filter_type_all/transpose/perm"
  op: "Const"
  attr {
    key: "dtype"
    value {
      type: DT_INT32
    }
  }
  attr {
    key: "value"
    value {
      tensor {
        dtype: DT_INT32
        tensor_shape {
          dim {
            size: 3
          }
        }
        tensor_content: "\000\000\000\000\002\000\000\000\001\000\000\000"
      }
    }
  }
}
node {
  name: "filter_type_all/Slice_11/size"
  op: "Const"
  attr {
    key: "dtype"
    value {
      type: DT_INT32
    }
  }
  attr {
    key: "value"
    value {
      tensor {
        dtype: DT_INT32
        tensor_shape {
          dim {
            size: 3
          }
        }
        tensor_content: "\377\377\377\377\003\000\000\000\377\377\377\377"
      }
    }
  }
}
node {
  name: "filter_type_all/Slice_11/begin"
  op: "Const"
  attr {
    key: "dtype"
    value {
      type: DT_INT32
    }
  }
  attr {
    key: "value"
    value {
      tensor {
        dtype: DT_INT32
        tensor_shape {
          dim {
            size: 3
          }
        }
        tensor_content: "\000\000\000\000\001\000\000\000\000\000\000\000"
      }
    }
  }
}
node {
  name: "filter_type_all/Slice_10/size"
  op: "Const"
  attr {
    key: "dtype"
    value {
      type: DT_INT32
    }
  }
  attr {
    key: "value"
    value {
      tensor {
        dtype: DT_INT32
        tensor_shape {
          dim {
            size: 3
          }
        }
        tensor_content: "\377\377\377\377\377\377\377\377\004\000\000\000"
      }
    }
  }
}
node {
  name: "filter_type_all/Slice_10/begin"
  op: "Const"
  attr {
    key: "dtype"
    value {
      type: DT_INT32
    }
  }
  attr {
    key: "value"
    value {
      tensor {
        dtype: DT_INT32
        tensor_shape {
          dim {
            size: 3
          }
        }
        tensor_content: "\000\000\000\000\000\000\000\000\000\000\000\000"
      }
    }
  }
}
node {
  name: "filter_type_all/mul/y"
  op: "Const"
  attr {
    key: "dtype"
    value {
      type: DT_DOUBLE
    }
  }
  attr {
    key: "value"
    value {
      tensor {
        dtype: DT_DOUBLE
        tensor_shape {
        }
        double_val: 0.04
      }
    }
  }
}
node {
  name: "filter_type_all/Reshape_34/shape"
  op: "Const"
  attr {
    key: "dtype"
    value {
      type: DT_INT32
    }
  }
  attr {
    key: "value"
    value {
      tensor {
        dtype: DT_INT32
        tensor_shape {
          dim {
            size: 3
          }
        }
        tensor_content: "\377\377\377\377\005\000\000\000\004\000\000\000"
      }
    }
  }
}
node {
  name: "filter_type_all/Reshape_33/shape"
  op: "Const"
  attr {
    key: "dtype"
    value {
      type: DT_INT32
    }
  }
  attr {
    key: "value"
    value {
      tensor {
        dtype: DT_INT32
        tensor_shape {
          dim {
            size: 3
          }
        }
        tensor_content: "\377\377\377\377\005\000\000\000\010\000\000\000"
      }
    }
  }
}
node {
  name: "filter_type_all/concat_14/axis"
  op: "Const"
  attr {
    key: "dtype"
    value {
      type: DT_INT32
    }
  }
  attr {
    key: "value"
    value {
      tensor {
        dtype: DT_INT32
        tensor_shape {
        }
        int_val: 1
      }
    }
  }
}
node {
  name: "filter_type_all/Reshape_32/shape"
  op: "Const"
  attr {
    key: "dtype"
    value {
      type: DT_INT32
    }
  }
  attr {
    key: "value"
    value {
      tensor {
        dtype: DT_INT32
        tensor_shape {
          dim {
            size: 2
          }
        }
        tensor_content: "\377\377\377\377\010\000\000\000"
      }
    }
  }
}
node {
  name: "filter_type_all/bias_3_4"
  op: "Const"
  attr {
    key: "dtype"
    value {
      type: DT_DOUBLE
    }
  }
  attr {
    key: "value"
    value {
      tensor {
        dtype: DT_DOUBLE
        tensor_shape {
          dim {
            size: 1
          }
          dim {
            size: 8
          }
        }
        tensor_content: "…"
      }
    }
  }
}
node {
  name: "filter_type_all/bias_3_4/read"
  op: "Identity"
  input: "filter_type_all/bias_3_4"
  attr {
    key: "T"
    value {
      type: DT_DOUBLE
    }
  }
  attr {
    key: "_class"
    value {
      list {
        s: "loc:@filter_type_all/bias_3_4"
      }
    }
  }
}
node {
  name: "filter_type_all/matrix_3_4"
  op: "Const"
  attr {
    key: "dtype"
    value {
      type: DT_DOUBLE
    }
  }
  attr {
    key: "value"
    value {
      tensor {
        dtype: DT_DOUBLE
        tensor_shape {
          dim {
            size: 4
          }
          dim {
            size: 8
          }
        }
        tensor_content: "…"
      }
    }
  }
}
node {
  name: "filter_type_all/matrix_3_4/read"
  op: "Identity"
  input: "filter_type_all/matrix_3_4"
  attr {
    key: "T"
    value {
      type: DT_DOUBLE
    }
  }
  attr {
    key: "_class"
    value {
      list {
        s: "loc:@filter_type_all/matrix_3_4"
      }
    }
  }
}
node {
  name: "filter_type_all/concat_13/axis"
  op: "Const"
  attr {
    key: "dtype"
    value {
      type: DT_INT32
    }
  }
  attr {
    key: "value"
    value {
      tensor {
        dtype: DT_INT32
        tensor_shape {
        }
        int_val: 1
      }
    }
  }
}
node {
  name: "filter_type_all/Reshape_31/shape"
  op: "Const"
  attr {
    key: "dtype"
    value {
      type: DT_INT32
    }
  }
  attr {
    key: "value"
    value {
      tensor {
        dtype: DT_INT32
        tensor_shape {
          dim {
            size: 2
          }
        }
        tensor_content: "\377\377\377\377\004\000\000\000"
      }
    }
  }
}
node {
  name: "filter_type_all/bias_2_4"
  op: "Const"
  attr {
    key: "dtype"
    value {
      type: DT_DOUBLE
    }
  }
  attr {
    key: "value"
    value {
      tensor {
        dtype: DT_DOUBLE
        tensor_shape {
          dim {
            size: 1
          }
          dim {
            size: 4
          }
        }
        tensor_content: "\232+_o\007H\317?\336\243\276\035\372}\326\277\247\321Ae\346\267\352\277N\305\3411<\372\316\277"
      }
    }
  }
}
node {
  name: "filter_type_all/bias_2_4/read"
  op: "Identity"
  input: "filter_type_all/bias_2_4"
  attr {
    key: "T"
    value {
      type: DT_DOUBLE
    }
  }
  attr {
    key: "_class"
    value {
      list {
        s: "loc:@filter_type_all/bias_2_4"
      }
    }
  }
}
node {
  name: "filter_type_all/matrix_2_4"
  op: "Const"
  attr {
    key: "dtype"
    value {
      type: DT_DOUBLE
    }
  }
  attr {
    key: "value"
    value {
      tensor {
        dtype: DT_DOUBLE
        tensor_shape {
          dim {
            size: 2
          }
          dim {
            size: 4
          }
        }
        tensor_content: "…"
      }
    }
  }
}
node {
  name: "filter_type_all/matrix_2_4/read"
  op: "Identity"
  input: "filter_type_all/matrix_2_4"
  attr {
    key: "T"
    value {
      type: DT_DOUBLE
    }
  }
  attr {
    key: "_class"
    value {
      list {
        s: "loc:@filter_type_all/matrix_2_4"
      }
    }
  }
}
node {
  name: "filter_type_all/concat_12/axis"
  op: "Const"
  attr {
    key: "dtype"
    value {
      type: DT_INT32
    }
  }
  attr {
    key: "value"
    value {
      tensor {
        dtype: DT_INT32
        tensor_shape {
        }
        int_val: 1
      }
    }
  }
}
node {
  name: "filter_type_all/Reshape_30/shape"
  op: "Const"
  attr {
    key: "dtype"
    value {
      type: DT_INT32
    }
  }
  attr {
    key: "value"
    value {
      tensor {
        dtype: DT_INT32
        tensor_shape {
          dim {
            size: 2
          }
        }
        tensor_content: "\377\377\377\377\002\000\000\000"
      }
    }
  }
}
node {
  name: "filter_type_all/bias_1_4"
  op: "Const"
  attr {
    key: "dtype"
    value {
      type: DT_DOUBLE
    }
  }
  attr {
    key: "value"
    value {
      tensor {
        dtype: DT_DOUBLE
        tensor_shape {
          dim {
            size: 1
          }
          dim {
            size: 2
          }
        }
        tensor_content: "1\373~<\346\341\316?!\212*F\373}\326\277"
      }
    }
  }
}
node {
  name: "filter_type_all/bias_1_4/read"
  op: "Identity"
  input: "filter_type_all/bias_1_4"
  attr {
    key: "T"
    value {
      type: DT_DOUBLE
    }
  }
  attr {
    key: "_class"
    value {
      list {
        s: "loc:@filter_type_all/bias_1_4"
      }
    }
  }
}
node {
  name: "filter_type_all/matrix_1_4"
  op: "Const"
  attr {
    key: "dtype"
    value {
      type: DT_DOUBLE
    }
  }
  attr {
    key: "value"
    value {
      tensor {
        dtype: DT_DOUBLE
        tensor_shape {
          dim {
            size: 1
          }
          dim {
            size: 2
          }
        }
        tensor_content: "\005d \014\343\276\301?\325\033\376u\'\343\311\277"
      }
    }
  }
}
node {
  name: "filter_type_all/matrix_1_4/read"
  op: "Identity"
  input: "filter_type_all/matrix_1_4"
  attr {
    key: "T"
    value {
      type: DT_DOUBLE
    }
  }
  attr {
    key: "_class"
    value {
      list {
        s: "loc:@filter_type_all/matrix_1_4"
      }
    }
  }
}
node {
  name: "filter_type_all/Reshape_29/shape"
  op: "Const"
  attr {
    key: "dtype"
    value {
      type: DT_INT32
    }
  }
  attr {
    key: "value"
    value {
      tensor {
        dtype: DT_INT32
        tensor_shape {
          dim {
            size: 2
          }
        }
        tensor_content: "\377\377\377\377\001\000\000\000"
      }
    }
  }
}
node {
  name: "filter_type_all/Slice_9/size"
  op: "Const"
  attr {
    key: "dtype"
    value {
      type: DT_INT32
    }
  }
  attr {
    key: "value"
    value {
      tensor {
        dtype: DT_INT32
        tensor_shape {
          dim {
            size: 2
          }
        }
        tensor_content: "\377\377\377\377\001\000\000\000"
      }
    }
  }
}
node {
  name: "filter_type_all/Slice_9/begin"
  op: "Const"
  attr {
    key: "dtype"
    value {
      type: DT_INT32
    }
  }
  attr {
    key: "value"
    value {
      tensor {
        dtype: DT_INT32
        tensor_shape {
          dim {
            size: 2
          }
        }
        tensor_content: "\000\000\000\000\000\000\000\000"
      }
    }
  }
}
node {
  name: "filter_type_all/Reshape_28/shape"
  op: "Const"
  attr {
    key: "dtype"
    value {
      type: DT_INT32
    }
  }
  attr {
    key: "value"
    value {
      tensor {
        dtype: DT_INT32
        tensor_shape {
          dim {
            size: 2
          }
        }
        tensor_content: "\377\377\377\377\004\000\000\000"
      }
    }
  }
}
node {
  name: "filter_type_all/Slice_8/size"
  op: "Const"
  attr {
    key: "dtype"
    value {
      type: DT_INT32
    }
  }
  attr {
    key: "value"
    value {
      tensor {
        dtype: DT_INT32
        tensor_shape {
          dim {
            size: 2
          }
        }
        tensor_content: "\377\377\377\377\024\000\000\000"
      }
    }
  }
}
node {
  name: "filter_type_all/Slice_8/begin"
  op: "Const"
  attr {
    key: "dtype"
    value {
      type: DT_INT32
    }
  }
  attr {
    key: "value"
    value {
      tensor {
        dtype: DT_INT32
        tensor_shape {
          dim {
            size: 2
          }
        }
        tensor_content: "\000\000\000\000P\000\000\000"
      }
    }
  }
}
node {
  name: "filter_type_all/Reshape_27/shape"
  op: "Const"
  attr {
    key: "dtype"
    value {
      type: DT_INT32
    }
  }
  attr {
    key: "value"
    value {
      tensor {
        dtype: DT_INT32
        tensor_shape {
          dim {
            size: 3
          }
        }
        tensor_content: "\377\377\377\377\005\000\000\000\004\000\000\000"
      }
    }
  }
}
node {
  name: "filter_type_all/Reshape_26/shape"
  op: "Const"
  attr {
    key: "dtype"
    value {
      type: DT_INT32
    }
  }
  attr {
    key: "value"
    value {
      tensor {
        dtype: DT_INT32
        tensor_shape {
          dim {
            size: 3
          }
        }
        tensor_content: "\377\377\377\377\005\000\000\000\010\000\000\000"
      }
    }
  }
}
node {
  name: "filter_type_all/concat_11/axis"
  op: "Const"
  attr {
    key: "dtype"
    value {
      type: DT_INT32
    }
  }
  attr {
    key: "value"
    value {
      tensor {
        dtype: DT_INT32
        tensor_shape {
        }
        int_val: 1
      }
    }
  }
}
node {
  name: "filter_type_all/Reshape_25/shape"
  op: "Const"
  attr {
    key: "dtype"
    value {
      type: DT_INT32
    }
  }
  attr {
    key: "value"
    value {
      tensor {
        dtype: DT_INT32
        tensor_shape {
          dim {
            size: 2
          }
        }
        tensor_content: "\377\377\377\377\010\000\000\000"
      }
    }
  }
}
node {
  name: "filter_type_all/bias_3_3"
  op: "Const"
  attr {
    key: "dtype"
    value {
      type: DT_DOUBLE
    }
  }
  attr {
    key: "value"
    value {
      tensor {
        dtype: DT_DOUBLE
        tensor_shape {
          dim {
            size: 1
          }
          dim {
            size: 8
          }
        }
        tensor_content: "…"
      }
    }
  }
}
node {
  name: "filter_type_all/bias_3_3/read"
  op: "Identity"
  input: "filter_type_all/bias_3_3"
  attr {
    key: "T"
    value {
      type: DT_DOUBLE
    }
  }
  attr {
    key: "_class"
    value {
      list {
        s: "loc:@filter_type_all/bias_3_3"
      }
    }
  }
}
node {
  name: "filter_type_all/matrix_3_3"
  op: "Const"
  attr {
    key: "dtype"
    value {
      type: DT_DOUBLE
    }
  }
  attr {
    key: "value"
    value {
      tensor {
        dtype: DT_DOUBLE
        tensor_shape {
          dim {
            size: 4
          }
          dim {
            size: 8
          }
        }
        tensor_content: "…"
      }
    }
  }
}
node {
  name: "filter_type_all/matrix_3_3/read"
  op: "Identity"
  input: "filter_type_all/matrix_3_3"
  attr {
    key: "T"
    value {
      type: DT_DOUBLE
    }
  }
  attr {
    key: "_class"
    value {
      list {
        s: "loc:@filter_type_all/matrix_3_3"
      }
    }
  }
}
node {
  name: "filter_type_all/concat_10/axis"
  op: "Const"
  attr {
    key: "dtype"
    value {
      type: DT_INT32
    }
  }
  attr {
    key: "value"
    value {
      tensor {
        dtype: DT_INT32
        tensor_shape {
        }
        int_val: 1
      }
    }
  }
}
node {
  name: "filter_type_all/Reshape_24/shape"
  op: "Const"
  attr {
    key: "dtype"
    value {
      type: DT_INT32
    }
  }
  attr {
    key: "value"
    value {
      tensor {
        dtype: DT_INT32
        tensor_shape {
          dim {
            size: 2
          }
        }
        tensor_content: "\377\377\377\377\004\000\000\000"
      }
    }
  }
}
node {
  name: "filter_type_all/bias_2_3"
  op: "Const"
  attr {
    key: "dtype"
    value {
      type: DT_DOUBLE
    }
  }
  attr {
    key: "value"
    value {
      tensor {
        dtype: DT_DOUBLE
        tensor_shape {
          dim {
            size: 1
          }
          dim {
            size: 4
          }
        }
        tensor_content: "…"
      }
    }
  }
}
node {
  name: "filter_type_all/bias_2_3/read"
  op: "Identity"
  input: "filter_type_all/bias_2_3"
  attr {
    key: "T"
    value {
      type: DT_DOUBLE
    }
  }
  attr {
    key: "_class"
    value {
      list {
        s: "loc:@filter_type_all/bias_2_3"
      }
    }
  }
}
node {
  name: "filter_type_all/matrix_2_3"
  op: "Const"
  attr {
    key: "dtype"
    value {
      type: DT_DOUBLE
    }
  }
  attr {
    key: "value"
    value {
      tensor {
        dtype: DT_DOUBLE
        tensor_shape {
          dim {
            size: 2
          }
          dim {
            size: 4
          }
        }
        tensor_content: "…"
      }
    }
  }
}
node {
  name: "filter_type_all/matrix_2_3/read"
  op: "Identity"
  input: "filter_type_all/matrix_2_3"
  attr {
    key: "T"
    value {
      type: DT_DOUBLE
    }
  }
  attr {
    key: "_class"
    value {
      list {
        s: "loc:@filter_type_all/matrix_2_3"
      }
    }
  }
}
node {
  name: "filter_type_all/concat_9/axis"
  op: "Const"
  attr {
    key: "dtype"
    value {
      type: DT_INT32
    }
  }
  attr {
    key: "value"
    value {
      tensor {
        dtype: DT_INT32
        tensor_shape {
        }
        int_val: 1
      }
    }
  }
}
node {
  name: "filter_type_all/Reshape_23/shape"
  op: "Const"
  attr {
    key: "dtype"
    value {
      type: DT_INT32
    }
  }
  attr {
    key: "value"
    value {
      tensor {
        dtype: DT_INT32
        tensor_shape {
          dim {
            size: 2
          }
        }
        tensor_content: "\377\377\377\377\002\000\000\000"
      }
    }
  }
}
node {
  name: "filter_type_all/bias_1_3"
  op: "Const"
  attr {
    key: "dtype"
    value {
      type: DT_DOUBLE
    }
  }
  attr {
    key: "value"
    value {
      tensor {
        dtype: DT_DOUBLE
        tensor_shape {
          dim {
            size: 1
          }
          dim {
            size: 2
          }
        }
        tensor_content: "\353W\301\230\001H\317?\225z\037\333\376}\326\277"
      }
    }
  }
}
node {
  name: "filter_type_all/bias_1_3/read"
  op: "Identity"
  input: "filter_type_all/bias_1_3"
  attr {
    key: "T"
    value {
      type: DT_DOUBLE
    }
  }
  attr {
    key: "_class"
    value {
      list {
        s: "loc:@filter_type_all/bias_1_3"
      }
    }
  }
}
node {
  name: "filter_type_all/matrix_1_3"
  op: "Const"
  attr {
    key: "dtype"
    value {
      type: DT_DOUBLE
    }
  }
  attr {
    key: "value"
    value {
      tensor {
        dtype: DT_DOUBLE
        tensor_shape {
          dim {
            size: 1
          }
          dim {
            size: 2
          }
        }
        tensor_content: "\224f{\001\364\276\301?\366\361\330\036FI\312\277"
      }
    }
  }
}
node {
  name: "filter_type_all/matrix_1_3/read"
  op: "Identity"
  input: "filter_type_all/matrix_1_3"
  attr {
    key: "T"
    value {
      type: DT_DOUBLE
    }
  }
  attr {
    key: "_class"
    value {
      list {
        s: "loc:@filter_type_all/matrix_1_3"
      }
    }
  }
}
node {
  name: "filter_type_all/Reshape_22/shape"
  op: "Const"
  attr {
    key: "dtype"
    value {
      type: DT_INT32
    }
  }
  attr {
    key: "value"
    value {
      tensor {
        dtype: DT_INT32
        tensor_shape {
          dim {
            size: 2
          }
        }
        tensor_content: "\377\377\377\377\001\000\000\000"
      }
    }
  }
}
node {
  name: "filter_type_all/Slice_7/size"
  op: "Const"
  attr {
    key: "dtype"
    value {
      type: DT_INT32
    }
  }
  attr {
    key: "value"
    value {
      tensor {
        dtype: DT_INT32
        tensor_shape {
          dim {
            size: 2
          }
        }
        tensor_content: "\377\377\377\377\001\000\000\000"
      }
    }
  }
}
node {
  name: "filter_type_all/Slice_7/begin"
  op: "Const"
  attr {
    key: "dtype"
    value {
      type: DT_INT32
    }
  }
  attr {
    key: "value"
    value {
      tensor {
        dtype: DT_INT32
        tensor_shape {
          dim {
            size: 2
          }
        }
        tensor_content: "\000\000\000\000\000\000\000\000"
      }
    }
  }
}
node {
  name: "filter_type_all/Reshape_21/shape"
  op: "Const"
  attr {
    key: "dtype"
    value {
      type: DT_INT32
    }
  }
  attr {
    key: "value"
    value {
      tensor {
        dtype: DT_INT32
        tensor_shape {
          dim {
            size: 2
          }
        }
        tensor_content: "\377\377\377\377\004\000\000\000"
      }
    }
  }
}
node {
  name: "filter_type_all/Slice_6/size"
  op: "Const"
  attr {
    key: "dtype"
    value {
      type: DT_INT32
    }
  }
  attr {
    key: "value"
    value {
      tensor {
        dtype: DT_INT32
        tensor_shape {
          dim {
            size: 2
          }
        }
        tensor_content: "\377\377\377\377\024\000\000\000"
      }
    }
  }
}
node {
  name: "filter_type_all/Slice_6/begin"
  op: "Const"
  attr {
    key: "dtype"
    value {
      type: DT_INT32
    }
  }
  attr {
    key: "value"
    value {
      tensor {
        dtype: DT_INT32
        tensor_shape {
          dim {
            size: 2
          }
        }
        tensor_content: "\000\000\000\000<\000\000\000"
      }
    }
  }
}
node {
  name: "filter_type_all/Reshape_20/shape"
  op: "Const"
  attr {
    key: "dtype"
    value {
      type: DT_INT32
    }
  }
  attr {
    key: "value"
    value {
      tensor {
        dtype: DT_INT32
        tensor_shape {
          dim {
            size: 3
          }
        }
        tensor_content: "\377\377\377\377\005\000\000\000\004\000\000\000"
      }
    }
  }
}
node {
  name: "filter_type_all/Reshape_19/shape"
  op: "Const"
  attr {
    key: "dtype"
    value {
      type: DT_INT32
    }
  }
  attr {
    key: "value"
    value {
      tensor {
        dtype: DT_INT32
        tensor_shape {
          dim {
            size: 3
          }
        }
        tensor_content: "\377\377\377\377\005\000\000\000\010\000\000\000"
      }
    }
  }
}
node {
  name: "filter_type_all/concat_8/axis"
  op: "Const"
  attr {
    key: "dtype"
    value {
      type: DT_INT32
    }
  }
  attr {
    key: "value"
    value {
      tensor {
        dtype: DT_INT32
        tensor_shape {
        }
        int_val: 1
      }
    }
  }
}
node {
  name: "filter_type_all/Reshape_18/shape"
  op: "Const"
  attr {
    key: "dtype"
    value {
      type: DT_INT32
    }
  }
  attr {
    key: "value"
    value {
      tensor {
        dtype: DT_INT32
        tensor_shape {
          dim {
            size: 2
          }
        }
        tensor_content: "\377\377\377\377\010\000\000\000"
      }
    }
  }
}
node {
  name: "filter_type_all/bias_3_2"
  op: "Const"
  attr {
    key: "dtype"
    value {
      type: DT_DOUBLE
    }
  }
  attr {
    key: "value"
    value {
      tensor {
        dtype: DT_DOUBLE
        tensor_shape {
          dim {
            size: 1
          }
          dim {
            size: 8
          }
        }
        tensor_content: "…"
      }
    }
  }
}
node {
  name: "filter_type_all/bias_3_2/read"
  op: "Identity"
  input: "filter_type_all/bias_3_2"
  attr {
    key: "T"
    value {
      type: DT_DOUBLE
    }
  }
  attr {
    key: "_class"
    value {
      list {
        s: "loc:@filter_type_all/bias_3_2"
      }
    }
  }
}
node {
  name: "filter_type_all/matrix_3_2"
  op: "Const"
  attr {
    key: "dtype"
    value {
      type: DT_DOUBLE
    }
  }
  attr {
    key: "value"
    value {
      tensor {
        dtype: DT_DOUBLE
        tensor_shape {
          dim {
            size: 4
          }
          dim {
            size: 8
          }
        }
        tensor_content: "…"
      }
    }
  }
}
node {
  name: "filter_type_all/matrix_3_2/read"
  op: "Identity"
  input: "filter_type_all/matrix_3_2"
  attr {
    key: "T"
    value {
      type: DT_DOUBLE
    }
  }
  attr {
    key: "_class"
    value {
      list {
        s: "loc:@filter_type_all/matrix_3_2"
      }
    }
  }
}
node {
  name: "filter_type_all/concat_7/axis"
  op: "Const"
  attr {
    key: "dtype"
    value {
      type: DT_INT32
    }
  }
  attr {
    key: "value"
    value {
      tensor {
        dtype: DT_INT32
        tensor_shape {
        }
        int_val: 1
      }
    }
  }
}
node {
  name: "filter_type_all/Reshape_17/shape"
  op: "Const"
  attr {
    key: "dtype"
    value {
      type: DT_INT32
    }
  }
  attr {
    key: "value"
    value {
      tensor {
        dtype: DT_INT32
        tensor_shape {
          dim {
            size: 2
          }
        }
        tensor_content: "\377\377\377\377\004\000\000\000"
      }
    }
  }
}
node {
  name: "filter_type_all/bias_2_2"
  op: "Const"
  attr {
    key: "dtype"
    value {
      type: DT_DOUBLE
    }
  }
  attr {
    key: "value"
    value {
      tensor {
        dtype: DT_DOUBLE
        tensor_shape {
          dim {
            size: 1
          }
          dim {
            size: 4
          }
        }
        tensor_content: "…"
      }
    }
  }
}
node {
  name: "filter_type_all/bias_2_2/read"
  op: "Identity"
  input: "filter_type_all/bias_2_2"
  attr {
    key: "T"
    value {
      type: DT_DOUBLE
    }
  }
  attr {
    key: "_class"
    value {
      list {
        s: "loc:@filter_type_all/bias_2_2"
      }
    }
  }
}
node {
  name: "filter_type_all/matrix_2_2"
  op: "Const"
  attr {
    key: "dtype"
    value {
      type: DT_DOUBLE
    }
  }
  attr {
    key: "value"
    value {
      tensor {
        dtype: DT_DOUBLE
        tensor_shape {
          dim {
            size: 2
          }
          dim {
            size: 4
          }
        }
        tensor_content: "…"
      }
    }
  }
}
node {
  name: "filter_type_all/matrix_2_2/read"
  op: "Identity"
  input: "filter_type_all/matrix_2_2"
  attr {
    key: "T"
    value {
      type: DT_DOUBLE
    }
  }
  attr {
    key: "_class"
    value {
      list {
        s: "loc:@filter_type_all/matrix_2_2"
      }
    }
  }
}
node {
  name: "filter_type_all/concat_6/axis"
  op: "Const"
  attr {
    key: "dtype"
    value {
      type: DT_INT32
    }
  }
  attr {
    key: "value"
    value {
      tensor {
        dtype: DT_INT32
        tensor_shape {
        }
        int_val: 1
      }
    }
  }
}
node {
  name: "filter_type_all/Reshape_16/shape"
  op: "Const"
  attr {
    key: "dtype"
    value {
      type: DT_INT32
    }
  }
  attr {
    key: "value"
    value {
      tensor {
        dtype: DT_INT32
        tensor_shape {
          dim {
            size: 2
          }
        }
        tensor_content: "\377\377\377\377\002\000\000\000"
      }
    }
  }
}
node {
  name: "filter_type_all/bias_1_2"
  op: "Const"
  attr {
    key: "dtype"
    value {
      type: DT_DOUBLE
    }
  }
  attr {
    key: "value"
    value {
      tensor {
        dtype: DT_DOUBLE
        tensor_shape {
          dim {
            size: 1
          }
          dim {
            size: 2
          }
        }
        tensor_content: "\302I\345\314\346\341\316?B\265\350\244\373}\326\277"
      }
    }
  }
}
node {
  name: "filter_type_all/bias_1_2/read"
  op: "Identity"
  input: "filter_type_all/bias_1_2"
  attr {
    key: "T"
    value {
      type: DT_DOUBLE
    }
  }
  attr {
    key: "_class"
    value {
      list {
        s: "loc:@filter_type_all/bias_1_2"
      }
    }
  }
}
node {
  name: "filter_type_all/matrix_1_2"
  op: "Const"
  attr {
    key: "dtype"
    value {
      type: DT_DOUBLE
    }
  }
  attr {
    key: "value"
    value {
      tensor {
        dtype: DT_DOUBLE
        tensor_shape {
          dim {
            size: 1
          }
          dim {
            size: 2
          }
        }
        tensor_content: "\304\267\305\236\343\276\301?\264\207\255.(\343\311\277"
      }
    }
  }
}
node {
  name: "filter_type_all/matrix_1_2/read"
  op: "Identity"
  input: "filter_type_all/matrix_1_2"
  attr {
    key: "T"
    value {
      type: DT_DOUBLE
    }
  }
  attr {
    key: "_class"
    value {
      list {
        s: "loc:@filter_type_all/matrix_1_2"
      }
    }
  }
}
node {
  name: "filter_type_all/Reshape_15/shape"
  op: "Const"
  attr {
    key: "dtype"
    value {
      type: DT_INT32
    }
  }
  attr {
    key: "value"
    value {
      tensor {
        dtype: DT_INT32
        tensor_shape {
          dim {
            size: 2
          }
        }
        tensor_content: "\377\377\377\377\001\000\000\000"
      }
    }
  }
}
node {
  name: "filter_type_all/Slice_5/size"
  op: "Const"
  attr {
    key: "dtype"
    value {
      type: DT_INT32
    }
  }
  attr {
    key: "value"
    value {
      tensor {
        dtype: DT_INT32
        tensor_shape {
          dim {
            size: 2
          }
        }
        tensor_content: "\377\377\377\377\001\000\000\000"
      }
    }
  }
}
node {
  name: "filter_type_all/Slice_5/begin"
  op: "Const"
  attr {
    key: "dtype"
    value {
      type: DT_INT32
    }
  }
  attr {
    key: "value"
    value {
      tensor {
        dtype: DT_INT32
        tensor_shape {
          dim {
            size: 2
          }
        }
        tensor_content: "\000\000\000\000\000\000\000\000"
      }
    }
  }
}
node {
  name: "filter_type_all/Reshape_14/shape"
  op: "Const"
  attr {
    key: "dtype"
    value {
      type: DT_INT32
    }
  }
  attr {
    key: "value"
    value {
      tensor {
        dtype: DT_INT32
        tensor_shape {
          dim {
            size: 2
          }
        }
        tensor_content: "\377\377\377\377\004\000\000\000"
      }
    }
  }
}
node {
  name: "filter_type_all/Slice_4/size"
  op: "Const"
  attr {
    key: "dtype"
    value {
      type: DT_INT32
    }
  }
  attr {
    key: "value"
    value {
      tensor {
        dtype: DT_INT32
        tensor_shape {
          dim {
            size: 2
          }
        }
        tensor_content: "\377\377\377\377\024\000\000\000"
      }
    }
  }
}
node {
  name: "filter_type_all/Slice_4/begin"
  op: "Const"
  attr {
    key: "dtype"
    value {
      type: DT_INT32
    }
  }
  attr {
    key: "value"
    value {
      tensor {
        dtype: DT_INT32
        tensor_shape {
          dim {
            size: 2
          }
        }
        tensor_content: "\000\000\000\000(\000\000\000"
      }
    }
  }
}
node {
  name: "filter_type_all/Reshape_13/shape"
  op: "Const"
  attr {
    key: "dtype"
    value {
      type: DT_INT32
    }
  }
  attr {
    key: "value"
    value {
      tensor {
        dtype: DT_INT32
        tensor_shape {
          dim {
            size: 3
          }
        }
        tensor_content: "\377\377\377\377\005\000\000\000\004\000\000\000"
      }
    }
  }
}
node {
  name: "filter_type_all/Reshape_12/shape"
  op: "Const"
  attr {
    key: "dtype"
    value {
      type: DT_INT32
    }
  }
  attr {
    key: "value"
    value {
      tensor {
        dtype: DT_INT32
        tensor_shape {
          dim {
            size: 3
          }
        }
        tensor_content: "\377\377\377\377\005\000\000\000\010\000\000\000"
      }
    }
  }
}
node {
  name: "filter_type_all/concat_5/axis"
  op: "Const"
  attr {
    key: "dtype"
    value {
      type: DT_INT32
    }
  }
  attr {
    key: "value"
    value {
      tensor {
        dtype: DT_INT32
        tensor_shape {
        }
        int_val: 1
      }
    }
  }
}
node {
  name: "filter_type_all/Reshape_11/shape"
  op: "Const"
  attr {
    key: "dtype"
    value {
      type: DT_INT32
    }
  }
  attr {
    key: "value"
    value {
      tensor {
        dtype: DT_INT32
        tensor_shape {
          dim {
            size: 2
          }
        }
        tensor_content: "\377\377\377\377\010\000\000\000"
      }
    }
  }
}
node {
  name: "filter_type_all/bias_3_1"
  op: "Const"
  attr {
    key: "dtype"
    value {
      type: DT_DOUBLE
    }
  }
  attr {
    key: "value"
    value {
      tensor {
        dtype: DT_DOUBLE
        tensor_shape {
          dim {
            size: 1
          }
          dim {
            size: 8
          }
        }
        tensor_content: "…"
      }
    }
  }
}
node {
  name: "filter_type_all/bias_3_1/read"
  op: "Identity"
  input: "filter_type_all/bias_3_1"
  attr {
    key: "T"
    value {
      type: DT_DOUBLE
    }
  }
  attr {
    key: "_class"
    value {
      list {
        s: "loc:@filter_type_all/bias_3_1"
      }
    }
  }
}
node {
  name: "filter_type_all/matrix_3_1"
  op: "Const"
  attr {
    key: "dtype"
    value {
      type: DT_DOUBLE
    }
  }
  attr {
    key: "value"
    value {
      tensor {
        dtype: DT_DOUBLE
        tensor_shape {
          dim {
            size: 4
          }
          dim {
            size: 8
          }
        }
        tensor_content: "…"
      }
    }
  }
}
node {
  name: "filter_type_all/matrix_3_1/read"
  op: "Identity"
  input: "filter_type_all/matrix_3_1"
  attr {
    key: "T"
    value {
      type: DT_DOUBLE
    }
  }
  attr {
    key: "_class"
    value {
      list {
        s: "loc:@filter_type_all/matrix_3_1"
      }
    }
  }
}
node {
  name: "filter_type_all/concat_4/axis"
  op: "Const"
  attr {
    key: "dtype"
    value {
      type: DT_INT32
    }
  }
  attr {
    key: "value"
    value {
      tensor {
        dtype: DT_INT32
        tensor_shape {
        }
        int_val: 1
      }
    }
  }
}
node {
  name: "filter_type_all/Reshape_10/shape"
  op: "Const"
  attr {
    key: "dtype"
    value {
      type: DT_INT32
    }
  }
  attr {
    key: "value"
    value {
      tensor {
        dtype: DT_INT32
        tensor_shape {
          dim {
            size: 2
          }
        }
        tensor_content: "\377\377\377\377\004\000\000\000"
      }
    }
  }
}
node {
  name: "filter_type_all/bias_2_1"
  op: "Const"
  attr {
    key: "dtype"
    value {
      type: DT_DOUBLE
    }
  }
  attr {
    key: "value"
    value {
      tensor {
        dtype: DT_DOUBLE
        tensor_shape {
          dim {
            size: 1
          }
          dim {
            size: 4
          }
        }
        tensor_content: "…"
      }
    }
  }
}
node {
  name: "filter_type_all/bias_2_1/read"
  op: "Identity"
  input: "filter_type_all/bias_2_1"
  attr {
    key: "T"
    value {
      type: DT_DOUBLE
    }
  }
  attr {
    key: "_class"
    value {
      list {
        s: "loc:@filter_type_all/bias_2_1"
      }
    }
  }
}
node {
  name: "filter_type_all/matrix_2_1"
  op: "Const"
  attr {
    key: "dtype"
    value {
      type: DT_DOUBLE
    }
  }
  attr {
    key: "value"
    value {
      tensor {
        dtype: DT_DOUBLE
        tensor_shape {
          dim {
            size: 2
          }
          dim {
            size: 4
          }
        }
        tensor_content: "…"
      }
    }
  }
}
node {
  name: "filter_type_all/matrix_2_1/read"
  op: "Identity"
  input: "filter_type_all/matrix_2_1"
  attr {
    key: "T"
    value {
      type: DT_DOUBLE
    }
  }
  attr {
    key: "_class"
    value {
      list {
        s: "loc:@filter_type_all/matrix_2_1"
      }
    }
  }
}
node {
  name: "filter_type_all/concat_3/axis"
  op: "Const"
  attr {
    key: "dtype"
    value {
      type: DT_INT32
    }
  }
  attr {
    key: "value"
    value {
      tensor {
        dtype: DT_INT32
        tensor_shape {
        }
        int_val: 1
      }
    }
  }
}
node {
  name: "filter_type_all/Reshape_9/shape"
  op: "Const"
  attr {
    key: "dtype"
    value {
      type: DT_INT32
    }
  }
  attr {
    key: "value"
    value {
      tensor {
        dtype: DT_INT32
        tensor_shape {
          dim {
            size: 2
          }
        }
        tensor_content: "\377\377\377\377\002\000\000\000"
      }
    }
  }
}
node {
  name: "filter_type_all/bias_1_1"
  op: "Const"
  attr {
    key: "dtype"
    value {
      type: DT_DOUBLE
    }
  }
  attr {
    key: "value"
    value {
      tensor {
        dtype: DT_DOUBLE
        tensor_shape {
          dim {
            size: 1
          }
          dim {
            size: 2
          }
        }
        tensor_content: "&\250\235\216\001H\317?\257E\367\333\376}\326\277"
      }
    }
  }
}
node {
  name: "filter_type_all/bias_1_1/read"
  op: "Identity"
  input: "filter_type_all/bias_1_1"
  attr {
    key: "T"
    value {
      type: DT_DOUBLE
    }
  }
  attr {
    key: "_class"
    value {
      list {
        s: "loc:@filter_type_all/bias_1_1"
      }
    }
  }
}
node {
  name: "filter_type_all/matrix_1_1"
  op: "Const"
  attr {
    key: "dtype"
    value {
      type: DT_DOUBLE
    }
  }
  attr {
    key: "value"
    value {
      tensor {
        dtype: DT_DOUBLE
        tensor_shape {
          dim {
            size: 1
          }
          dim {
            size: 2
          }
        }
        tensor_content: "\336\243\244\013\364\276\301?#\004(\035FI\312\277"
      }
    }
  }
}
node {
  name: "filter_type_all/matrix_1_1/read"
  op: "Identity"
  input: "filter_type_all/matrix_1_1"
  attr {
    key: "T"
    value {
      type: DT_DOUBLE
    }
  }
  attr {
    key: "_class"
    value {
      list {
        s: "loc:@filter_type_all/matrix_1_1"
      }
    }
  }
}
node {
  name: "filter_type_all/Reshape_8/shape"
  op: "Const"
  attr {
    key: "dtype"
    value {
      type: DT_INT32
    }
  }
  attr {
    key: "value"
    value {
      tensor {
        dtype: DT_INT32
        tensor_shape {
          dim {
            size: 2
          }
        }
        tensor_content: "\377\377\377\377\001\000\000\000"
      }
    }
  }
}
node {
  name: "filter_type_all/Slice_3/size"
  op: "Const"
  attr {
    key: "dtype"
    value {
      type: DT_INT32
    }
  }
  attr {
    key: "value"
    value {
      tensor {
        dtype: DT_INT32
        tensor_shape {
          dim {
            size: 2
          }
        }
        tensor_content: "\377\377\377\377\001\000\000\000"
      }
    }
  }
}
node {
  name: "filter_type_all/Slice_3/begin"
  op: "Const"
  attr {
    key: "dtype"
    value {
      type: DT_INT32
    }
  }
  attr {
    key: "value"
    value {
      tensor {
        dtype: DT_INT32
        tensor_shape {
          dim {
            size: 2
          }
        }
        tensor_content: "\000\000\000\000\000\000\000\000"
      }
    }
  }
}
node {
  name: "filter_type_all/Reshape_7/shape"
  op: "Const"
  attr {
    key: "dtype"
    value {
      type: DT_INT32
    }
  }
  attr {
    key: "value"
    value {
      tensor {
        dtype: DT_INT32
        tensor_shape {
          dim {
            size: 2
          }
        }
        tensor_content: "\377\377\377\377\004\000\000\000"
      }
    }
  }
}
node {
  name: "filter_type_all/Slice_2/size"
  op: "Const"
  attr {
    key: "dtype"
    value {
      type: DT_INT32
    }
  }
  attr {
    key: "value"
    value {
      tensor {
        dtype: DT_INT32
        tensor_shape {
          dim {
            size: 2
          }
        }
        tensor_content: "\377\377\377\377\024\000\000\000"
      }
    }
  }
}
node {
  name: "filter_type_all/Slice_2/begin"
  op: "Const"
  attr {
    key: "dtype"
    value {
      type: DT_INT32
    }
  }
  attr {
    key: "value"
    value {
      tensor {
        dtype: DT_INT32
        tensor_shape {
          dim {
            size: 2
          }
        }
        tensor_content: "\000\000\000\000\024\000\000\000"
      }
    }
  }
}
node {
  name: "filter_type_all/Reshape_6/shape"
  op: "Const"
  attr {
    key: "dtype"
    value {
      type: DT_INT32
    }
  }
  attr {
    key: "value"
    value {
      tensor {
        dtype: DT_INT32
        tensor_shape {
          dim {
            size: 3
          }
        }
        tensor_content: "\377\377\377\377\005\000\000\000\004\000\000\000"
      }
    }
  }
}
node {
  name: "filter_type_all/Reshape_5/shape"
  op: "Const"
  attr {
    key: "dtype"
    value {
      type: DT_INT32
    }
  }
  attr {
    key: "value"
    value {
      tensor {
        dtype: DT_INT32
        tensor_shape {
          dim {
            size: 3
          }
        }
        tensor_content: "\377\377\377\377\005\000\000\000\010\000\000\000"
      }
    }
  }
}
node {
  name: "filter_type_all/concat_2/axis"
  op: "Const"
  attr {
    key: "dtype"
    value {
      type: DT_INT32
    }
  }
  attr {
    key: "value"
    value {
      tensor {
        dtype: DT_INT32
        tensor_shape {
        }
        int_val: 1
      }
    }
  }
}
node {
  name: "filter_type_all/Reshape_4/shape"
  op: "Const"
  attr {
    key: "dtype"
    value {
      type: DT_INT32
    }
  }
  attr {
    key: "value"
    value {
      tensor {
        dtype: DT_INT32
        tensor_shape {
          dim {
            size: 2
          }
        }
        tensor_content: "\377\377\377\377\010\000\000\000"
      }
    }
  }
}
node {
  name: "filter_type_all/bias_3_0"
  op: "Const"
  attr {
    key: "dtype"
    value {
      type: DT_DOUBLE
    }
  }
  attr {
    key: "value"
    value {
      tensor {
        dtype: DT_DOUBLE
        tensor_shape {
          dim {
            size: 1
          }
          dim {
            size: 8
          }
        }
        tensor_content: "…"
      }
    }
  }
}
node {
  name: "filter_type_all/bias_3_0/read"
  op: "Identity"
  input: "filter_type_all/bias_3_0"
  attr {
    key: "T"
    value {
      type: DT_DOUBLE
    }
  }
  attr {
    key: "_class"
    value {
      list {
        s: "loc:@filter_type_all/bias_3_0"
      }
    }
  }
}
node {
  name: "filter_type_all/matrix_3_0"
  op: "Const"
  attr {
    key: "dtype"
    value {
      type: DT_DOUBLE
    }
  }
  attr {
    key: "value"
    value {
      tensor {
        dtype: DT_DOUBLE
        tensor_shape {
          dim {
            size: 4
          }
          dim {
            size: 8
          }
        }
        tensor_content: "…"
      }
    }
  }
}
node {
  name: "filter_type_all/matrix_3_0/read"
  op: "Identity"
  input: "filter_type_all/matrix_3_0"
  attr {
    key: "T"
    value {
      type: DT_DOUBLE
    }
  }
  attr {
    key: "_class"
    value {
      list {
        s: "loc:@filter_type_all/matrix_3_0"
      }
    }
  }
}
node {
  name: "filter_type_all/concat_1/axis"
  op: "Const"
  attr {
    key: "dtype"
    value {
      type: DT_INT32
    }
  }
  attr {
    key: "value"
    value {
      tensor {
        dtype: DT_INT32
        tensor_shape {
        }
        int_val: 1
      }
    }
  }
}
node {
  name: "filter_type_all/Reshape_3/shape"
  op: "Const"
  attr {
    key: "dtype"
    value {
      type: DT_INT32
    }
  }
  attr {
    key: "value"
    value {
      tensor {
        dtype: DT_INT32
        tensor_shape {
          dim {
            size: 2
          }
        }
        tensor_content: "\377\377\377\377\004\000\000\000"
      }
    }
  }
}
node {
  name: "filter_type_all/bias_2_0"
  op: "Const"
  attr {
    key: "dtype"
    value {
      type: DT_DOUBLE
    }
  }
  attr {
    key: "value"
    value {
      tensor {
        dtype: DT_DOUBLE
        tensor_shape {
          dim {
            size: 1
          }
          dim {
            size: 4
          }
        }
        tensor_content: "=\377\373\306\345\341\316?\372\303\351>\372}\326\277;L\251h\346\267\352\277R\320f\0220\372\316\277"
      }
    }
  }
}
node {
  name: "filter_type_all/bias_2_0/read"
  op: "Identity"
  input: "filter_type_all/bias_2_0"
  attr {
    key: "T"
    value {
      type: DT_DOUBLE
    }
  }
  attr {
    key: "_class"
    value {
      list {
        s: "loc:@filter_type_all/bias_2_0"
      }
    }
  }
}
node {
  name: "filter_type_all/matrix_2_0"
  op: "Const"
  attr {
    key: "dtype"
    value {
      type: DT_DOUBLE
    }
  }
  attr {
    key: "value"
    value {
      tensor {
        dtype: DT_DOUBLE
        tensor_shape {
          dim {
            size: 2
          }
          dim {
            size: 4
          }
        }
        tensor_content: "…"
      }
    }
  }
}
node {
  name: "filter_type_all/matrix_2_0/read"
  op: "Identity"
  input: "filter_type_all/matrix_2_0"
  attr {
    key: "T"
    value {
      type: DT_DOUBLE
    }
  }
  attr {
    key: "_class"
    value {
      list {
        s: "loc:@filter_type_all/matrix_2_0"
      }
    }
  }
}
node {
  name: "filter_type_all/concat/axis"
  op: "Const"
  attr {
    key: "dtype"
    value {
      type: DT_INT32
    }
  }
  attr {
    key: "value"
    value {
      tensor {
        dtype: DT_INT32
        tensor_shape {
        }
        int_val: 1
      }
    }
  }
}
node {
  name: "filter_type_all/Reshape_2/shape"
  op: "Const"
  attr {
    key: "dtype"
    value {
      type: DT_INT32
    }
  }
  attr {
    key: "value"
    value {
      tensor {
        dtype: DT_INT32
        tensor_shape {
          dim {
            size: 2
          }
        }
        tensor_content: "\377\377\377\377\002\000\000\000"
      }
    }
  }
}
node {
  name: "filter_type_all/bias_1_0"
  op: "Const"
  attr {
    key: "dtype"
    value {
      type: DT_DOUBLE
    }
  }
  attr {
    key: "value"
    value {
      tensor {
        dtype: DT_DOUBLE
        tensor_shape {
          dim {
            size: 1
          }
          dim {
            size: 2
          }
        }
        tensor_content: "\256tQX\350\341\316?\257\246\353\020\373}\326\277"
      }
    }
  }
}
node {
  name: "filter_type_all/bias_1_0/read"
  op: "Identity"
  input: "filter_type_all/bias_1_0"
  attr {
    key: "T"
    value {
      type: DT_DOUBLE
    }
  }
  attr {
    key: "_class"
    value {
      list {
        s: "loc:@filter_type_all/bias_1_0"
      }
    }
  }
}
node {
  name: "filter_type_all/matrix_1_0"
  op: "Const"
  attr {
    key: "dtype"
    value {
      type: DT_DOUBLE
    }
  }
  attr {
    key: "value"
    value {
      tensor {
        dtype: DT_DOUBLE
        tensor_shape {
          dim {
            size: 1
          }
          dim {
            size: 2
          }
        }
        tensor_content: "\351\004\003L\345\276\301?\356\2304\304&\343\311\277"
      }
    }
  }
}
node {
  name: "filter_type_all/matrix_1_0/read"
  op: "Identity"
  input: "filter_type_all/matrix_1_0"
  attr {
    key: "T"
    value {
      type: DT_DOUBLE
    }
  }
  attr {
    key: "_class"
    value {
      list {
        s: "loc:@filter_type_all/matrix_1_0"
      }
    }
  }
}
node {
  name: "filter_type_all/Reshape_1/shape"
  op: "Const"
  attr {
    key: "dtype"
    value {
      type: DT_INT32
    }
  }
  attr {
    key: "value"
    value {
      tensor {
        dtype: DT_INT32
        tensor_shape {
          dim {
            size: 2
          }
        }
        tensor_content: "\377\377\377\377\001\000\000\000"
      }
    }
  }
}
node {
  name: "filter_type_all/Slice_1/size"
  op: "Const"
  attr {
    key: "dtype"
    value {
      type: DT_INT32
    }
  }
  attr {
    key: "value"
    value {
      tensor {
        dtype: DT_INT32
        tensor_shape {
          dim {
            size: 2
          }
        }
        tensor_content: "\377\377\377\377\001\000\000\000"
      }
    }
  }
}
node {
  name: "filter_type_all/Slice_1/begin"
  op: "Const"
  attr {
    key: "dtype"
    value {
      type: DT_INT32
    }
  }
  attr {
    key: "value"
    value {
      tensor {
        dtype: DT_INT32
        tensor_shape {
          dim {
            size: 2
          }
        }
        tensor_content: "\000\000\000\000\000\000\000\000"
      }
    }
  }
}
node {
  name: "filter_type_all/Reshape/shape"
  op: "Const"
  attr {
    key: "dtype"
    value {
      type: DT_INT32
    }
  }
  attr {
    key: "value"
    value {
      tensor {
        dtype: DT_INT32
        tensor_shape {
          dim {
            size: 2
          }
        }
        tensor_content: "\377\377\377\377\004\000\000\000"
      }
    }
  }
}
node {
  name: "filter_type_all/Slice/size"
  op: "Const"
  attr {
    key: "dtype"
    value {
      type: DT_INT32
    }
  }
  attr {
    key: "value"
    value {
      tensor {
        dtype: DT_INT32
        tensor_shape {
          dim {
            size: 2
          }
        }
        tensor_content: "\377\377\377\377\024\000\000\000"
      }
    }
  }
}
node {
  name: "filter_type_all/Slice/begin"
  op: "Const"
  attr {
    key: "dtype"
    value {
      type: DT_INT32
    }
  }
  attr {
    key: "value"
    value {
      tensor {
        dtype: DT_INT32
        tensor_shape {
          dim {
            size: 2
          }
        }
        tensor_content: "\000\000\000\000\000\000\000\000"
      }
    }
  }
}
node {
  name: "Reshape_5/shape"
  op: "Const"
  attr {
    key: "dtype"
    value {
      type: DT_INT32
    }
  }
  attr {
    key: "value"
    value {
      tensor {
        dtype: DT_INT32
        tensor_shape {
          dim {
            size: 2
          }
        }
        tensor_content: "\377\377\377\377d\000\000\000"
      }
    }
  }
}
node {
  name: "Reshape_4/shape/0"
  op: "Const"
  attr {
    key: "dtype"
    value {
      type: DT_INT32
    }
  }
  attr {
    key: "value"
    value {
      tensor {
        dtype: DT_INT32
        tensor_shape {
        }
        int_val: -1
      }
    }
  }
}
node {
  name: "mul_1/x"
  op: "Const"
  attr {
    key: "dtype"
    value {
      type: DT_INT32
    }
  }
  attr {
    key: "value"
    value {
      tensor {
        dtype: DT_INT32
        tensor_shape {
        }
        int_val: 100
      }
    }
  }
}
node {
  name: "strided_slice_2/stack_2"
  op: "Const"
  attr {
    key: "dtype"
    value {
      type: DT_INT32
    }
  }
  attr {
    key: "value"
    value {
      tensor {
        dtype: DT_INT32
        tensor_shape {
          dim {
            size: 1
          }
        }
        int_val: 1
      }
    }
  }
}
node {
  name: "strided_slice_2/stack_1"
  op: "Const"
  attr {
    key: "dtype"
    value {
      type: DT_INT32
    }
  }
  attr {
    key: "value"
    value {
      tensor {
        dtype: DT_INT32
        tensor_shape {
          dim {
            size: 1
          }
        }
        int_val: 1
      }
    }
  }
}
node {
  name: "strided_slice_2/stack"
  op: "Const"
  attr {
    key: "dtype"
    value {
      type: DT_INT32
    }
  }
  attr {
    key: "value"
    value {
      tensor {
        dtype: DT_INT32
        tensor_shape {
          dim {
            size: 1
          }
        }
        int_val: 0
      }
    }
  }
}
node {
  name: "Reshape_3/shape"
  op: "Const"
  attr {
    key: "dtype"
    value {
      type: DT_INT32
    }
  }
  attr {
    key: "value"
    value {
      tensor {
        dtype: DT_INT32
        tensor_shape {
          dim {
            size: 2
          }
        }
        tensor_content: "\377\377\377\377d\000\000\000"
      }
    }
  }
}
node {
  name: "Reshape_2/shape/0"
  op: "Const"
  attr {
    key: "dtype"
    value {
      type: DT_INT32
    }
  }
  attr {
    key: "value"
    value {
      tensor {
        dtype: DT_INT32
        tensor_shape {
        }
        int_val: -1
      }
    }
  }
}
node {
  name: "strided_slice_1/stack_2"
  op: "Const"
  attr {
    key: "dtype"
    value {
      type: DT_INT32
    }
  }
  attr {
    key: "value"
    value {
      tensor {
        dtype: DT_INT32
        tensor_shape {
          dim {
            size: 1
          }
        }
        int_val: 1
      }
    }
  }
}
node {
  name: "strided_slice_1/stack_1"
  op: "Const"
  attr {
    key: "dtype"
    value {
      type: DT_INT32
    }
  }
  attr {
    key: "value"
    value {
      tensor {
        dtype: DT_INT32
        tensor_shape {
          dim {
            size: 1
          }
        }
        int_val: 2
      }
    }
  }
}
node {
  name: "strided_slice_1/stack"
  op: "Const"
  attr {
    key: "dtype"
    value {
      type: DT_INT32
    }
  }
  attr {
    key: "value"
    value {
      tensor {
        dtype: DT_INT32
        tensor_shape {
          dim {
            size: 1
          }
        }
        int_val: 1
      }
    }
  }
}
node {
  name: "Reshape_1/shape"
  op: "Const"
  attr {
    key: "dtype"
    value {
      type: DT_INT32
    }
  }
  attr {
    key: "value"
    value {
      tensor {
        dtype: DT_INT32
        tensor_shape {
          dim {
            size: 2
          }
        }
        tensor_content: "\377\377\377\377\t\000\000\000"
      }
    }
  }
}
node {
  name: "Reshape/shape/0"
  op: "Const"
  attr {
    key: "dtype"
    value {
      type: DT_INT32
    }
  }
  attr {
    key: "value"
    value {
      tensor {
        dtype: DT_INT32
        tensor_shape {
        }
        int_val: -1
      }
    }
  }
}
node {
  name: "mul/y"
  op: "Const"
  attr {
    key: "dtype"
    value {
      type: DT_INT32
    }
  }
  attr {
    key: "value"
    value {
      tensor {
        dtype: DT_INT32
        tensor_shape {
        }
        int_val: 3
      }
    }
  }
}
node {
  name: "strided_slice/stack_2"
  op: "Const"
  attr {
    key: "dtype"
    value {
      type: DT_INT32
    }
  }
  attr {
    key: "value"
    value {
      tensor {
        dtype: DT_INT32
        tensor_shape {
          dim {
            size: 1
          }
        }
        int_val: 1
      }
    }
  }
}
node {
  name: "strided_slice/stack_1"
  op: "Const"
  attr {
    key: "dtype"
    value {
      type: DT_INT32
    }
  }
  attr {
    key: "value"
    value {
      tensor {
        dtype: DT_INT32
        tensor_shape {
          dim {
            size: 1
          }
        }
        int_val: 2
      }
    }
  }
}
node {
  name: "strided_slice/stack"
  op: "Const"
  attr {
    key: "dtype"
    value {
      type: DT_INT32
    }
  }
  attr {
    key: "value"
    value {
      tensor {
        dtype: DT_INT32
        tensor_shape {
          dim {
            size: 1
          }
        }
        int_val: 1
      }
    }
  }
}
node {
  name: "descrpt_attr/t_std"
  op: "Const"
  attr {
    key: "dtype"
    value {
      type: DT_DOUBLE
    }
  }
  attr {
    key: "value"
    value {
      tensor {
        dtype: DT_DOUBLE
        tensor_shape {
          dim {
            size: 5
          }
          dim {
            size: 100
          }
        }
        tensor_content: "…"
      }
    }
  }
}
node {
  name: "descrpt_attr/t_std/read"
  op: "Identity"
  input: "descrpt_attr/t_std"
  attr {
    key: "T"
    value {
      type: DT_DOUBLE
    }
  }
  attr {
    key: "_class"
    value {
      list {
        s: "loc:@descrpt_attr/t_std"
      }
    }
  }
}
node {
  name: "descrpt_attr/t_avg"
  op: "Const"
  attr {
    key: "dtype"
    value {
      type: DT_DOUBLE
    }
  }
  attr {
    key: "value"
    value {
      tensor {
        dtype: DT_DOUBLE
        tensor_shape {
          dim {
            size: 5
          }
          dim {
            size: 100
          }
        }
        tensor_content: "…"
      }
    }
  }
}
node {
  name: "descrpt_attr/t_avg/read"
  op: "Identity"
  input: "descrpt_attr/t_avg"
  attr {
    key: "T"
    value {
      type: DT_DOUBLE
    }
  }
  attr {
    key: "_class"
    value {
      list {
        s: "loc:@descrpt_attr/t_avg"
      }
    }
  }
}
node {
  name: "descrpt_attr/sel"
  op: "Const"
  attr {
    key: "dtype"
    value {
      type: DT_INT32
    }
  }
  attr {
    key: "value"
    value {
      tensor {
        dtype: DT_INT32
        tensor_shape {
          dim {
            size: 5
          }
        }
        tensor_content: "\005\000\000\000\005\000\000\000\005\000\000\000\005\000\000\000\005\000\000\000"
      }
    }
  }
}
node {
  name: "descrpt_attr/ndescrpt"
  op: "Const"
  attr {
    key: "dtype"
    value {
      type: DT_INT32
    }
  }
  attr {
    key: "value"
    value {
      tensor {
        dtype: DT_INT32
        tensor_shape {
        }
        int_val: 100
      }
    }
  }
}
node {
  name: "descrpt_attr/ntypes"
  op: "Const"
  attr {
    key: "dtype"
    value {
      type: DT_INT32
    }
  }
  attr {
    key: "value"
    value {
      tensor {
        dtype: DT_INT32
        tensor_shape {
        }
        int_val: 5
      }
    }
  }
}
node {
  name: "descrpt_attr/rcut"
  op: "Const"
  attr {
    key: "dtype"
    value {
      type: DT_DOUBLE
    }
  }
  attr {
    key: "value"
    value {
      tensor {
        dtype: DT_DOUBLE
        tensor_shape {
        }
        double_val: 4.0
      }
    }
  }
}
node {
  name: "model_attr/output_dim"
  op: "Const"
  attr {
    key: "dtype"
    value {
      type: DT_INT32
    }
  }
  attr {
    key: "value"
    value {
      tensor {
        dtype: DT_INT32
        tensor_shape {
        }
        int_val: 3
      }
    }
  }
}
node {
  name: "model_attr/model_type"
  op: "Const"
  attr {
    key: "dtype"
    value {
      type: DT_STRING
    }
  }
  attr {
    key: "value"
    value {
      tensor {
        dtype: DT_STRING
        tensor_shape {
        }
        string_val: "dipole"
      }
    }
  }
}
node {
  name: "model_attr/model_version"
  op: "Const"
  attr {
    key: "dtype"
    value {
      type: DT_STRING
    }
  }
  attr {
    key: "value"
    value {
      tensor {
        dtype: DT_STRING
        tensor_shape {
        }
        string_val: "1.1"
      }
    }
  }
}
node {
  name: "model_attr/sel_type"
  op: "Const"
  attr {
    key: "dtype"
    value {
      type: DT_INT32
    }
  }
  attr {
    key: "value"
    value {
      tensor {
        dtype: DT_INT32
        tensor_shape {
          dim {
            size: 2
          }
        }
        tensor_content: "\001\000\000\000\003\000\000\000"
      }
    }
  }
}
node {
  name: "model_attr/tmap"
  op: "Const"
  attr {
    key: "dtype"
    value {
      type: DT_STRING
    }
  }
  attr {
    key: "value"
    value {
      tensor {
        dtype: DT_STRING
        tensor_shape {
        }
        string_val: "A B C D E"
      }
    }
  }
}
node {
  name: "t_mesh"
  op: "Placeholder"
  attr {
    key: "dtype"
    value {
      type: DT_INT32
    }
  }
  attr {
    key: "shape"
    value {
      shape {
        dim {
          size: -1
        }
      }
    }
  }
}
node {
  name: "t_natoms"
  op: "Placeholder"
  attr {
    key: "dtype"
    value {
      type: DT_INT32
    }
  }
  attr {
    key: "shape"
    value {
      shape {
        dim {
          size: 7
        }
      }
    }
  }
}
node {
  name: "strided_slice_28"
  op: "StridedSlice"
  input: "t_natoms"
  input: "strided_slice_28/stack"
  input: "strided_slice_28/stack_1"
  input: "strided_slice_28/stack_2"
  attr {
    key: "Index"
    value {
      type: DT_INT32
    }
  }
  attr {
    key: "T"
    value {
      type: DT_INT32
    }
  }
  attr {
    key: "begin_mask"
    value {
      i: 0
    }
  }
  attr {
    key: "ellipsis_mask"
    value {
      i: 0
    }
  }
  attr {
    key: "end_mask"
    value {
      i: 0
    }
  }
  attr {
    key: "new_axis_mask"
    value {
      i: 0
    }
  }
  attr {
    key: "shrink_axis_mask"
    value {
      i: 1
    }
  }
}
node {
  name: "strided_slice_26"
  op: "StridedSlice"
  input: "t_natoms"
  input: "strided_slice_26/stack"
  input: "strided_slice_26/stack_1"
  input: "strided_slice_26/stack_2"
  attr {
    key: "Index"
    value {
      type: DT_INT32
    }
  }
  attr {
    key: "T"
    value {
      type: DT_INT32
    }
  }
  attr {
    key: "begin_mask"
    value {
      i: 0
    }
  }
  attr {
    key: "ellipsis_mask"
    value {
      i: 0
    }
  }
  attr {
    key: "end_mask"
    value {
      i: 0
    }
  }
  attr {
    key: "new_axis_mask"
    value {
      i: 0
    }
  }
  attr {
    key: "shrink_axis_mask"
    value {
      i: 1
    }
  }
}
node {
  name: "strided_slice_23"
  op: "StridedSlice"
  input: "t_natoms"
  input: "strided_slice_23/stack"
  input: "strided_slice_23/stack_1"
  input: "strided_slice_23/stack_2"
  attr {
    key: "Index"
    value {
      type: DT_INT32
    }
  }
  attr {
    key: "T"
    value {
      type: DT_INT32
    }
  }
  attr {
    key: "begin_mask"
    value {
      i: 0
    }
  }
  attr {
    key: "ellipsis_mask"
    value {
      i: 0
    }
  }
  attr {
    key: "end_mask"
    value {
      i: 0
    }
  }
  attr {
    key: "new_axis_mask"
    value {
      i: 0
    }
  }
  attr {
    key: "shrink_axis_mask"
    value {
      i: 1
    }
  }
}
node {
  name: "mul_21"
  op: "Mul"
  input: "strided_slice_23"
  input: "mul_21/y"
  attr {
    key: "T"
    value {
      type: DT_INT32
    }
  }
}
node {
  name: "Slice_7/size"
  op: "Pack"
  input: "Slice_7/size/0"
  input: "mul_21"
  attr {
    key: "N"
    value {
      i: 2
    }
  }
  attr {
    key: "T"
    value {
      type: DT_INT32
    }
  }
  attr {
    key: "axis"
    value {
      i: 0
    }
  }
}
node {
  name: "strided_slice_22"
  op: "StridedSlice"
  input: "t_natoms"
  input: "strided_slice_22/stack"
  input: "strided_slice_22/stack_1"
  input: "strided_slice_22/stack_2"
  attr {
    key: "Index"
    value {
      type: DT_INT32
    }
  }
  attr {
    key: "T"
    value {
      type: DT_INT32
    }
  }
  attr {
    key: "begin_mask"
    value {
      i: 0
    }
  }
  attr {
    key: "ellipsis_mask"
    value {
      i: 0
    }
  }
  attr {
    key: "end_mask"
    value {
      i: 0
    }
  }
  attr {
    key: "new_axis_mask"
    value {
      i: 0
    }
  }
  attr {
    key: "shrink_axis_mask"
    value {
      i: 1
    }
  }
}
node {
  name: "mul_19"
  op: "Mul"
  input: "strided_slice_22"
  input: "mul_19/y"
  attr {
    key: "T"
    value {
      type: DT_INT32
    }
  }
}
node {
  name: "Slice_6/size"
  op: "Pack"
  input: "Slice_6/size/0"
  input: "mul_19"
  attr {
    key: "N"
    value {
      i: 2
    }
  }
  attr {
    key: "T"
    value {
      type: DT_INT32
    }
  }
  attr {
    key: "axis"
    value {
      i: 0
    }
  }
}
node {
  name: "strided_slice_21"
  op: "StridedSlice"
  input: "t_natoms"
  input: "strided_slice_21/stack"
  input: "strided_slice_21/stack_1"
  input: "strided_slice_21/stack_2"
  attr {
    key: "Index"
    value {
      type: DT_INT32
    }
  }
  attr {
    key: "T"
    value {
      type: DT_INT32
    }
  }
  attr {
    key: "begin_mask"
    value {
      i: 0
    }
  }
  attr {
    key: "ellipsis_mask"
    value {
      i: 0
    }
  }
  attr {
    key: "end_mask"
    value {
      i: 0
    }
  }
  attr {
    key: "new_axis_mask"
    value {
      i: 0
    }
  }
  attr {
    key: "shrink_axis_mask"
    value {
      i: 1
    }
  }
}
node {
  name: "strided_slice_18"
  op: "StridedSlice"
  input: "t_natoms"
  input: "strided_slice_18/stack"
  input: "strided_slice_18/stack_1"
  input: "strided_slice_18/stack_2"
  attr {
    key: "Index"
    value {
      type: DT_INT32
    }
  }
  attr {
    key: "T"
    value {
      type: DT_INT32
    }
  }
  attr {
    key: "begin_mask"
    value {
      i: 0
    }
  }
  attr {
    key: "ellipsis_mask"
    value {
      i: 0
    }
  }
  attr {
    key: "end_mask"
    value {
      i: 0
    }
  }
  attr {
    key: "new_axis_mask"
    value {
      i: 0
    }
  }
  attr {
    key: "shrink_axis_mask"
    value {
      i: 1
    }
  }
}
node {
  name: "strided_slice_16"
  op: "StridedSlice"
  input: "t_natoms"
  input: "strided_slice_16/stack"
  input: "strided_slice_16/stack_1"
  input: "strided_slice_16/stack_2"
  attr {
    key: "Index"
    value {
      type: DT_INT32
    }
  }
  attr {
    key: "T"
    value {
      type: DT_INT32
    }
  }
  attr {
    key: "begin_mask"
    value {
      i: 0
    }
  }
  attr {
    key: "ellipsis_mask"
    value {
      i: 0
    }
  }
  attr {
    key: "end_mask"
    value {
      i: 0
    }
  }
  attr {
    key: "new_axis_mask"
    value {
      i: 0
    }
  }
  attr {
    key: "shrink_axis_mask"
    value {
      i: 1
    }
  }
}
node {
  name: "strided_slice_14"
  op: "StridedSlice"
  input: "t_natoms"
  input: "strided_slice_14/stack"
  input: "strided_slice_14/stack_1"
  input: "strided_slice_14/stack_2"
  attr {
    key: "Index"
    value {
      type: DT_INT32
    }
  }
  attr {
    key: "T"
    value {
      type: DT_INT32
    }
  }
  attr {
    key: "begin_mask"
    value {
      i: 0
    }
  }
  attr {
    key: "ellipsis_mask"
    value {
      i: 0
    }
  }
  attr {
    key: "end_mask"
    value {
      i: 0
    }
  }
  attr {
    key: "new_axis_mask"
    value {
      i: 0
    }
  }
  attr {
    key: "shrink_axis_mask"
    value {
      i: 1
    }
  }
}
node {
  name: "strided_slice_13"
  op: "StridedSlice"
  input: "t_natoms"
  input: "strided_slice_13/stack"
  input: "strided_slice_13/stack_1"
  input: "strided_slice_13/stack_2"
  attr {
    key: "Index"
    value {
      type: DT_INT32
    }
  }
  attr {
    key: "T"
    value {
      type: DT_INT32
    }
  }
  attr {
    key: "begin_mask"
    value {
      i: 0
    }
  }
  attr {
    key: "ellipsis_mask"
    value {
      i: 0
    }
  }
  attr {
    key: "end_mask"
    value {
      i: 0
    }
  }
  attr {
    key: "new_axis_mask"
    value {
      i: 0
    }
  }
  attr {
    key: "shrink_axis_mask"
    value {
      i: 1
    }
  }
}
node {
  name: "mul_12"
  op: "Mul"
  input: "strided_slice_13"
  input: "mul_12/y"
  attr {
    key: "T"
    value {
      type: DT_INT32
    }
  }
}
node {
  name: "Slice_3/size"
  op: "Pack"
  input: "Slice_3/size/0"
  input: "mul_12"
  attr {
    key: "N"
    value {
      i: 2
    }
  }
  attr {
    key: "T"
    value {
      type: DT_INT32
    }
  }
  attr {
    key: "axis"
    value {
      i: 0
    }
  }
}
node {
  name: "strided_slice_12"
  op: "StridedSlice"
  input: "t_natoms"
  input: "strided_slice_12/stack"
  input: "strided_slice_12/stack_1"
  input: "strided_slice_12/stack_2"
  attr {
    key: "Index"
    value {
      type: DT_INT32
    }
  }
  attr {
    key: "T"
    value {
      type: DT_INT32
    }
  }
  attr {
    key: "begin_mask"
    value {
      i: 0
    }
  }
  attr {
    key: "ellipsis_mask"
    value {
      i: 0
    }
  }
  attr {
    key: "end_mask"
    value {
      i: 0
    }
  }
  attr {
    key: "new_axis_mask"
    value {
      i: 0
    }
  }
  attr {
    key: "shrink_axis_mask"
    value {
      i: 1
    }
  }
}
node {
  name: "mul_10"
  op: "Mul"
  input: "strided_slice_12"
  input: "mul_10/y"
  attr {
    key: "T"
    value {
      type: DT_INT32
    }
  }
}
node {
  name: "Slice_2/size"
  op: "Pack"
  input: "Slice_2/size/0"
  input: "mul_10"
  attr {
    key: "N"
    value {
      i: 2
    }
  }
  attr {
    key: "T"
    value {
      type: DT_INT32
    }
  }
  attr {
    key: "axis"
    value {
      i: 0
    }
  }
}
node {
  name: "strided_slice_11"
  op: "StridedSlice"
  input: "t_natoms"
  input: "strided_slice_11/stack"
  input: "strided_slice_11/stack_1"
  input: "strided_slice_11/stack_2"
  attr {
    key: "Index"
    value {
      type: DT_INT32
    }
  }
  attr {
    key: "T"
    value {
      type: DT_INT32
    }
  }
  attr {
    key: "begin_mask"
    value {
      i: 0
    }
  }
  attr {
    key: "ellipsis_mask"
    value {
      i: 0
    }
  }
  attr {
    key: "end_mask"
    value {
      i: 0
    }
  }
  attr {
    key: "new_axis_mask"
    value {
      i: 0
    }
  }
  attr {
    key: "shrink_axis_mask"
    value {
      i: 1
    }
  }
}
node {
  name: "add"
  op: "Add"
  input: "add/x"
  input: "strided_slice_11"
  attr {
    key: "T"
    value {
      type: DT_INT32
    }
  }
}
node {
  name: "add_1"
  op: "Add"
  input: "add"
  input: "strided_slice_14"
  attr {
    key: "T"
    value {
      type: DT_INT32
    }
  }
}
node {
  name: "add_4"
  op: "Add"
  input: "add_1"
  input: "strided_slice_21"
  attr {
    key: "T"
    value {
      type: DT_INT32
    }
  }
}
node {
  name: "mul_20"
  op: "Mul"
  input: "add_4"
  input: "mul_20/y"
  attr {
    key: "T"
    value {
      type: DT_INT32
    }
  }
}
node {
  name: "Slice_7/begin"
  op: "Pack"
  input: "Slice_7/begin/0"
  input: "mul_20"
  attr {
    key: "N"
    value {
      i: 2
    }
  }
  attr {
    key: "T"
    value {
      type: DT_INT32
    }
  }
  attr {
    key: "axis"
    value {
      i: 0
    }
  }
}
node {
  name: "mul_18"
  op: "Mul"
  input: "add_4"
  input: "mul_18/y"
  attr {
    key: "T"
    value {
      type: DT_INT32
    }
  }
}
node {
  name: "Slice_6/begin"
  op: "Pack"
  input: "Slice_6/begin/0"
  input: "mul_18"
  attr {
    key: "N"
    value {
      i: 2
    }
  }
  attr {
    key: "T"
    value {
      type: DT_INT32
    }
  }
  attr {
    key: "axis"
    value {
      i: 0
    }
  }
}
node {
  name: "mul_11"
  op: "Mul"
  input: "add"
  input: "mul_11/y"
  attr {
    key: "T"
    value {
      type: DT_INT32
    }
  }
}
node {
  name: "Slice_3/begin"
  op: "Pack"
  input: "Slice_3/begin/0"
  input: "mul_11"
  attr {
    key: "N"
    value {
      i: 2
    }
  }
  attr {
    key: "T"
    value {
      type: DT_INT32
    }
  }
  attr {
    key: "axis"
    value {
      i: 0
    }
  }
}
node {
  name: "mul_9"
  op: "Mul"
  input: "add"
  input: "mul_9/y"
  attr {
    key: "T"
    value {
      type: DT_INT32
    }
  }
}
node {
  name: "Slice_2/begin"
  op: "Pack"
  input: "Slice_2/begin/0"
  input: "mul_9"
  attr {
    key: "N"
    value {
      i: 2
    }
  }
  attr {
    key: "T"
    value {
      type: DT_INT32
    }
  }
  attr {
    key: "axis"
    value {
      i: 0
    }
  }
}
node {
  name: "strided_slice_8"
  op: "StridedSlice"
  input: "t_natoms"
  input: "strided_slice_8/stack"
  input: "strided_slice_8/stack_1"
  input: "strided_slice_8/stack_2"
  attr {
    key: "Index"
    value {
      type: DT_INT32
    }
  }
  attr {
    key: "T"
    value {
      type: DT_INT32
    }
  }
  attr {
    key: "begin_mask"
    value {
      i: 0
    }
  }
  attr {
    key: "ellipsis_mask"
    value {
      i: 0
    }
  }
  attr {
    key: "end_mask"
    value {
      i: 0
    }
  }
  attr {
    key: "new_axis_mask"
    value {
      i: 0
    }
  }
  attr {
    key: "shrink_axis_mask"
    value {
      i: 1
    }
  }
}
node {
  name: "mul_6"
  op: "Mul"
  input: "mul_6/x"
  input: "strided_slice_8"
  attr {
    key: "T"
    value {
      type: DT_INT32
    }
  }
}
node {
  name: "Reshape_9/shape"
  op: "Pack"
  input: "Reshape_9/shape/0"
  input: "mul_6"
  attr {
    key: "N"
    value {
      i: 2
    }
  }
  attr {
    key: "T"
    value {
      type: DT_INT32
    }
  }
  attr {
    key: "axis"
    value {
      i: 0
    }
  }
}
node {
  name: "strided_slice_7"
  op: "StridedSlice"
  input: "t_natoms"
  input: "strided_slice_7/stack"
  input: "strided_slice_7/stack_1"
  input: "strided_slice_7/stack_2"
  attr {
    key: "Index"
    value {
      type: DT_INT32
    }
  }
  attr {
    key: "T"
    value {
      type: DT_INT32
    }
  }
  attr {
    key: "begin_mask"
    value {
      i: 0
    }
  }
  attr {
    key: "ellipsis_mask"
    value {
      i: 0
    }
  }
  attr {
    key: "end_mask"
    value {
      i: 0
    }
  }
  attr {
    key: "new_axis_mask"
    value {
      i: 0
    }
  }
  attr {
    key: "shrink_axis_mask"
    value {
      i: 1
    }
  }
}
node {
  name: "mul_5"
  op: "Mul"
  input: "mul_5/x"
  input: "strided_slice_7"
  attr {
    key: "T"
    value {
      type: DT_INT32
    }
  }
}
node {
  name: "Reshape_8/shape"
  op: "Pack"
  input: "Reshape_8/shape/0"
  input: "mul_5"
  attr {
    key: "N"
    value {
      i: 2
    }
  }
  attr {
    key: "T"
    value {
      type: DT_INT32
    }
  }
  attr {
    key: "axis"
    value {
      i: 0
    }
  }
}
node {
  name: "strided_slice_6"
  op: "StridedSlice"
  input: "t_natoms"
  input: "strided_slice_6/stack"
  input: "strided_slice_6/stack_1"
  input: "strided_slice_6/stack_2"
  attr {
    key: "Index"
    value {
      type: DT_INT32
    }
  }
  attr {
    key: "T"
    value {
      type: DT_INT32
    }
  }
  attr {
    key: "begin_mask"
    value {
      i: 0
    }
  }
  attr {
    key: "ellipsis_mask"
    value {
      i: 0
    }
  }
  attr {
    key: "end_mask"
    value {
      i: 0
    }
  }
  attr {
    key: "new_axis_mask"
    value {
      i: 0
    }
  }
  attr {
    key: "shrink_axis_mask"
    value {
      i: 1
    }
  }
}
node {
  name: "mul_3"
  op: "Mul"
  input: "strided_slice_6"
  input: "mul_3/y"
  attr {
    key: "T"
    value {
      type: DT_INT32
    }
  }
}
node {
  name: "mul_4"
  op: "Mul"
  input: "mul_3"
  input: "mul_4/y"
  attr {
    key: "T"
    value {
      type: DT_INT32
    }
  }
}
node {
  name: "strided_slice_4"
  op: "StridedSlice"
  input: "t_natoms"
  input: "strided_slice_4/stack"
  input: "strided_slice_4/stack_1"
  input: "strided_slice_4/stack_2"
  attr {
    key: "Index"
    value {
      type: DT_INT32
    }
  }
  attr {
    key: "T"
    value {
      type: DT_INT32
    }
  }
  attr {
    key: "begin_mask"
    value {
      i: 0
    }
  }
  attr {
    key: "ellipsis_mask"
    value {
      i: 0
    }
  }
  attr {
    key: "end_mask"
    value {
      i: 0
    }
  }
  attr {
    key: "new_axis_mask"
    value {
      i: 0
    }
  }
  attr {
    key: "shrink_axis_mask"
    value {
      i: 1
    }
  }
}
node {
  name: "mul_2"
  op: "Mul"
  input: "strided_slice_4"
  input: "mul_2/y"
  attr {
    key: "T"
    value {
      type: DT_INT32
    }
  }
}
node {
  name: "strided_slice_2"
  op: "StridedSlice"
  input: "t_natoms"
  input: "strided_slice_2/stack"
  input: "strided_slice_2/stack_1"
  input: "strided_slice_2/stack_2"
  attr {
    key: "Index"
    value {
      type: DT_INT32
    }
  }
  attr {
    key: "T"
    value {
      type: DT_INT32
    }
  }
  attr {
    key: "begin_mask"
    value {
      i: 0
    }
  }
  attr {
    key: "ellipsis_mask"
    value {
      i: 0
    }
  }
  attr {
    key: "end_mask"
    value {
      i: 0
    }
  }
  attr {
    key: "new_axis_mask"
    value {
      i: 0
    }
  }
  attr {
    key: "shrink_axis_mask"
    value {
      i: 1
    }
  }
}
node {
  name: "mul_1"
  op: "Mul"
  input: "mul_1/x"
  input: "strided_slice_2"
  attr {
    key: "T"
    value {
      type: DT_INT32
    }
  }
}
node {
  name: "Reshape_4/shape"
  op: "Pack"
  input: "Reshape_4/shape/0"
  input: "mul_1"
  attr {
    key: "N"
    value {
      i: 2
    }
  }
  attr {
    key: "T"
    value {
      type: DT_INT32
    }
  }
  attr {
    key: "axis"
    value {
      i: 0
    }
  }
}
node {
  name: "strided_slice_1"
  op: "StridedSlice"
  input: "t_natoms"
  input: "strided_slice_1/stack"
  input: "strided_slice_1/stack_1"
  input: "strided_slice_1/stack_2"
  attr {
    key: "Index"
    value {
      type: DT_INT32
    }
  }
  attr {
    key: "T"
    value {
      type: DT_INT32
    }
  }
  attr {
    key: "begin_mask"
    value {
      i: 0
    }
  }
  attr {
    key: "ellipsis_mask"
    value {
      i: 0
    }
  }
  attr {
    key: "end_mask"
    value {
      i: 0
    }
  }
  attr {
    key: "new_axis_mask"
    value {
      i: 0
    }
  }
  attr {
    key: "shrink_axis_mask"
    value {
      i: 1
    }
  }
}
node {
  name: "Reshape_2/shape"
  op: "Pack"
  input: "Reshape_2/shape/0"
  input: "strided_slice_1"
  attr {
    key: "N"
    value {
      i: 2
    }
  }
  attr {
    key: "T"
    value {
      type: DT_INT32
    }
  }
  attr {
    key: "axis"
    value {
      i: 0
    }
  }
}
node {
  name: "strided_slice"
  op: "StridedSlice"
  input: "t_natoms"
  input: "strided_slice/stack"
  input: "strided_slice/stack_1"
  input: "strided_slice/stack_2"
  attr {
    key: "Index"
    value {
      type: DT_INT32
    }
  }
  attr {
    key: "T"
    value {
      type: DT_INT32
    }
  }
  attr {
    key: "begin_mask"
    value {
      i: 0
    }
  }
  attr {
    key: "ellipsis_mask"
    value {
      i: 0
    }
  }
  attr {
    key: "end_mask"
    value {
      i: 0
    }
  }
  attr {
    key: "new_axis_mask"
    value {
      i: 0
    }
  }
  attr {
    key: "shrink_axis_mask"
    value {
      i: 1
    }
  }
}
node {
  name: "mul"
  op: "Mul"
  input: "strided_slice"
  input: "mul/y"
  attr {
    key: "T"
    value {
      type: DT_INT32
    }
  }
}
node {
  name: "Reshape/shape"
  op: "Pack"
  input: "Reshape/shape/0"
  input: "mul"
  attr {
    key: "N"
    value {
      i: 2
    }
  }
  attr {
    key: "T"
    value {
      type: DT_INT32
    }
  }
  attr {
    key: "axis"
    value {
      i: 0
    }
  }
}
node {
  name: "t_type"
  op: "Placeholder"
  attr {
    key: "dtype"
    value {
      type: DT_INT32
    }
  }
  attr {
    key: "shape"
    value {
      shape {
        dim {
          size: -1
        }
      }
    }
  }
}
node {
  name: "Reshape_2"
  op: "Reshape"
  input: "t_type"
  input: "Reshape_2/shape"
  attr {
    key: "T"
    value {
      type: DT_INT32
    }
  }
  attr {
    key: "Tshape"
    value {
      type: DT_INT32
    }
  }
}
node {
  name: "t_coord"
  op: "Placeholder"
  attr {
    key: "dtype"
    value {
      type: DT_DOUBLE
    }
  }
  attr {
    key: "shape"
    value {
      shape {
        dim {
          size: -1
        }
      }
    }
  }
}
node {
  name: "Reshape"
  op: "Reshape"
  input: "t_coord"
  input: "Reshape/shape"
  attr {
    key: "T"
    value {
      type: DT_DOUBLE
    }
  }
  attr {
    key: "Tshape"
    value {
      type: DT_INT32
    }
  }
}
node {
  name: "t_box"
  op: "Placeholder"
  attr {
    key: "dtype"
    value {
      type: DT_DOUBLE
    }
  }
  attr {
    key: "shape"
    value {
      shape {
        dim {
          size: -1
        }
      }
    }
  }
}
node {
  name: "Reshape_1"
  op: "Reshape"
  input: "t_box"
  input: "Reshape_1/shape"
  attr {
    key: "T"
    value {
      type: DT_DOUBLE
    }
  }
  attr {
    key: "Tshape"
    value {
      type: DT_INT32
    }
  }
}
node {
  name: "ProdEnvMatA"
  op: "ProdEnvMatA"
  input: "Reshape"
  input: "Reshape_2"
  input: "t_natoms"
  input: "Reshape_1"
  input: "t_mesh"
  input: "descrpt_attr/t_avg/read"
  input: "descrpt_attr/t_std/read"
  attr {
    key: "T"
    value {
      type: DT_DOUBLE
    }
  }
  attr {
    key: "rcut_a"
    value {
      f: -1.0
    }
  }
  attr {
    key: "rcut_r"
    value {
      f: 4.0
    }
  }
  attr {
    key: "rcut_r_smth"
    value {
      f: 0.80000001
    }
  }
  attr {
    key: "sel_a"
    value {
      list {
        i: 5
        i: 5
        i: 5
        i: 5
        i: 5
      }
    }
  }
  attr {
    key: "sel_r"
    value {
      list {
        i: 0
        i: 0
        i: 0
        i: 0
        i: 0
      }
    }
  }
}
node {
  name: "o_nlist"
  op: "Identity"
  input: "ProdEnvMatA:3"
  attr {
    key: "T"
    value {
      type: DT_INT32
    }
  }
}
node {
  name: "o_rij"
  op: "Identity"
  input: "ProdEnvMatA:2"
  attr {
    key: "T"
    value {
      type: DT_DOUBLE
    }
  }
}
node {
  name: "o_rmat_deriv"
  op: "Identity"
  input: "ProdEnvMatA:1"
  attr {
    key: "T"
    value {
      type: DT_DOUBLE
    }
  }
}
node {
  name: "Reshape_3"
  op: "Reshape"
  input: "ProdEnvMatA"
  input: "Reshape_3/shape"
  attr {
    key: "T"
    value {
      type: DT_DOUBLE
    }
  }
  attr {
    key: "Tshape"
    value {
      type: DT_INT32
    }
  }
}
node {
  name: "o_rmat"
  op: "Identity"
  input: "Reshape_3"
  attr {
    key: "T"
    value {
      type: DT_DOUBLE
    }
  }
}
node {
  name: "Reshape_4"
  op: "Reshape"
  input: "o_rmat"
  input: "Reshape_4/shape"
  attr {
    key: "T"
    value {
      type: DT_DOUBLE
    }
  }
  attr {
    key: "Tshape"
    value {
      type: DT_INT32
    }
  }
}
node {
  name: "Shape_1"
  op: "Shape"
  input: "Reshape_4"
  attr {
    key: "T"
    value {
      type: DT_DOUBLE
    }
  }
  attr {
    key: "out_type"
    value {
      type: DT_INT32
    }
  }
}
node {
  name: "strided_slice_5"
  op: "StridedSlice"
  input: "Shape_1"
  input: "strided_slice_5/stack"
  input: "strided_slice_5/stack_1"
  input: "strided_slice_5/stack_2"
  attr {
    key: "Index"
    value {
      type: DT_INT32
    }
  }
  attr {
    key: "T"
    value {
      type: DT_INT32
    }
  }
  attr {
    key: "begin_mask"
    value {
      i: 0
    }
  }
  attr {
    key: "ellipsis_mask"
    value {
      i: 0
    }
  }
  attr {
    key: "end_mask"
    value {
      i: 0
    }
  }
  attr {
    key: "new_axis_mask"
    value {
      i: 0
    }
  }
  attr {
    key: "shrink_axis_mask"
    value {
      i: 1
    }
  }
}
node {
  name: "Reshape_7/shape"
  op: "Pack"
  input: "strided_slice_5"
  input: "mul_4"
  attr {
    key: "N"
    value {
      i: 2
    }
  }
  attr {
    key: "T"
    value {
      type: DT_INT32
    }
  }
  attr {
    key: "axis"
    value {
      i: 0
    }
  }
}
node {
  name: "Shape"
  op: "Shape"
  input: "Reshape_4"
  attr {
    key: "T"
    value {
      type: DT_DOUBLE
    }
  }
  attr {
    key: "out_type"
    value {
      type: DT_INT32
    }
  }
}
node {
  name: "strided_slice_3"
  op: "StridedSlice"
  input: "Shape"
  input: "strided_slice_3/stack"
  input: "strided_slice_3/stack_1"
  input: "strided_slice_3/stack_2"
  attr {
    key: "Index"
    value {
      type: DT_INT32
    }
  }
  attr {
    key: "T"
    value {
      type: DT_INT32
    }
  }
  attr {
    key: "begin_mask"
    value {
      i: 0
    }
  }
  attr {
    key: "ellipsis_mask"
    value {
      i: 0
    }
  }
  attr {
    key: "end_mask"
    value {
      i: 0
    }
  }
  attr {
    key: "new_axis_mask"
    value {
      i: 0
    }
  }
  attr {
    key: "shrink_axis_mask"
    value {
      i: 1
    }
  }
}
node {
  name: "Reshape_6/shape"
  op: "Pack"
  input: "strided_slice_3"
  input: "mul_2"
  attr {
    key: "N"
    value {
      i: 2
    }
  }
  attr {
    key: "T"
    value {
      type: DT_INT32
    }
  }
  attr {
    key: "axis"
    value {
      i: 0
    }
  }
}
node {
  name: "Reshape_5"
  op: "Reshape"
  input: "Reshape_4"
  input: "Reshape_5/shape"
  attr {
    key: "T"
    value {
      type: DT_DOUBLE
    }
  }
  attr {
    key: "Tshape"
    value {
      type: DT_INT32
    }
  }
}
node {
  name: "filter_type_all/Slice_8"
  op: "Slice"
  input: "Reshape_5"
  input: "filter_type_all/Slice_8/begin"
  input: "filter_type_all/Slice_8/size"
  attr {
    key: "Index"
    value {
      type: DT_INT32
    }
  }
  attr {
    key: "T"
    value {
      type: DT_DOUBLE
    }
  }
}
node {
  name: "filter_type_all/Reshape_34"
  op: "Reshape"
  input: "filter_type_all/Slice_8"
  input: "filter_type_all/Reshape_34/shape"
  attr {
    key: "T"
    value {
      type: DT_DOUBLE
    }
  }
  attr {
    key: "Tshape"
    value {
      type: DT_INT32
    }
  }
}
node {
  name: "filter_type_all/Reshape_28"
  op: "Reshape"
  input: "filter_type_all/Slice_8"
  input: "filter_type_all/Reshape_28/shape"
  attr {
    key: "T"
    value {
      type: DT_DOUBLE
    }
  }
  attr {
    key: "Tshape"
    value {
      type: DT_INT32
    }
  }
}
node {
  name: "filter_type_all/Slice_9"
  op: "Slice"
  input: "filter_type_all/Reshape_28"
  input: "filter_type_all/Slice_9/begin"
  input: "filter_type_all/Slice_9/size"
  attr {
    key: "Index"
    value {
      type: DT_INT32
    }
  }
  attr {
    key: "T"
    value {
      type: DT_DOUBLE
    }
  }
}
node {
  name: "filter_type_all/Reshape_29"
  op: "Reshape"
  input: "filter_type_all/Slice_9"
  input: "filter_type_all/Reshape_29/shape"
  attr {
    key: "T"
    value {
      type: DT_DOUBLE
    }
  }
  attr {
    key: "Tshape"
    value {
      type: DT_INT32
    }
  }
}
node {
  name: "filter_type_all/concat_12"
  op: "ConcatV2"
  input: "filter_type_all/Reshape_29"
  input: "filter_type_all/Reshape_29"
  input: "filter_type_all/concat_12/axis"
  attr {
    key: "N"
    value {
      i: 2
    }
  }
  attr {
    key: "T"
    value {
      type: DT_DOUBLE
    }
  }
  attr {
    key: "Tidx"
    value {
      type: DT_INT32
    }
  }
}
node {
  name: "filter_type_all/MatMul_16"
  op: "MatMul"
  input: "filter_type_all/Reshape_29"
  input: "filter_type_all/matrix_1_4/read"
  attr {
    key: "T"
    value {
      type: DT_DOUBLE
    }
  }
  attr {
    key: "transpose_a"
    value {
      b: false
    }
  }
  attr {
    key: "transpose_b"
    value {
      b: false
    }
  }
}
node {
  name: "filter_type_all/add_27"
  op: "Add"
  input: "filter_type_all/MatMul_16"
  input: "filter_type_all/bias_1_4/read"
  attr {
    key: "T"
    value {
      type: DT_DOUBLE
    }
  }
}
node {
  name: "filter_type_all/Tanh_12"
  op: "Tanh"
  input: "filter_type_all/add_27"
  attr {
    key: "T"
    value {
      type: DT_DOUBLE
    }
  }
}
node {
  name: "filter_type_all/Reshape_30"
  op: "Reshape"
  input: "filter_type_all/Tanh_12"
  input: "filter_type_all/Reshape_30/shape"
  attr {
    key: "T"
    value {
      type: DT_DOUBLE
    }
  }
  attr {
    key: "Tshape"
    value {
      type: DT_INT32
    }
  }
}
node {
  name: "filter_type_all/add_28"
  op: "Add"
  input: "filter_type_all/concat_12"
  input: "filter_type_all/Reshape_30"
  attr {
    key: "T"
    value {
      type: DT_DOUBLE
    }
  }
}
node {
  name: "filter_type_all/concat_13"
  op: "ConcatV2"
  input: "filter_type_all/add_28"
  input: "filter_type_all/add_28"
  input: "filter_type_all/concat_13/axis"
  attr {
    key: "N"
    value {
      i: 2
    }
  }
  attr {
    key: "T"
    value {
      type: DT_DOUBLE
    }
  }
  attr {
    key: "Tidx"
    value {
      type: DT_INT32
    }
  }
}
node {
  name: "filter_type_all/MatMul_17"
  op: "MatMul"
  input: "filter_type_all/add_28"
  input: "filter_type_all/matrix_2_4/read"
  attr {
    key: "T"
    value {
      type: DT_DOUBLE
    }
  }
  attr {
    key: "transpose_a"
    value {
      b: false
    }
  }
  attr {
    key: "transpose_b"
    value {
      b: false
    }
  }
}
node {
  name: "filter_type_all/add_29"
  op: "Add"
  input: "filter_type_all/MatMul_17"
  input: "filter_type_all/bias_2_4/read"
  attr {
    key: "T"
    value {
      type: DT_DOUBLE
    }
  }
}
node {
  name: "filter_type_all/Tanh_13"
  op: "Tanh"
  input: "filter_type_all/add_29"
  attr {
    key: "T"
    value {
      type: DT_DOUBLE
    }
  }
}
node {
  name: "filter_type_all/Reshape_31"
  op: "Reshape"
  input: "filter_type_all/Tanh_13"
  input: "filter_type_all/Reshape_31/shape"
  attr {
    key: "T"
    value {
      type: DT_DOUBLE
    }
  }
  attr {
    key: "Tshape"
    value {
      type: DT_INT32
    }
  }
}
node {
  name: "filter_type_all/add_30"
  op: "Add"
  input: "filter_type_all/concat_13"
  input: "filter_type_all/Reshape_31"
  attr {
    key: "T"
    value {
      type: DT_DOUBLE
    }
  }
}
node {
  name: "filter_type_all/concat_14"
  op: "ConcatV2"
  input: "filter_type_all/add_30"
  input: "filter_type_all/add_30"
  input: "filter_type_all/concat_14/axis"
  attr {
    key: "N"
    value {
      i: 2
    }
  }
  attr {
    key: "T"
    value {
      type: DT_DOUBLE
    }
  }
  attr {
    key: "Tidx"
    value {
      type: DT_INT32
    }
  }
}
node {
  name: "filter_type_all/MatMul_18"
  op: "MatMul"
  input: "filter_type_all/add_30"
  input: "filter_type_all/matrix_3_4/read"
  attr {
    key: "T"
    value {
      type: DT_DOUBLE
    }
  }
  attr {
    key: "transpose_a"
    value {
      b: false
    }
  }
  attr {
    key: "transpose_b"
    value {
      b: false
    }
  }
}
node {
  name: "filter_type_all/add_31"
  op: "Add"
  input: "filter_type_all/MatMul_18"
  input: "filter_type_all/bias_3_4/read"
  attr {
    key: "T"
    value {
      type: DT_DOUBLE
    }
  }
}
node {
  name: "filter_type_all/Tanh_14"
  op: "Tanh"
  input: "filter_type_all/add_31"
  attr {
    key: "T"
    value {
      type: DT_DOUBLE
    }
  }
}
node {
  name: "filter_type_all/Reshape_32"
  op: "Reshape"
  input: "filter_type_all/Tanh_14"
  input: "filter_type_all/Reshape_32/shape"
  attr {
    key: "T"
    value {
      type: DT_DOUBLE
    }
  }
  attr {
    key: "Tshape"
    value {
      type: DT_INT32
    }
  }
}
node {
  name: "filter_type_all/add_32"
  op: "Add"
  input: "filter_type_all/concat_14"
  input: "filter_type_all/Reshape_32"
  attr {
    key: "T"
    value {
      type: DT_DOUBLE
    }
  }
}
node {
  name: "filter_type_all/Reshape_33"
  op: "Reshape"
  input: "filter_type_all/add_32"
  input: "filter_type_all/Reshape_33/shape"
  attr {
    key: "T"
    value {
      type: DT_DOUBLE
    }
  }
  attr {
    key: "Tshape"
    value {
      type: DT_INT32
    }
  }
}
node {
  name: "filter_type_all/MatMul_19"
  op: "BatchMatMul"
  input: "filter_type_all/Reshape_34"
  input: "filter_type_all/Reshape_33"
  attr {
    key: "T"
    value {
      type: DT_DOUBLE
    }
  }
  attr {
    key: "adj_x"
    value {
      b: true
    }
  }
  attr {
    key: "adj_y"
    value {
      b: false
    }
  }
}
node {
  name: "filter_type_all/Slice_6"
  op: "Slice"
  input: "Reshape_5"
  input: "filter_type_all/Slice_6/begin"
  input: "filter_type_all/Slice_6/size"
  attr {
    key: "Index"
    value {
      type: DT_INT32
    }
  }
  attr {
    key: "T"
    value {
      type: DT_DOUBLE
    }
  }
}
node {
  name: "filter_type_all/Reshape_27"
  op: "Reshape"
  input: "filter_type_all/Slice_6"
  input: "filter_type_all/Reshape_27/shape"
  attr {
    key: "T"
    value {
      type: DT_DOUBLE
    }
  }
  attr {
    key: "Tshape"
    value {
      type: DT_INT32
    }
  }
}
node {
  name: "filter_type_all/Reshape_21"
  op: "Reshape"
  input: "filter_type_all/Slice_6"
  input: "filter_type_all/Reshape_21/shape"
  attr {
    key: "T"
    value {
      type: DT_DOUBLE
    }
  }
  attr {
    key: "Tshape"
    value {
      type: DT_INT32
    }
  }
}
node {
  name: "filter_type_all/Slice_7"
  op: "Slice"
  input: "filter_type_all/Reshape_21"
  input: "filter_type_all/Slice_7/begin"
  input: "filter_type_all/Slice_7/size"
  attr {
    key: "Index"
    value {
      type: DT_INT32
    }
  }
  attr {
    key: "T"
    value {
      type: DT_DOUBLE
    }
  }
}
node {
  name: "filter_type_all/Reshape_22"
  op: "Reshape"
  input: "filter_type_all/Slice_7"
  input: "filter_type_all/Reshape_22/shape"
  attr {
    key: "T"
    value {
      type: DT_DOUBLE
    }
  }
  attr {
    key: "Tshape"
    value {
      type: DT_INT32
    }
  }
}
node {
  name: "filter_type_all/concat_9"
  op: "ConcatV2"
  input: "filter_type_all/Reshape_22"
  input: "filter_type_all/Reshape_22"
  input: "filter_type_all/concat_9/axis"
  attr {
    key: "N"
    value {
      i: 2
    }
  }
  attr {
    key: "T"
    value {
      type: DT_DOUBLE
    }
  }
  attr {
    key: "Tidx"
    value {
      type: DT_INT32
    }
  }
}
node {
  name: "filter_type_all/MatMul_12"
  op: "MatMul"
  input: "filter_type_all/Reshape_22"
  input: "filter_type_all/matrix_1_3/read"
  attr {
    key: "T"
    value {
      type: DT_DOUBLE
    }
  }
  attr {
    key: "transpose_a"
    value {
      b: false
    }
  }
  attr {
    key: "transpose_b"
    value {
      b: false
    }
  }
}
node {
  name: "filter_type_all/add_20"
  op: "Add"
  input: "filter_type_all/MatMul_12"
  input: "filter_type_all/bias_1_3/read"
  attr {
    key: "T"
    value {
      type: DT_DOUBLE
    }
  }
}
node {
  name: "filter_type_all/Tanh_9"
  op: "Tanh"
  input: "filter_type_all/add_20"
  attr {
    key: "T"
    value {
      type: DT_DOUBLE
    }
  }
}
node {
  name: "filter_type_all/Reshape_23"
  op: "Reshape"
  input: "filter_type_all/Tanh_9"
  input: "filter_type_all/Reshape_23/shape"
  attr {
    key: "T"
    value {
      type: DT_DOUBLE
    }
  }
  attr {
    key: "Tshape"
    value {
      type: DT_INT32
    }
  }
}
node {
  name: "filter_type_all/add_21"
  op: "Add"
  input: "filter_type_all/concat_9"
  input: "filter_type_all/Reshape_23"
  attr {
    key: "T"
    value {
      type: DT_DOUBLE
    }
  }
}
node {
  name: "filter_type_all/concat_10"
  op: "ConcatV2"
  input: "filter_type_all/add_21"
  input: "filter_type_all/add_21"
  input: "filter_type_all/concat_10/axis"
  attr {
    key: "N"
    value {
      i: 2
    }
  }
  attr {
    key: "T"
    value {
      type: DT_DOUBLE
    }
  }
  attr {
    key: "Tidx"
    value {
      type: DT_INT32
    }
  }
}
node {
  name: "filter_type_all/MatMul_13"
  op: "MatMul"
  input: "filter_type_all/add_21"
  input: "filter_type_all/matrix_2_3/read"
  attr {
    key: "T"
    value {
      type: DT_DOUBLE
    }
  }
  attr {
    key: "transpose_a"
    value {
      b: false
    }
  }
  attr {
    key: "transpose_b"
    value {
      b: false
    }
  }
}
node {
  name: "filter_type_all/add_22"
  op: "Add"
  input: "filter_type_all/MatMul_13"
  input: "filter_type_all/bias_2_3/read"
  attr {
    key: "T"
    value {
      type: DT_DOUBLE
    }
  }
}
node {
  name: "filter_type_all/Tanh_10"
  op: "Tanh"
  input: "filter_type_all/add_22"
  attr {
    key: "T"
    value {
      type: DT_DOUBLE
    }
  }
}
node {
  name: "filter_type_all/Reshape_24"
  op: "Reshape"
  input: "filter_type_all/Tanh_10"
  input: "filter_type_all/Reshape_24/shape"
  attr {
    key: "T"
    value {
      type: DT_DOUBLE
    }
  }
  attr {
    key: "Tshape"
    value {
      type: DT_INT32
    }
  }
}
node {
  name: "filter_type_all/add_23"
  op: "Add"
  input: "filter_type_all/concat_10"
  input: "filter_type_all/Reshape_24"
  attr {
    key: "T"
    value {
      type: DT_DOUBLE
    }
  }
}
node {
  name: "filter_type_all/concat_11"
  op: "ConcatV2"
  input: "filter_type_all/add_23"
  input: "filter_type_all/add_23"
  input: "filter_type_all/concat_11/axis"
  attr {
    key: "N"
    value {
      i: 2
    }
  }
  attr {
    key: "T"
    value {
      type: DT_DOUBLE
    }
  }
  attr {
    key: "Tidx"
    value {
      type: DT_INT32
    }
  }
}
node {
  name: "filter_type_all/MatMul_14"
  op: "MatMul"
  input: "filter_type_all/add_23"
  input: "filter_type_all/matrix_3_3/read"
  attr {
    key: "T"
    value {
      type: DT_DOUBLE
    }
  }
  attr {
    key: "transpose_a"
    value {
      b: false
    }
  }
  attr {
    key: "transpose_b"
    value {
      b: false
    }
  }
}
node {
  name: "filter_type_all/add_24"
  op: "Add"
  input: "filter_type_all/MatMul_14"
  input: "filter_type_all/bias_3_3/read"
  attr {
    key: "T"
    value {
      type: DT_DOUBLE
    }
  }
}
node {
  name: "filter_type_all/Tanh_11"
  op: "Tanh"
  input: "filter_type_all/add_24"
  attr {
    key: "T"
    value {
      type: DT_DOUBLE
    }
  }
}
node {
  name: "filter_type_all/Reshape_25"
  op: "Reshape"
  input: "filter_type_all/Tanh_11"
  input: "filter_type_all/Reshape_25/shape"
  attr {
    key: "T"
    value {
      type: DT_DOUBLE
    }
  }
  attr {
    key: "Tshape"
    value {
      type: DT_INT32
    }
  }
}
node {
  name: "filter_type_all/add_25"
  op: "Add"
  input: "filter_type_all/concat_11"
  input: "filter_type_all/Reshape_25"
  attr {
    key: "T"
    value {
      type: DT_DOUBLE
    }
  }
}
node {
  name: "filter_type_all/Reshape_26"
  op: "Reshape"
  input: "filter_type_all/add_25"
  input: "filter_type_all/Reshape_26/shape"
  attr {
    key: "T"
    value {
      type: DT_DOUBLE
    }
  }
  attr {
    key: "Tshape"
    value {
      type: DT_INT32
    }
  }
}
node {
  name: "filter_type_all/MatMul_15"
  op: "BatchMatMul"
  input: "filter_type_all/Reshape_27"
  input: "filter_type_all/Reshape_26"
  attr {
    key: "T"
    value {
      type: DT_DOUBLE
    }
  }
  attr {
    key: "adj_x"
    value {
      b: true
    }
  }
  attr {
    key: "adj_y"
    value {
      b: false
    }
  }
}
node {
  name: "filter_type_all/Slice_4"
  op: "Slice"
  input: "Reshape_5"
  input: "filter_type_all/Slice_4/begin"
  input: "filter_type_all/Slice_4/size"
  attr {
    key: "Index"
    value {
      type: DT_INT32
    }
  }
  attr {
    key: "T"
    value {
      type: DT_DOUBLE
    }
  }
}
node {
  name: "filter_type_all/Reshape_20"
  op: "Reshape"
  input: "filter_type_all/Slice_4"
  input: "filter_type_all/Reshape_20/shape"
  attr {
    key: "T"
    value {
      type: DT_DOUBLE
    }
  }
  attr {
    key: "Tshape"
    value {
      type: DT_INT32
    }
  }
}
node {
  name: "filter_type_all/Reshape_14"
  op: "Reshape"
  input: "filter_type_all/Slice_4"
  input: "filter_type_all/Reshape_14/shape"
  attr {
    key: "T"
    value {
      type: DT_DOUBLE
    }
  }
  attr {
    key: "Tshape"
    value {
      type: DT_INT32
    }
  }
}
node {
  name: "filter_type_all/Slice_5"
  op: "Slice"
  input: "filter_type_all/Reshape_14"
  input: "filter_type_all/Slice_5/begin"
  input: "filter_type_all/Slice_5/size"
  attr {
    key: "Index"
    value {
      type: DT_INT32
    }
  }
  attr {
    key: "T"
    value {
      type: DT_DOUBLE
    }
  }
}
node {
  name: "filter_type_all/Reshape_15"
  op: "Reshape"
  input: "filter_type_all/Slice_5"
  input: "filter_type_all/Reshape_15/shape"
  attr {
    key: "T"
    value {
      type: DT_DOUBLE
    }
  }
  attr {
    key: "Tshape"
    value {
      type: DT_INT32
    }
  }
}
node {
  name: "filter_type_all/concat_6"
  op: "ConcatV2"
  input: "filter_type_all/Reshape_15"
  input: "filter_type_all/Reshape_15"
  input: "filter_type_all/concat_6/axis"
  attr {
    key: "N"
    value {
      i: 2
    }
  }
  attr {
    key: "T"
    value {
      type: DT_DOUBLE
    }
  }
  attr {
    key: "Tidx"
    value {
      type: DT_INT32
    }
  }
}
node {
  name: "filter_type_all/MatMul_8"
  op: "MatMul"
  input: "filter_type_all/Reshape_15"
  input: "filter_type_all/matrix_1_2/read"
  attr {
    key: "T"
    value {
      type: DT_DOUBLE
    }
  }
  attr {
    key: "transpose_a"
    value {
      b: false
    }
  }
  attr {
    key: "transpose_b"
    value {
      b: false
    }
  }
}
node {
  name: "filter_type_all/add_13"
  op: "Add"
  input: "filter_type_all/MatMul_8"
  input: "filter_type_all/bias_1_2/read"
  attr {
    key: "T"
    value {
      type: DT_DOUBLE
    }
  }
}
node {
  name: "filter_type_all/Tanh_6"
  op: "Tanh"
  input: "filter_type_all/add_13"
  attr {
    key: "T"
    value {
      type: DT_DOUBLE
    }
  }
}
node {
  name: "filter_type_all/Reshape_16"
  op: "Reshape"
  input: "filter_type_all/Tanh_6"
  input: "filter_type_all/Reshape_16/shape"
  attr {
    key: "T"
    value {
      type: DT_DOUBLE
    }
  }
  attr {
    key: "Tshape"
    value {
      type: DT_INT32
    }
  }
}
node {
  name: "filter_type_all/add_14"
  op: "Add"
  input: "filter_type_all/concat_6"
  input: "filter_type_all/Reshape_16"
  attr {
    key: "T"
    value {
      type: DT_DOUBLE
    }
  }
}
node {
  name: "filter_type_all/concat_7"
  op: "ConcatV2"
  input: "filter_type_all/add_14"
  input: "filter_type_all/add_14"
  input: "filter_type_all/concat_7/axis"
  attr {
    key: "N"
    value {
      i: 2
    }
  }
  attr {
    key: "T"
    value {
      type: DT_DOUBLE
    }
  }
  attr {
    key: "Tidx"
    value {
      type: DT_INT32
    }
  }
}
node {
  name: "filter_type_all/MatMul_9"
  op: "MatMul"
  input: "filter_type_all/add_14"
  input: "filter_type_all/matrix_2_2/read"
  attr {
    key: "T"
    value {
      type: DT_DOUBLE
    }
  }
  attr {
    key: "transpose_a"
    value {
      b: false
    }
  }
  attr {
    key: "transpose_b"
    value {
      b: false
    }
  }
}
node {
  name: "filter_type_all/add_15"
  op: "Add"
  input: "filter_type_all/MatMul_9"
  input: "filter_type_all/bias_2_2/read"
  attr {
    key: "T"
    value {
      type: DT_DOUBLE
    }
  }
}
node {
  name: "filter_type_all/Tanh_7"
  op: "Tanh"
  input: "filter_type_all/add_15"
  attr {
    key: "T"
    value {
      type: DT_DOUBLE
    }
  }
}
node {
  name: "filter_type_all/Reshape_17"
  op: "Reshape"
  input: "filter_type_all/Tanh_7"
  input: "filter_type_all/Reshape_17/shape"
  attr {
    key: "T"
    value {
      type: DT_DOUBLE
    }
  }
  attr {
    key: "Tshape"
    value {
      type: DT_INT32
    }
  }
}
node {
  name: "filter_type_all/add_16"
  op: "Add"
  input: "filter_type_all/concat_7"
  input: "filter_type_all/Reshape_17"
  attr {
    key: "T"
    value {
      type: DT_DOUBLE
    }
  }
}
node {
  name: "filter_type_all/concat_8"
  op: "ConcatV2"
  input: "filter_type_all/add_16"
  input: "filter_type_all/add_16"
  input: "filter_type_all/concat_8/axis"
  attr {
    key: "N"
    value {
      i: 2
    }
  }
  attr {
    key: "T"
    value {
      type: DT_DOUBLE
    }
  }
  attr {
    key: "Tidx"
    value {
      type: DT_INT32
    }
  }
}
node {
  name: "filter_type_all/MatMul_10"
  op: "MatMul"
  input: "filter_type_all/add_16"
  input: "filter_type_all/matrix_3_2/read"
  attr {
    key: "T"
    value {
      type: DT_DOUBLE
    }
  }
  attr {
    key: "transpose_a"
    value {
      b: false
    }
  }
  attr {
    key: "transpose_b"
    value {
      b: false
    }
  }
}
node {
  name: "filter_type_all/add_17"
  op: "Add"
  input: "filter_type_all/MatMul_10"
  input: "filter_type_all/bias_3_2/read"
  attr {
    key: "T"
    value {
      type: DT_DOUBLE
    }
  }
}
node {
  name: "filter_type_all/Tanh_8"
  op: "Tanh"
  input: "filter_type_all/add_17"
  attr {
    key: "T"
    value {
      type: DT_DOUBLE
    }
  }
}
node {
  name: "filter_type_all/Reshape_18"
  op: "Reshape"
  input: "filter_type_all/Tanh_8"
  input: "filter_type_all/Reshape_18/shape"
  attr {
    key: "T"
    value {
      type: DT_DOUBLE
    }
  }
  attr {
    key: "Tshape"
    value {
      type: DT_INT32
    }
  }
}
node {
  name: "filter_type_all/add_18"
  op: "Add"
  input: "filter_type_all/concat_8"
  input: "filter_type_all/Reshape_18"
  attr {
    key: "T"
    value {
      type: DT_DOUBLE
    }
  }
}
node {
  name: "filter_type_all/Reshape_19"
  op: "Reshape"
  input: "filter_type_all/add_18"
  input: "filter_type_all/Reshape_19/shape"
  attr {
    key: "T"
    value {
      type: DT_DOUBLE
    }
  }
  attr {
    key: "Tshape"
    value {
      type: DT_INT32
    }
  }
}
node {
  name: "filter_type_all/MatMul_11"
  op: "BatchMatMul"
  input: "filter_type_all/Reshape_20"
  input: "filter_type_all/Reshape_19"
  attr {
    key: "T"
    value {
      type: DT_DOUBLE
    }
  }
  attr {
    key: "adj_x"
    value {
      b: true
    }
  }
  attr {
    key: "adj_y"
    value {
      b: false
    }
  }
}
node {
  name: "filter_type_all/Slice_2"
  op: "Slice"
  input: "Reshape_5"
  input: "filter_type_all/Slice_2/begin"
  input: "filter_type_all/Slice_2/size"
  attr {
    key: "Index"
    value {
      type: DT_INT32
    }
  }
  attr {
    key: "T"
    value {
      type: DT_DOUBLE
    }
  }
}
node {
  name: "filter_type_all/Reshape_13"
  op: "Reshape"
  input: "filter_type_all/Slice_2"
  input: "filter_type_all/Reshape_13/shape"
  attr {
    key: "T"
    value {
      type: DT_DOUBLE
    }
  }
  attr {
    key: "Tshape"
    value {
      type: DT_INT32
    }
  }
}
node {
  name: "filter_type_all/Reshape_7"
  op: "Reshape"
  input: "filter_type_all/Slice_2"
  input: "filter_type_all/Reshape_7/shape"
  attr {
    key: "T"
    value {
      type: DT_DOUBLE
    }
  }
  attr {
    key: "Tshape"
    value {
      type: DT_INT32
    }
  }
}
node {
  name: "filter_type_all/Slice_3"
  op: "Slice"
  input: "filter_type_all/Reshape_7"
  input: "filter_type_all/Slice_3/begin"
  input: "filter_type_all/Slice_3/size"
  attr {
    key: "Index"
    value {
      type: DT_INT32
    }
  }
  attr {
    key: "T"
    value {
      type: DT_DOUBLE
    }
  }
}
node {
  name: "filter_type_all/Reshape_8"
  op: "Reshape"
  input: "filter_type_all/Slice_3"
  input: "filter_type_all/Reshape_8/shape"
  attr {
    key: "T"
    value {
      type: DT_DOUBLE
    }
  }
  attr {
    key: "Tshape"
    value {
      type: DT_INT32
    }
  }
}
node {
  name: "filter_type_all/concat_3"
  op: "ConcatV2"
  input: "filter_type_all/Reshape_8"
  input: "filter_type_all/Reshape_8"
  input: "filter_type_all/concat_3/axis"
  attr {
    key: "N"
    value {
      i: 2
    }
  }
  attr {
    key: "T"
    value {
      type: DT_DOUBLE
    }
  }
  attr {
    key: "Tidx"
    value {
      type: DT_INT32
    }
  }
}
node {
  name: "filter_type_all/MatMul_4"
  op: "MatMul"
  input: "filter_type_all/Reshape_8"
  input: "filter_type_all/matrix_1_1/read"
  attr {
    key: "T"
    value {
      type: DT_DOUBLE
    }
  }
  attr {
    key: "transpose_a"
    value {
      b: false
    }
  }
  attr {
    key: "transpose_b"
    value {
      b: false
    }
  }
}
node {
  name: "filter_type_all/add_6"
  op: "Add"
  input: "filter_type_all/MatMul_4"
  input: "filter_type_all/bias_1_1/read"
  attr {
    key: "T"
    value {
      type: DT_DOUBLE
    }
  }
}
node {
  name: "filter_type_all/Tanh_3"
  op: "Tanh"
  input: "filter_type_all/add_6"
  attr {
    key: "T"
    value {
      type: DT_DOUBLE
    }
  }
}
node {
  name: "filter_type_all/Reshape_9"
  op: "Reshape"
  input: "filter_type_all/Tanh_3"
  input: "filter_type_all/Reshape_9/shape"
  attr {
    key: "T"
    value {
      type: DT_DOUBLE
    }
  }
  attr {
    key: "Tshape"
    value {
      type: DT_INT32
    }
  }
}
node {
  name: "filter_type_all/add_7"
  op: "Add"
  input: "filter_type_all/concat_3"
  input: "filter_type_all/Reshape_9"
  attr {
    key: "T"
    value {
      type: DT_DOUBLE
    }
  }
}
node {
  name: "filter_type_all/concat_4"
  op: "ConcatV2"
  input: "filter_type_all/add_7"
  input: "filter_type_all/add_7"
  input: "filter_type_all/concat_4/axis"
  attr {
    key: "N"
    value {
      i: 2
    }
  }
  attr {
    key: "T"
    value {
      type: DT_DOUBLE
    }
  }
  attr {
    key: "Tidx"
    value {
      type: DT_INT32
    }
  }
}
node {
  name: "filter_type_all/MatMul_5"
  op: "MatMul"
  input: "filter_type_all/add_7"
  input: "filter_type_all/matrix_2_1/read"
  attr {
    key: "T"
    value {
      type: DT_DOUBLE
    }
  }
  attr {
    key: "transpose_a"
    value {
      b: false
    }
  }
  attr {
    key: "transpose_b"
    value {
      b: false
    }
  }
}
node {
  name: "filter_type_all/add_8"
  op: "Add"
  input: "filter_type_all/MatMul_5"
  input: "filter_type_all/bias_2_1/read"
  attr {
    key: "T"
    value {
      type: DT_DOUBLE
    }
  }
}
node {
  name: "filter_type_all/Tanh_4"
  op: "Tanh"
  input: "filter_type_all/add_8"
  attr {
    key: "T"
    value {
      type: DT_DOUBLE
    }
  }
}
node {
  name: "filter_type_all/Reshape_10"
  op: "Reshape"
  input: "filter_type_all/Tanh_4"
  input: "filter_type_all/Reshape_10/shape"
  attr {
    key: "T"
    value {
      type: DT_DOUBLE
    }
  }
  attr {
    key: "Tshape"
    value {
      type: DT_INT32
    }
  }
}
node {
  name: "filter_type_all/add_9"
  op: "Add"
  input: "filter_type_all/concat_4"
  input: "filter_type_all/Reshape_10"
  attr {
    key: "T"
    value {
      type: DT_DOUBLE
    }
  }
}
node {
  name: "filter_type_all/concat_5"
  op: "ConcatV2"
  input: "filter_type_all/add_9"
  input: "filter_type_all/add_9"
  input: "filter_type_all/concat_5/axis"
  attr {
    key: "N"
    value {
      i: 2
    }
  }
  attr {
    key: "T"
    value {
      type: DT_DOUBLE
    }
  }
  attr {
    key: "Tidx"
    value {
      type: DT_INT32
    }
  }
}
node {
  name: "filter_type_all/MatMul_6"
  op: "MatMul"
  input: "filter_type_all/add_9"
  input: "filter_type_all/matrix_3_1/read"
  attr {
    key: "T"
    value {
      type: DT_DOUBLE
    }
  }
  attr {
    key: "transpose_a"
    value {
      b: false
    }
  }
  attr {
    key: "transpose_b"
    value {
      b: false
    }
  }
}
node {
  name: "filter_type_all/add_10"
  op: "Add"
  input: "filter_type_all/MatMul_6"
  input: "filter_type_all/bias_3_1/read"
  attr {
    key: "T"
    value {
      type: DT_DOUBLE
    }
  }
}
node {
  name: "filter_type_all/Tanh_5"
  op: "Tanh"
  input: "filter_type_all/add_10"
  attr {
    key: "T"
    value {
      type: DT_DOUBLE
    }
  }
}
node {
  name: "filter_type_all/Reshape_11"
  op: "Reshape"
  input: "filter_type_all/Tanh_5"
  input: "filter_type_all/Reshape_11/shape"
  attr {
    key: "T"
    value {
      type: DT_DOUBLE
    }
  }
  attr {
    key: "Tshape"
    value {
      type: DT_INT32
    }
  }
}
node {
  name: "filter_type_all/add_11"
  op: "Add"
  input: "filter_type_all/concat_5"
  input: "filter_type_all/Reshape_11"
  attr {
    key: "T"
    value {
      type: DT_DOUBLE
    }
  }
}
node {
  name: "filter_type_all/Reshape_12"
  op: "Reshape"
  input: "filter_type_all/add_11"
  input: "filter_type_all/Reshape_12/shape"
  attr {
    key: "T"
    value {
      type: DT_DOUBLE
    }
  }
  attr {
    key: "Tshape"
    value {
      type: DT_INT32
    }
  }
}
node {
  name: "filter_type_all/MatMul_7"
  op: "BatchMatMul"
  input: "filter_type_all/Reshape_13"
  input: "filter_type_all/Reshape_12"
  attr {
    key: "T"
    value {
      type: DT_DOUBLE
    }
  }
  attr {
    key: "adj_x"
    value {
      b: true
    }
  }
  attr {
    key: "adj_y"
    value {
      b: false
    }
  }
}
node {
  name: "filter_type_all/Slice"
  op: "Slice"
  input: "Reshape_5"
  input: "filter_type_all/Slice/begin"
  input: "filter_type_all/Slice/size"
  attr {
    key: "Index"
    value {
      type: DT_INT32
    }
  }
  attr {
    key: "T"
    value {
      type: DT_DOUBLE
    }
  }
}
node {
  name: "filter_type_all/Reshape_6"
  op: "Reshape"
  input: "filter_type_all/Slice"
  input: "filter_type_all/Reshape_6/shape"
  attr {
    key: "T"
    value {
      type: DT_DOUBLE
    }
  }
  attr {
    key: "Tshape"
    value {
      type: DT_INT32
    }
  }
}
node {
  name: "filter_type_all/Reshape"
  op: "Reshape"
  input: "filter_type_all/Slice"
  input: "filter_type_all/Reshape/shape"
  attr {
    key: "T"
    value {
      type: DT_DOUBLE
    }
  }
  attr {
    key: "Tshape"
    value {
      type: DT_INT32
    }
  }
}
node {
  name: "filter_type_all/Slice_1"
  op: "Slice"
  input: "filter_type_all/Reshape"
  input: "filter_type_all/Slice_1/begin"
  input: "filter_type_all/Slice_1/size"
  attr {
    key: "Index"
    value {
      type: DT_INT32
    }
  }
  attr {
    key: "T"
    value {
      type: DT_DOUBLE
    }
  }
}
node {
  name: "filter_type_all/Reshape_1"
  op: "Reshape"
  input: "filter_type_all/Slice_1"
  input: "filter_type_all/Reshape_1/shape"
  attr {
    key: "T"
    value {
      type: DT_DOUBLE
    }
  }
  attr {
    key: "Tshape"
    value {
      type: DT_INT32
    }
  }
}
node {
  name: "filter_type_all/concat"
  op: "ConcatV2"
  input: "filter_type_all/Reshape_1"
  input: "filter_type_all/Reshape_1"
  input: "filter_type_all/concat/axis"
  attr {
    key: "N"
    value {
      i: 2
    }
  }
  attr {
    key: "T"
    value {
      type: DT_DOUBLE
    }
  }
  attr {
    key: "Tidx"
    value {
      type: DT_INT32
    }
  }
}
node {
  name: "filter_type_all/MatMul"
  op: "MatMul"
  input: "filter_type_all/Reshape_1"
  input: "filter_type_all/matrix_1_0/read"
  attr {
    key: "T"
    value {
      type: DT_DOUBLE
    }
  }
  attr {
    key: "transpose_a"
    value {
      b: false
    }
  }
  attr {
    key: "transpose_b"
    value {
      b: false
    }
  }
}
node {
  name: "filter_type_all/add"
  op: "Add"
  input: "filter_type_all/MatMul"
  input: "filter_type_all/bias_1_0/read"
  attr {
    key: "T"
    value {
      type: DT_DOUBLE
    }
  }
}
node {
  name: "filter_type_all/Tanh"
  op: "Tanh"
  input: "filter_type_all/add"
  attr {
    key: "T"
    value {
      type: DT_DOUBLE
    }
  }
}
node {
  name: "filter_type_all/Reshape_2"
  op: "Reshape"
  input: "filter_type_all/Tanh"
  input: "filter_type_all/Reshape_2/shape"
  attr {
    key: "T"
    value {
      type: DT_DOUBLE
    }
  }
  attr {
    key: "Tshape"
    value {
      type: DT_INT32
    }
  }
}
node {
  name: "filter_type_all/add_1"
  op: "Add"
  input: "filter_type_all/concat"
  input: "filter_type_all/Reshape_2"
  attr {
    key: "T"
    value {
      type: DT_DOUBLE
    }
  }
}
node {
  name: "filter_type_all/concat_1"
  op: "ConcatV2"
  input: "filter_type_all/add_1"
  input: "filter_type_all/add_1"
  input: "filter_type_all/concat_1/axis"
  attr {
    key: "N"
    value {
      i: 2
    }
  }
  attr {
    key: "T"
    value {
      type: DT_DOUBLE
    }
  }
  attr {
    key: "Tidx"
    value {
      type: DT_INT32
    }
  }
}
node {
  name: "filter_type_all/MatMul_1"
  op: "MatMul"
  input: "filter_type_all/add_1"
  input: "filter_type_all/matrix_2_0/read"
  attr {
    key: "T"
    value {
      type: DT_DOUBLE
    }
  }
  attr {
    key: "transpose_a"
    value {
      b: false
    }
  }
  attr {
    key: "transpose_b"
    value {
      b: false
    }
  }
}
node {
  name: "filter_type_all/add_2"
  op: "Add"
  input: "filter_type_all/MatMul_1"
  input: "filter_type_all/bias_2_0/read"
  attr {
    key: "T"
    value {
      type: DT_DOUBLE
    }
  }
}
node {
  name: "filter_type_all/Tanh_1"
  op: "Tanh"
  input: "filter_type_all/add_2"
  attr {
    key: "T"
    value {
      type: DT_DOUBLE
    }
  }
}
node {
  name: "filter_type_all/Reshape_3"
  op: "Reshape"
  input: "filter_type_all/Tanh_1"
  input: "filter_type_all/Reshape_3/shape"
  attr {
    key: "T"
    value {
      type: DT_DOUBLE
    }
  }
  attr {
    key: "Tshape"
    value {
      type: DT_INT32
    }
  }
}
node {
  name: "filter_type_all/add_3"
  op: "Add"
  input: "filter_type_all/concat_1"
  input: "filter_type_all/Reshape_3"
  attr {
    key: "T"
    value {
      type: DT_DOUBLE
    }
  }
}
node {
  name: "filter_type_all/concat_2"
  op: "ConcatV2"
  input: "filter_type_all/add_3"
  input: "filter_type_all/add_3"
  input: "filter_type_all/concat_2/axis"
  attr {
    key: "N"
    value {
      i: 2
    }
  }
  attr {
    key: "T"
    value {
      type: DT_DOUBLE
    }
  }
  attr {
    key: "Tidx"
    value {
      type: DT_INT32
    }
  }
}
node {
  name: "filter_type_all/MatMul_2"
  op: "MatMul"
  input: "filter_type_all/add_3"
  input: "filter_type_all/matrix_3_0/read"
  attr {
    key: "T"
    value {
      type: DT_DOUBLE
    }
  }
  attr {
    key: "transpose_a"
    value {
      b: false
    }
  }
  attr {
    key: "transpose_b"
    value {
      b: false
    }
  }
}
node {
  name: "filter_type_all/add_4"
  op: "Add"
  input: "filter_type_all/MatMul_2"
  input: "filter_type_all/bias_3_0/read"
  attr {
    key: "T"
    value {
      type: DT_DOUBLE
    }
  }
}
node {
  name: "filter_type_all/Tanh_2"
  op: "Tanh"
  input: "filter_type_all/add_4"
  attr {
    key: "T"
    value {
      type: DT_DOUBLE
    }
  }
}
node {
  name: "filter_type_all/Reshape_4"
  op: "Reshape"
  input: "filter_type_all/Tanh_2"
  input: "filter_type_all/Reshape_4/shape"
  attr {
    key: "T"
    value {
      type: DT_DOUBLE
    }
  }
  attr {
    key: "Tshape"
    value {
      type: DT_INT32
    }
  }
}
node {
  name: "filter_type_all/add_5"
  op: "Add"
  input: "filter_type_all/concat_2"
  input: "filter_type_all/Reshape_4"
  attr {
    key: "T"
    value {
      type: DT_DOUBLE
    }
  }
}
node {
  name: "filter_type_all/Reshape_5"
  op: "Reshape"
  input: "filter_type_all/add_5"
  input: "filter_type_all/Reshape_5/shape"
  attr {
    key: "T"
    value {
      type: DT_DOUBLE
    }
  }
  attr {
    key: "Tshape"
    value {
      type: DT_INT32
    }
  }
}
node {
  name: "filter_type_all/MatMul_3"
  op: "BatchMatMul"
  input: "filter_type_all/Reshape_6"
  input: "filter_type_all/Reshape_5"
  attr {
    key: "T"
    value {
      type: DT_DOUBLE
    }
  }
  attr {
    key: "adj_x"
    value {
      b: true
    }
  }
  attr {
    key: "adj_y"
    value {
      b: false
    }
  }
}
node {
  name: "filter_type_all/add_12"
  op: "Add"
  input: "filter_type_all/MatMul_3"
  input: "filter_type_all/MatMul_7"
  attr {
    key: "T"
    value {
      type: DT_DOUBLE
    }
  }
}
node {
  name: "filter_type_all/add_19"
  op: "Add"
  input: "filter_type_all/add_12"
  input: "filter_type_all/MatMul_11"
  attr {
    key: "T"
    value {
      type: DT_DOUBLE
    }
  }
}
node {
  name: "filter_type_all/add_26"
  op: "Add"
  input: "filter_type_all/add_19"
  input: "filter_type_all/MatMul_15"
  attr {
    key: "T"
    value {
      type: DT_DOUBLE
    }
  }
}
node {
  name: "filter_type_all/add_33"
  op: "Add"
  input: "filter_type_all/add_26"
  input: "filter_type_all/MatMul_19"
  attr {
    key: "T"
    value {
      type: DT_DOUBLE
    }
  }
}
node {
  name: "filter_type_all/mul"
  op: "Mul"
  input: "filter_type_all/add_33"
  input: "filter_type_all/mul/y"
  attr {
    key: "T"
    value {
      type: DT_DOUBLE
    }
  }
}
node {
  name: "filter_type_all/Slice_11"
  op: "Slice"
  input: "filter_type_all/mul"
  input: "filter_type_all/Slice_11/begin"
  input: "filter_type_all/Slice_11/size"
  attr {
    key: "Index"
    value {
      type: DT_INT32
    }
  }
  attr {
    key: "T"
    value {
      type: DT_DOUBLE
    }
  }
}
node {
  name: "filter_type_all/transpose"
  op: "Transpose"
  input: "filter_type_all/Slice_11"
  input: "filter_type_all/transpose/perm"
  attr {
    key: "T"
    value {
      type: DT_DOUBLE
    }
  }
  attr {
    key: "Tperm"
    value {
      type: DT_INT32
    }
  }
}
node {
  name: "Reshape_7"
  op: "Reshape"
  input: "filter_type_all/transpose"
  input: "Reshape_7/shape"
  attr {
    key: "T"
    value {
      type: DT_DOUBLE
    }
  }
  attr {
    key: "Tshape"
    value {
      type: DT_INT32
    }
  }
}
node {
  name: "concat_1"
  op: "Identity"
  input: "Reshape_7"
  attr {
    key: "T"
    value {
      type: DT_DOUBLE
    }
  }
}
node {
  name: "o_rot_mat"
  op: "Identity"
  input: "concat_1"
  attr {
    key: "T"
    value {
      type: DT_DOUBLE
    }
  }
}
node {
  name: "Reshape_9"
  op: "Reshape"
  input: "o_rot_mat"
  input: "Reshape_9/shape"
  attr {
    key: "T"
    value {
      type: DT_DOUBLE
    }
  }
  attr {
    key: "Tshape"
    value {
      type: DT_INT32
    }
  }
}
node {
  name: "Slice_7"
  op: "Slice"
  input: "Reshape_9"
  input: "Slice_7/begin"
  input: "Slice_7/size"
  attr {
    key: "Index"
    value {
      type: DT_INT32
    }
  }
  attr {
    key: "T"
    value {
      type: DT_DOUBLE
    }
  }
}
node {
  name: "Reshape_19"
  op: "Reshape"
  input: "Slice_7"
  input: "Reshape_19/shape"
  attr {
    key: "T"
    value {
      type: DT_DOUBLE
    }
  }
  attr {
    key: "Tshape"
    value {
      type: DT_INT32
    }
  }
}
node {
  name: "Slice_3"
  op: "Slice"
  input: "Reshape_9"
  input: "Slice_3/begin"
  input: "Slice_3/size"
  attr {
    key: "Index"
    value {
      type: DT_INT32
    }
  }
  attr {
    key: "T"
    value {
      type: DT_DOUBLE
    }
  }
}
node {
  name: "Reshape_13"
  op: "Reshape"
  input: "Slice_3"
  input: "Reshape_13/shape"
  attr {
    key: "T"
    value {
      type: DT_DOUBLE
    }
  }
  attr {
    key: "Tshape"
    value {
      type: DT_INT32
    }
  }
}
node {
  name: "filter_type_all/Slice_10"
  op: "Slice"
  input: "filter_type_all/mul"
  input: "filter_type_all/Slice_10/begin"
  input: "filter_type_all/Slice_10/size"
  attr {
    key: "Index"
    value {
      type: DT_INT32
    }
  }
  attr {
    key: "T"
    value {
      type: DT_DOUBLE
    }
  }
}
node {
  name: "filter_type_all/MatMul_20"
  op: "BatchMatMul"
  input: "filter_type_all/mul"
  input: "filter_type_all/Slice_10"
  attr {
    key: "T"
    value {
      type: DT_DOUBLE
    }
  }
  attr {
    key: "adj_x"
    value {
      b: true
    }
  }
  attr {
    key: "adj_y"
    value {
      b: false
    }
  }
}
node {
  name: "filter_type_all/Reshape_35"
  op: "Reshape"
  input: "filter_type_all/MatMul_20"
  input: "filter_type_all/Reshape_35/shape"
  attr {
    key: "T"
    value {
      type: DT_DOUBLE
    }
  }
  attr {
    key: "Tshape"
    value {
      type: DT_INT32
    }
  }
}
node {
  name: "Reshape_6"
  op: "Reshape"
  input: "filter_type_all/Reshape_35"
  input: "Reshape_6/shape"
  attr {
    key: "T"
    value {
      type: DT_DOUBLE
    }
  }
  attr {
    key: "Tshape"
    value {
      type: DT_INT32
    }
  }
}
node {
  name: "concat"
  op: "Identity"
  input: "Reshape_6"
  attr {
    key: "T"
    value {
      type: DT_DOUBLE
    }
  }
}
node {
  name: "o_descriptor"
  op: "Identity"
  input: "concat"
  attr {
    key: "T"
    value {
      type: DT_DOUBLE
    }
  }
}
node {
  name: "Reshape_8"
  op: "Reshape"
  input: "o_descriptor"
  input: "Reshape_8/shape"
  attr {
    key: "T"
    value {
      type: DT_DOUBLE
    }
  }
  attr {
    key: "Tshape"
    value {
      type: DT_INT32
    }
  }
}
node {
  name: "Shape_5"
  op: "Shape"
  input: "Reshape_8"
  attr {
    key: "T"
    value {
      type: DT_DOUBLE
    }
  }
  attr {
    key: "out_type"
    value {
      type: DT_INT32
    }
  }
}
node {
  name: "strided_slice_27"
  op: "StridedSlice"
  input: "Shape_5"
  input: "strided_slice_27/stack"
  input: "strided_slice_27/stack_1"
  input: "strided_slice_27/stack_2"
  attr {
    key: "Index"
    value {
      type: DT_INT32
    }
  }
  attr {
    key: "T"
    value {
      type: DT_INT32
    }
  }
  attr {
    key: "begin_mask"
    value {
      i: 0
    }
  }
  attr {
    key: "ellipsis_mask"
    value {
      i: 0
    }
  }
  attr {
    key: "end_mask"
    value {
      i: 0
    }
  }
  attr {
    key: "new_axis_mask"
    value {
      i: 0
    }
  }
  attr {
    key: "shrink_axis_mask"
    value {
      i: 1
    }
  }
}
node {
  name: "Reshape_21/shape"
  op: "Pack"
  input: "strided_slice_27"
  input: "strided_slice_28"
  input: "Reshape_21/shape/2"
  attr {
    key: "N"
    value {
      i: 3
    }
  }
  attr {
    key: "T"
    value {
      type: DT_INT32
    }
  }
  attr {
    key: "axis"
    value {
      i: 0
    }
  }
}
node {
  name: "Shape_4"
  op: "Shape"
  input: "Reshape_8"
  attr {
    key: "T"
    value {
      type: DT_DOUBLE
    }
  }
  attr {
    key: "out_type"
    value {
      type: DT_INT32
    }
  }
}
node {
  name: "strided_slice_25"
  op: "StridedSlice"
  input: "Shape_4"
  input: "strided_slice_25/stack"
  input: "strided_slice_25/stack_1"
  input: "strided_slice_25/stack_2"
  attr {
    key: "Index"
    value {
      type: DT_INT32
    }
  }
  attr {
    key: "T"
    value {
      type: DT_INT32
    }
  }
  attr {
    key: "begin_mask"
    value {
      i: 0
    }
  }
  attr {
    key: "ellipsis_mask"
    value {
      i: 0
    }
  }
  attr {
    key: "end_mask"
    value {
      i: 0
    }
  }
  attr {
    key: "new_axis_mask"
    value {
      i: 0
    }
  }
  attr {
    key: "shrink_axis_mask"
    value {
      i: 1
    }
  }
}
node {
  name: "mul_22"
  op: "Mul"
  input: "strided_slice_25"
  input: "strided_slice_26"
  attr {
    key: "T"
    value {
      type: DT_INT32
    }
  }
}
node {
  name: "Reshape_20/shape"
  op: "Pack"
  input: "mul_22"
  input: "Reshape_20/shape/1"
  input: "Reshape_20/shape/2"
  attr {
    key: "N"
    value {
      i: 3
    }
  }
  attr {
    key: "T"
    value {
      type: DT_INT32
    }
  }
  attr {
    key: "axis"
    value {
      i: 0
    }
  }
}
node {
  name: "Slice_6"
  op: "Slice"
  input: "Reshape_8"
  input: "Slice_6/begin"
  input: "Slice_6/size"
  attr {
    key: "Index"
    value {
      type: DT_INT32
    }
  }
  attr {
    key: "T"
    value {
      type: DT_DOUBLE
    }
  }
}
node {
  name: "Reshape_18"
  op: "Reshape"
  input: "Slice_6"
  input: "Reshape_18/shape"
  attr {
    key: "T"
    value {
      type: DT_DOUBLE
    }
  }
  attr {
    key: "Tshape"
    value {
      type: DT_INT32
    }
  }
}
node {
  name: "layer_0_type_3/MatMul"
  op: "MatMul"
  input: "Reshape_18"
  input: "layer_0_type_3/matrix/read"
  attr {
    key: "T"
    value {
      type: DT_DOUBLE
    }
  }
  attr {
    key: "transpose_a"
    value {
      b: false
    }
  }
  attr {
    key: "transpose_b"
    value {
      b: false
    }
  }
}
node {
  name: "layer_0_type_3/add"
  op: "Add"
  input: "layer_0_type_3/MatMul"
  input: "layer_0_type_3/bias/read"
  attr {
    key: "T"
    value {
      type: DT_DOUBLE
    }
  }
}
node {
  name: "layer_0_type_3/Tanh"
  op: "Tanh"
  input: "layer_0_type_3/add"
  attr {
    key: "T"
    value {
      type: DT_DOUBLE
    }
  }
}
node {
  name: "layer_0_type_3/Reshape"
  op: "Reshape"
  input: "layer_0_type_3/Tanh"
  input: "layer_0_type_3/Reshape/shape"
  attr {
    key: "T"
    value {
      type: DT_DOUBLE
    }
  }
  attr {
    key: "Tshape"
    value {
      type: DT_INT32
    }
  }
}
node {
  name: "layer_1_type_3/MatMul"
  op: "MatMul"
  input: "layer_0_type_3/Reshape"
  input: "layer_1_type_3/matrix/read"
  attr {
    key: "T"
    value {
      type: DT_DOUBLE
    }
  }
  attr {
    key: "transpose_a"
    value {
      b: false
    }
  }
  attr {
    key: "transpose_b"
    value {
      b: false
    }
  }
}
node {
  name: "layer_1_type_3/add"
  op: "Add"
  input: "layer_1_type_3/MatMul"
  input: "layer_1_type_3/bias/read"
  attr {
    key: "T"
    value {
      type: DT_DOUBLE
    }
  }
}
node {
  name: "layer_1_type_3/Tanh"
  op: "Tanh"
  input: "layer_1_type_3/add"
  attr {
    key: "T"
    value {
      type: DT_DOUBLE
    }
  }
}
node {
  name: "layer_1_type_3/Reshape"
  op: "Reshape"
  input: "layer_1_type_3/Tanh"
  input: "layer_1_type_3/Reshape/shape"
  attr {
    key: "T"
    value {
      type: DT_DOUBLE
    }
  }
  attr {
    key: "Tshape"
    value {
      type: DT_INT32
    }
  }
}
node {
  name: "layer_1_type_3/mul"
  op: "Mul"
  input: "layer_1_type_3/Reshape"
  input: "layer_1_type_3/idt/read"
  attr {
    key: "T"
    value {
      type: DT_DOUBLE
    }
  }
}
node {
  name: "add_6"
  op: "Add"
  input: "layer_0_type_3/Reshape"
  input: "layer_1_type_3/mul"
  attr {
    key: "T"
    value {
      type: DT_DOUBLE
    }
  }
}
node {
  name: "layer_2_type_3/MatMul"
  op: "MatMul"
  input: "add_6"
  input: "layer_2_type_3/matrix/read"
  attr {
    key: "T"
    value {
      type: DT_DOUBLE
    }
  }
  attr {
    key: "transpose_a"
    value {
      b: false
    }
  }
  attr {
    key: "transpose_b"
    value {
      b: false
    }
  }
}
node {
  name: "layer_2_type_3/add"
  op: "Add"
  input: "layer_2_type_3/MatMul"
  input: "layer_2_type_3/bias/read"
  attr {
    key: "T"
    value {
      type: DT_DOUBLE
    }
  }
}
node {
  name: "layer_2_type_3/Tanh"
  op: "Tanh"
  input: "layer_2_type_3/add"
  attr {
    key: "T"
    value {
      type: DT_DOUBLE
    }
  }
}
node {
  name: "layer_2_type_3/Reshape"
  op: "Reshape"
  input: "layer_2_type_3/Tanh"
  input: "layer_2_type_3/Reshape/shape"
  attr {
    key: "T"
    value {
      type: DT_DOUBLE
    }
  }
  attr {
    key: "Tshape"
    value {
      type: DT_INT32
    }
  }
}
node {
  name: "layer_2_type_3/mul"
  op: "Mul"
  input: "layer_2_type_3/Reshape"
  input: "layer_2_type_3/idt/read"
  attr {
    key: "T"
    value {
      type: DT_DOUBLE
    }
  }
}
node {
  name: "add_7"
  op: "Add"
  input: "add_6"
  input: "layer_2_type_3/mul"
  attr {
    key: "T"
    value {
      type: DT_DOUBLE
    }
  }
}
node {
  name: "final_layer_type_3/MatMul"
  op: "MatMul"
  input: "add_7"
  input: "final_layer_type_3/matrix/read"
  attr {
    key: "T"
    value {
      type: DT_DOUBLE
    }
  }
  attr {
    key: "transpose_a"
    value {
      b: false
    }
  }
  attr {
    key: "transpose_b"
    value {
      b: false
    }
  }
}
node {
  name: "final_layer_type_3/add"
  op: "Add"
  input: "final_layer_type_3/MatMul"
  input: "final_layer_type_3/bias/read"
  attr {
    key: "T"
    value {
      type: DT_DOUBLE
    }
  }
}
node {
  name: "Reshape_20"
  op: "Reshape"
  input: "final_layer_type_3/add"
  input: "Reshape_20/shape"
  attr {
    key: "T"
    value {
      type: DT_DOUBLE
    }
  }
  attr {
    key: "Tshape"
    value {
      type: DT_INT32
    }
  }
}
node {
  name: "MatMul_1"
  op: "BatchMatMul"
  input: "Reshape_20"
  input: "Reshape_19"
  attr {
    key: "T"
    value {
      type: DT_DOUBLE
    }
  }
  attr {
    key: "adj_x"
    value {
      b: false
    }
  }
  attr {
    key: "adj_y"
    value {
      b: false
    }
  }
}
node {
  name: "Reshape_21"
  op: "Reshape"
  input: "MatMul_1"
  input: "Reshape_21/shape"
  attr {
    key: "T"
    value {
      type: DT_DOUBLE
    }
  }
  attr {
    key: "Tshape"
    value {
      type: DT_INT32
    }
  }
}
node {
  name: "Shape_3"
  op: "Shape"
  input: "Reshape_8"
  attr {
    key: "T"
    value {
      type: DT_DOUBLE
    }
  }
  attr {
    key: "out_type"
    value {
      type: DT_INT32
    }
  }
}
node {
  name: "strided_slice_17"
  op: "StridedSlice"
  input: "Shape_3"
  input: "strided_slice_17/stack"
  input: "strided_slice_17/stack_1"
  input: "strided_slice_17/stack_2"
  attr {
    key: "Index"
    value {
      type: DT_INT32
    }
  }
  attr {
    key: "T"
    value {
      type: DT_INT32
    }
  }
  attr {
    key: "begin_mask"
    value {
      i: 0
    }
  }
  attr {
    key: "ellipsis_mask"
    value {
      i: 0
    }
  }
  attr {
    key: "end_mask"
    value {
      i: 0
    }
  }
  attr {
    key: "new_axis_mask"
    value {
      i: 0
    }
  }
  attr {
    key: "shrink_axis_mask"
    value {
      i: 1
    }
  }
}
node {
  name: "Reshape_15/shape"
  op: "Pack"
  input: "strided_slice_17"
  input: "strided_slice_18"
  input: "Reshape_15/shape/2"
  attr {
    key: "N"
    value {
      i: 3
    }
  }
  attr {
    key: "T"
    value {
      type: DT_INT32
    }
  }
  attr {
    key: "axis"
    value {
      i: 0
    }
  }
}
node {
  name: "Shape_2"
  op: "Shape"
  input: "Reshape_8"
  attr {
    key: "T"
    value {
      type: DT_DOUBLE
    }
  }
  attr {
    key: "out_type"
    value {
      type: DT_INT32
    }
  }
}
node {
  name: "strided_slice_15"
  op: "StridedSlice"
  input: "Shape_2"
  input: "strided_slice_15/stack"
  input: "strided_slice_15/stack_1"
  input: "strided_slice_15/stack_2"
  attr {
    key: "Index"
    value {
      type: DT_INT32
    }
  }
  attr {
    key: "T"
    value {
      type: DT_INT32
    }
  }
  attr {
    key: "begin_mask"
    value {
      i: 0
    }
  }
  attr {
    key: "ellipsis_mask"
    value {
      i: 0
    }
  }
  attr {
    key: "end_mask"
    value {
      i: 0
    }
  }
  attr {
    key: "new_axis_mask"
    value {
      i: 0
    }
  }
  attr {
    key: "shrink_axis_mask"
    value {
      i: 1
    }
  }
}
node {
  name: "mul_13"
  op: "Mul"
  input: "strided_slice_15"
  input: "strided_slice_16"
  attr {
    key: "T"
    value {
      type: DT_INT32
    }
  }
}
node {
  name: "Reshape_14/shape"
  op: "Pack"
  input: "mul_13"
  input: "Reshape_14/shape/1"
  input: "Reshape_14/shape/2"
  attr {
    key: "N"
    value {
      i: 3
    }
  }
  attr {
    key: "T"
    value {
      type: DT_INT32
    }
  }
  attr {
    key: "axis"
    value {
      i: 0
    }
  }
}
node {
  name: "Slice_2"
  op: "Slice"
  input: "Reshape_8"
  input: "Slice_2/begin"
  input: "Slice_2/size"
  attr {
    key: "Index"
    value {
      type: DT_INT32
    }
  }
  attr {
    key: "T"
    value {
      type: DT_DOUBLE
    }
  }
}
node {
  name: "Reshape_12"
  op: "Reshape"
  input: "Slice_2"
  input: "Reshape_12/shape"
  attr {
    key: "T"
    value {
      type: DT_DOUBLE
    }
  }
  attr {
    key: "Tshape"
    value {
      type: DT_INT32
    }
  }
}
node {
  name: "layer_0_type_1/MatMul"
  op: "MatMul"
  input: "Reshape_12"
  input: "layer_0_type_1/matrix/read"
  attr {
    key: "T"
    value {
      type: DT_DOUBLE
    }
  }
  attr {
    key: "transpose_a"
    value {
      b: false
    }
  }
  attr {
    key: "transpose_b"
    value {
      b: false
    }
  }
}
node {
  name: "layer_0_type_1/add"
  op: "Add"
  input: "layer_0_type_1/MatMul"
  input: "layer_0_type_1/bias/read"
  attr {
    key: "T"
    value {
      type: DT_DOUBLE
    }
  }
}
node {
  name: "layer_0_type_1/Tanh"
  op: "Tanh"
  input: "layer_0_type_1/add"
  attr {
    key: "T"
    value {
      type: DT_DOUBLE
    }
  }
}
node {
  name: "layer_0_type_1/Reshape"
  op: "Reshape"
  input: "layer_0_type_1/Tanh"
  input: "layer_0_type_1/Reshape/shape"
  attr {
    key: "T"
    value {
      type: DT_DOUBLE
    }
  }
  attr {
    key: "Tshape"
    value {
      type: DT_INT32
    }
  }
}
node {
  name: "layer_1_type_1/MatMul"
  op: "MatMul"
  input: "layer_0_type_1/Reshape"
  input: "layer_1_type_1/matrix/read"
  attr {
    key: "T"
    value {
      type: DT_DOUBLE
    }
  }
  attr {
    key: "transpose_a"
    value {
      b: false
    }
  }
  attr {
    key: "transpose_b"
    value {
      b: false
    }
  }
}
node {
  name: "layer_1_type_1/add"
  op: "Add"
  input: "layer_1_type_1/MatMul"
  input: "layer_1_type_1/bias/read"
  attr {
    key: "T"
    value {
      type: DT_DOUBLE
    }
  }
}
node {
  name: "layer_1_type_1/Tanh"
  op: "Tanh"
  input: "layer_1_type_1/add"
  attr {
    key: "T"
    value {
      type: DT_DOUBLE
    }
  }
}
node {
  name: "layer_1_type_1/Reshape"
  op: "Reshape"
  input: "layer_1_type_1/Tanh"
  input: "layer_1_type_1/Reshape/shape"
  attr {
    key: "T"
    value {
      type: DT_DOUBLE
    }
  }
  attr {
    key: "Tshape"
    value {
      type: DT_INT32
    }
  }
}
node {
  name: "layer_1_type_1/mul"
  op: "Mul"
  input: "layer_1_type_1/Reshape"
  input: "layer_1_type_1/idt/read"
  attr {
    key: "T"
    value {
      type: DT_DOUBLE
    }
  }
}
node {
  name: "add_2"
  op: "Add"
  input: "layer_0_type_1/Reshape"
  input: "layer_1_type_1/mul"
  attr {
    key: "T"
    value {
      type: DT_DOUBLE
    }
  }
}
node {
  name: "layer_2_type_1/MatMul"
  op: "MatMul"
  input: "add_2"
  input: "layer_2_type_1/matrix/read"
  attr {
    key: "T"
    value {
      type: DT_DOUBLE
    }
  }
  attr {
    key: "transpose_a"
    value {
      b: false
    }
  }
  attr {
    key: "transpose_b"
    value {
      b: false
    }
  }
}
node {
  name: "layer_2_type_1/add"
  op: "Add"
  input: "layer_2_type_1/MatMul"
  input: "layer_2_type_1/bias/read"
  attr {
    key: "T"
    value {
      type: DT_DOUBLE
    }
  }
}
node {
  name: "layer_2_type_1/Tanh"
  op: "Tanh"
  input: "layer_2_type_1/add"
  attr {
    key: "T"
    value {
      type: DT_DOUBLE
    }
  }
}
node {
  name: "layer_2_type_1/Reshape"
  op: "Reshape"
  input: "layer_2_type_1/Tanh"
  input: "layer_2_type_1/Reshape/shape"
  attr {
    key: "T"
    value {
      type: DT_DOUBLE
    }
  }
  attr {
    key: "Tshape"
    value {
      type: DT_INT32
    }
  }
}
node {
  name: "layer_2_type_1/mul"
  op: "Mul"
  input: "layer_2_type_1/Reshape"
  input: "layer_2_type_1/idt/read"
  attr {
    key: "T"
    value {
      type: DT_DOUBLE
    }
  }
}
node {
  name: "add_3"
  op: "Add"
  input: "add_2"
  input: "layer_2_type_1/mul"
  attr {
    key: "T"
    value {
      type: DT_DOUBLE
    }
  }
}
node {
  name: "final_layer_type_1/MatMul"
  op: "MatMul"
  input: "add_3"
  input: "final_layer_type_1/matrix/read"
  attr {
    key: "T"
    value {
      type: DT_DOUBLE
    }
  }
  attr {
    key: "transpose_a"
    value {
      b: false
    }
  }
  attr {
    key: "transpose_b"
    value {
      b: false
    }
  }
}
node {
  name: "final_layer_type_1/add"
  op: "Add"
  input: "final_layer_type_1/MatMul"
  input: "final_layer_type_1/bias/read"
  attr {
    key: "T"
    value {
      type: DT_DOUBLE
    }
  }
}
node {
  name: "Reshape_14"
  op: "Reshape"
  input: "final_layer_type_1/add"
  input: "Reshape_14/shape"
  attr {
    key: "T"
    value {
      type: DT_DOUBLE
    }
  }
  attr {
    key: "Tshape"
    value {
      type: DT_INT32
    }
  }
}
node {
  name: "MatMul"
  op: "BatchMatMul"
  input: "Reshape_14"
  input: "Reshape_13"
  attr {
    key: "T"
    value {
      type: DT_DOUBLE
    }
  }
  attr {
    key: "adj_x"
    value {
      b: false
    }
  }
  attr {
    key: "adj_y"
    value {
      b: false
    }
  }
}
node {
  name: "Reshape_15"
  op: "Reshape"
  input: "MatMul"
  input: "Reshape_15/shape"
  attr {
    key: "T"
    value {
      type: DT_DOUBLE
    }
  }
  attr {
    key: "Tshape"
    value {
      type: DT_INT32
    }
  }
}
node {
  name: "concat_2"
  op: "ConcatV2"
  input: "Reshape_15"
  input: "Reshape_21"
  input: "concat_2/axis"
  attr {
    key: "N"
    value {
      i: 2
    }
  }
  attr {
    key: "T"
    value {
      type: DT_DOUBLE
    }
  }
  attr {
    key: "Tidx"
    value {
      type: DT_INT32
    }
  }
}
node {
  name: "Reshape_24"
  op: "Reshape"
  input: "concat_2"
  input: "Reshape_24/shape"
  attr {
    key: "T"
    value {
      type: DT_DOUBLE
    }
  }
  attr {
    key: "Tshape"
    value {
      type: DT_INT32
    }
  }
}
node {
  name: "o_dipole"
  op: "Identity"
  input: "Reshape_24"
  attr {
    key: "T"
    value {
      type: DT_DOUBLE
    }
  }
}
library {
}
