node {
  name: "train_attr/training_script"
  op: "Const"
  attr {
    key: "dtype"
    value {
      type: DT_STRING
    }
  }
  attr {
    key: "value"
    value {
      tensor {
        dtype: DT_STRING
        tensor_shape {
        }
        string_val: "…"
      }
    }
  }
}
node {
  name: "model_type"
  op: "Const"
  attr {
    key: "dtype"
    value {
      type: DT_STRING
    }
  }
  attr {
    key: "value"
    value {
      tensor {
        dtype: DT_STRING
        tensor_shape {
        }
        string_val: "original_model"
      }
    }
  }
}
node {
  name: "t_box"
  op: "Placeholder"
  attr {
    key: "dtype"
    value {
      type: DT_DOUBLE
    }
  }
  attr {
    key: "shape"
    value {
      shape {
        dim {
          size: -1
        }
      }
    }
  }
}
node {
  name: "t_coord"
  op: "Placeholder"
  attr {
    key: "dtype"
    value {
      type: DT_DOUBLE
    }
  }
  attr {
    key: "shape"
    value {
      shape {
        dim {
          size: -1
        }
      }
    }
  }
}
node {
  name: "t_aparam"
  op: "Placeholder"
  attr {
    key: "dtype"
    value {
      type: DT_DOUBLE
    }
  }
  attr {
    key: "shape"
    value {
      shape {
        dim {
          size: -1
        }
      }
    }
  }
}
node {
  name: "t_type"
  op: "Placeholder"
  attr {
    key: "dtype"
    value {
      type: DT_INT32
    }
  }
  attr {
    key: "shape"
    value {
      shape {
        dim {
          size: -1
        }
      }
    }
  }
}
node {
  name: "t_natoms"
  op: "Placeholder"
  attr {
    key: "dtype"
    value {
      type: DT_INT32
    }
  }
  attr {
    key: "shape"
    value {
      shape {
        dim {
          size: 8
        }
      }
    }
  }
}
node {
  name: "t_mesh"
  op: "Placeholder"
  attr {
    key: "dtype"
    value {
      type: DT_INT32
    }
  }
  attr {
    key: "shape"
    value {
      shape {
        dim {
          size: -1
        }
      }
    }
  }
}
node {
  name: "model_attr/tmap"
  op: "Const"
  attr {
    key: "dtype"
    value {
      type: DT_STRING
    }
  }
  attr {
    key: "value"
    value {
      tensor {
        dtype: DT_STRING
        tensor_shape {
        }
        string_val: "C O N H S ZN"
      }
    }
  }
}
node {
  name: "model_attr/model_type"
  op: "Const"
  attr {
    key: "dtype"
    value {
      type: DT_STRING
    }
  }
  attr {
    key: "value"
    value {
      tensor {
        dtype: DT_STRING
        tensor_shape {
        }
        string_val: "ener"
      }
    }
  }
}
node {
  name: "model_attr/model_version"
  op: "Const"
  attr {
    key: "dtype"
    value {
      type: DT_STRING
    }
  }
  attr {
    key: "value"
    value {
      tensor {
        dtype: DT_STRING
        tensor_shape {
        }
        string_val: "1.1"
      }
    }
  }
}
node {
  name: "strided_slice/stack"
  op: "Const"
  attr {
    key: "dtype"
    value {
      type: DT_INT32
    }
  }
  attr {
    key: "value"
    value {
      tensor {
        dtype: DT_INT32
        tensor_shape {
          dim {
            size: 1
          }
        }
        int_val: 1
      }
    }
  }
}
node {
  name: "strided_slice/stack_1"
  op: "Const"
  attr {
    key: "dtype"
    value {
      type: DT_INT32
    }
  }
  attr {
    key: "value"
    value {
      tensor {
        dtype: DT_INT32
        tensor_shape {
          dim {
            size: 1
          }
        }
        int_val: 2
      }
    }
  }
}
node {
  name: "strided_slice/stack_2"
  op: "Const"
  attr {
    key: "dtype"
    value {
      type: DT_INT32
    }
  }
  attr {
    key: "value"
    value {
      tensor {
        dtype: DT_INT32
        tensor_shape {
          dim {
            size: 1
          }
        }
        int_val: 1
      }
    }
  }
}
node {
  name: "strided_slice"
  op: "StridedSlice"
  input: "t_natoms"
  input: "strided_slice/stack"
  input: "strided_slice/stack_1"
  input: "strided_slice/stack_2"
  attr {
    key: "Index"
    value {
      type: DT_INT32
    }
  }
  attr {
    key: "T"
    value {
      type: DT_INT32
    }
  }
  attr {
    key: "begin_mask"
    value {
      i: 0
    }
  }
  attr {
    key: "ellipsis_mask"
    value {
      i: 0
    }
  }
  attr {
    key: "end_mask"
    value {
      i: 0
    }
  }
  attr {
    key: "new_axis_mask"
    value {
      i: 0
    }
  }
  attr {
    key: "shrink_axis_mask"
    value {
      i: 1
    }
  }
}
node {
  name: "mul/y"
  op: "Const"
  attr {
    key: "dtype"
    value {
      type: DT_INT32
    }
  }
  attr {
    key: "value"
    value {
      tensor {
        dtype: DT_INT32
        tensor_shape {
        }
        int_val: 3
      }
    }
  }
}
node {
  name: "mul"
  op: "Mul"
  input: "strided_slice"
  input: "mul/y"
  attr {
    key: "T"
    value {
      type: DT_INT32
    }
  }
}
node {
  name: "Reshape/shape/0"
  op: "Const"
  attr {
    key: "dtype"
    value {
      type: DT_INT32
    }
  }
  attr {
    key: "value"
    value {
      tensor {
        dtype: DT_INT32
        tensor_shape {
        }
        int_val: -1
      }
    }
  }
}
node {
  name: "Reshape/shape"
  op: "Pack"
  input: "Reshape/shape/0"
  input: "mul"
  attr {
    key: "N"
    value {
      i: 2
    }
  }
  attr {
    key: "T"
    value {
      type: DT_INT32
    }
  }
  attr {
    key: "axis"
    value {
      i: 0
    }
  }
}
node {
  name: "Reshape"
  op: "Reshape"
  input: "t_coord"
  input: "Reshape/shape"
  attr {
    key: "T"
    value {
      type: DT_DOUBLE
    }
  }
  attr {
    key: "Tshape"
    value {
      type: DT_INT32
    }
  }
}
node {
  name: "strided_slice_1/stack"
  op: "Const"
  attr {
    key: "dtype"
    value {
      type: DT_INT32
    }
  }
  attr {
    key: "value"
    value {
      tensor {
        dtype: DT_INT32
        tensor_shape {
          dim {
            size: 1
          }
        }
        int_val: 1
      }
    }
  }
}
node {
  name: "strided_slice_1/stack_1"
  op: "Const"
  attr {
    key: "dtype"
    value {
      type: DT_INT32
    }
  }
  attr {
    key: "value"
    value {
      tensor {
        dtype: DT_INT32
        tensor_shape {
          dim {
            size: 1
          }
        }
        int_val: 2
      }
    }
  }
}
node {
  name: "strided_slice_1/stack_2"
  op: "Const"
  attr {
    key: "dtype"
    value {
      type: DT_INT32
    }
  }
  attr {
    key: "value"
    value {
      tensor {
        dtype: DT_INT32
        tensor_shape {
          dim {
            size: 1
          }
        }
        int_val: 1
      }
    }
  }
}
node {
  name: "strided_slice_1"
  op: "StridedSlice"
  input: "t_natoms"
  input: "strided_slice_1/stack"
  input: "strided_slice_1/stack_1"
  input: "strided_slice_1/stack_2"
  attr {
    key: "Index"
    value {
      type: DT_INT32
    }
  }
  attr {
    key: "T"
    value {
      type: DT_INT32
    }
  }
  attr {
    key: "begin_mask"
    value {
      i: 0
    }
  }
  attr {
    key: "ellipsis_mask"
    value {
      i: 0
    }
  }
  attr {
    key: "end_mask"
    value {
      i: 0
    }
  }
  attr {
    key: "new_axis_mask"
    value {
      i: 0
    }
  }
  attr {
    key: "shrink_axis_mask"
    value {
      i: 1
    }
  }
}
node {
  name: "Reshape_1/shape/0"
  op: "Const"
  attr {
    key: "dtype"
    value {
      type: DT_INT32
    }
  }
  attr {
    key: "value"
    value {
      tensor {
        dtype: DT_INT32
        tensor_shape {
        }
        int_val: -1
      }
    }
  }
}
node {
  name: "Reshape_1/shape"
  op: "Pack"
  input: "Reshape_1/shape/0"
  input: "strided_slice_1"
  attr {
    key: "N"
    value {
      i: 2
    }
  }
  attr {
    key: "T"
    value {
      type: DT_INT32
    }
  }
  attr {
    key: "axis"
    value {
      i: 0
    }
  }
}
node {
  name: "Reshape_1"
  op: "Reshape"
  input: "t_type"
  input: "Reshape_1/shape"
  attr {
    key: "T"
    value {
      type: DT_INT32
    }
  }
  attr {
    key: "Tshape"
    value {
      type: DT_INT32
    }
  }
}
node {
  name: "Cast"
  op: "Cast"
  input: "t_aparam"
  attr {
    key: "DstT"
    value {
      type: DT_INT32
    }
  }
  attr {
    key: "SrcT"
    value {
      type: DT_DOUBLE
    }
  }
  attr {
    key: "Truncate"
    value {
      b: false
    }
  }
}
node {
  name: "strided_slice_3/stack"
  op: "Const"
  attr {
    key: "dtype"
    value {
      type: DT_INT32
    }
  }
  attr {
    key: "value"
    value {
      tensor {
        dtype: DT_INT32
        tensor_shape {
          dim {
            size: 1
          }
        }
        int_val: 1
      }
    }
  }
}
node {
  name: "strided_slice_3/stack_1"
  op: "Const"
  attr {
    key: "dtype"
    value {
      type: DT_INT32
    }
  }
  attr {
    key: "value"
    value {
      tensor {
        dtype: DT_INT32
        tensor_shape {
          dim {
            size: 1
          }
        }
        int_val: 2
      }
    }
  }
}
node {
  name: "strided_slice_3/stack_2"
  op: "Const"
  attr {
    key: "dtype"
    value {
      type: DT_INT32
    }
  }
  attr {
    key: "value"
    value {
      tensor {
        dtype: DT_INT32
        tensor_shape {
          dim {
            size: 1
          }
        }
        int_val: 1
      }
    }
  }
}
node {
  name: "strided_slice_3"
  op: "StridedSlice"
  input: "t_natoms"
  input: "strided_slice_3/stack"
  input: "strided_slice_3/stack_1"
  input: "strided_slice_3/stack_2"
  attr {
    key: "Index"
    value {
      type: DT_INT32
    }
  }
  attr {
    key: "T"
    value {
      type: DT_INT32
    }
  }
  attr {
    key: "begin_mask"
    value {
      i: 0
    }
  }
  attr {
    key: "ellipsis_mask"
    value {
      i: 0
    }
  }
  attr {
    key: "end_mask"
    value {
      i: 0
    }
  }
  attr {
    key: "new_axis_mask"
    value {
      i: 0
    }
  }
  attr {
    key: "shrink_axis_mask"
    value {
      i: 1
    }
  }
}
node {
  name: "Reshape_2/shape/0"
  op: "Const"
  attr {
    key: "dtype"
    value {
      type: DT_INT32
    }
  }
  attr {
    key: "value"
    value {
      tensor {
        dtype: DT_INT32
        tensor_shape {
        }
        int_val: -1
      }
    }
  }
}
node {
  name: "Reshape_2/shape"
  op: "Pack"
  input: "Reshape_2/shape/0"
  input: "strided_slice_3"
  attr {
    key: "N"
    value {
      i: 2
    }
  }
  attr {
    key: "T"
    value {
      type: DT_INT32
    }
  }
  attr {
    key: "axis"
    value {
      i: 0
    }
  }
}
node {
  name: "Reshape_2"
  op: "Reshape"
  input: "Cast"
  input: "Reshape_2/shape"
  attr {
    key: "T"
    value {
      type: DT_INT32
    }
  }
  attr {
    key: "Tshape"
    value {
      type: DT_INT32
    }
  }
}
node {
  name: "descrpt_attr/rcut"
  op: "Const"
  attr {
    key: "dtype"
    value {
      type: DT_DOUBLE
    }
  }
  attr {
    key: "value"
    value {
      tensor {
        dtype: DT_DOUBLE
        tensor_shape {
        }
        double_val: -1.0
      }
    }
  }
}
node {
  name: "descrpt_attr/ntypes"
  op: "Const"
  attr {
    key: "dtype"
    value {
      type: DT_INT32
    }
  }
  attr {
    key: "value"
    value {
      tensor {
        dtype: DT_INT32
        tensor_shape {
        }
        int_val: 6
      }
    }
  }
}
node {
  name: "strided_slice_4/stack"
  op: "Const"
  attr {
    key: "dtype"
    value {
      type: DT_INT32
    }
  }
  attr {
    key: "value"
    value {
      tensor {
        dtype: DT_INT32
        tensor_shape {
          dim {
            size: 1
          }
        }
        int_val: 1
      }
    }
  }
}
node {
  name: "strided_slice_4/stack_1"
  op: "Const"
  attr {
    key: "dtype"
    value {
      type: DT_INT32
    }
  }
  attr {
    key: "value"
    value {
      tensor {
        dtype: DT_INT32
        tensor_shape {
          dim {
            size: 1
          }
        }
        int_val: 2
      }
    }
  }
}
node {
  name: "strided_slice_4/stack_2"
  op: "Const"
  attr {
    key: "dtype"
    value {
      type: DT_INT32
    }
  }
  attr {
    key: "value"
    value {
      tensor {
        dtype: DT_INT32
        tensor_shape {
          dim {
            size: 1
          }
        }
        int_val: 1
      }
    }
  }
}
node {
  name: "strided_slice_4"
  op: "StridedSlice"
  input: "t_natoms"
  input: "strided_slice_4/stack"
  input: "strided_slice_4/stack_1"
  input: "strided_slice_4/stack_2"
  attr {
    key: "Index"
    value {
      type: DT_INT32
    }
  }
  attr {
    key: "T"
    value {
      type: DT_INT32
    }
  }
  attr {
    key: "begin_mask"
    value {
      i: 0
    }
  }
  attr {
    key: "ellipsis_mask"
    value {
      i: 0
    }
  }
  attr {
    key: "end_mask"
    value {
      i: 0
    }
  }
  attr {
    key: "new_axis_mask"
    value {
      i: 0
    }
  }
  attr {
    key: "shrink_axis_mask"
    value {
      i: 1
    }
  }
}
node {
  name: "mul_1/y"
  op: "Const"
  attr {
    key: "dtype"
    value {
      type: DT_INT32
    }
  }
  attr {
    key: "value"
    value {
      tensor {
        dtype: DT_INT32
        tensor_shape {
        }
        int_val: 3
      }
    }
  }
}
node {
  name: "mul_1"
  op: "Mul"
  input: "strided_slice_4"
  input: "mul_1/y"
  attr {
    key: "T"
    value {
      type: DT_INT32
    }
  }
}
node {
  name: "Reshape_3/shape/0"
  op: "Const"
  attr {
    key: "dtype"
    value {
      type: DT_INT32
    }
  }
  attr {
    key: "value"
    value {
      tensor {
        dtype: DT_INT32
        tensor_shape {
        }
        int_val: -1
      }
    }
  }
}
node {
  name: "Reshape_3/shape"
  op: "Pack"
  input: "Reshape_3/shape/0"
  input: "mul_1"
  attr {
    key: "N"
    value {
      i: 2
    }
  }
  attr {
    key: "T"
    value {
      type: DT_INT32
    }
  }
  attr {
    key: "axis"
    value {
      i: 0
    }
  }
}
node {
  name: "Reshape_3"
  op: "Reshape"
  input: "Reshape"
  input: "Reshape_3/shape"
  attr {
    key: "T"
    value {
      type: DT_DOUBLE
    }
  }
  attr {
    key: "Tshape"
    value {
      type: DT_INT32
    }
  }
}
node {
  name: "Reshape_4/shape"
  op: "Const"
  attr {
    key: "dtype"
    value {
      type: DT_INT32
    }
  }
  attr {
    key: "value"
    value {
      tensor {
        dtype: DT_INT32
        tensor_shape {
          dim {
            size: 2
          }
        }
        tensor_content: "\377\377\377\377\t\000\000\000"
      }
    }
  }
}
node {
  name: "Reshape_4"
  op: "Reshape"
  input: "t_box"
  input: "Reshape_4/shape"
  attr {
    key: "T"
    value {
      type: DT_DOUBLE
    }
  }
  attr {
    key: "Tshape"
    value {
      type: DT_INT32
    }
  }
}
node {
  name: "strided_slice_5/stack"
  op: "Const"
  attr {
    key: "dtype"
    value {
      type: DT_INT32
    }
  }
  attr {
    key: "value"
    value {
      tensor {
        dtype: DT_INT32
        tensor_shape {
          dim {
            size: 1
          }
        }
        int_val: 1
      }
    }
  }
}
node {
  name: "strided_slice_5/stack_1"
  op: "Const"
  attr {
    key: "dtype"
    value {
      type: DT_INT32
    }
  }
  attr {
    key: "value"
    value {
      tensor {
        dtype: DT_INT32
        tensor_shape {
          dim {
            size: 1
          }
        }
        int_val: 2
      }
    }
  }
}
node {
  name: "strided_slice_5/stack_2"
  op: "Const"
  attr {
    key: "dtype"
    value {
      type: DT_INT32
    }
  }
  attr {
    key: "value"
    value {
      tensor {
        dtype: DT_INT32
        tensor_shape {
          dim {
            size: 1
          }
        }
        int_val: 1
      }
    }
  }
}
node {
  name: "strided_slice_5"
  op: "StridedSlice"
  input: "t_natoms"
  input: "strided_slice_5/stack"
  input: "strided_slice_5/stack_1"
  input: "strided_slice_5/stack_2"
  attr {
    key: "Index"
    value {
      type: DT_INT32
    }
  }
  attr {
    key: "T"
    value {
      type: DT_INT32
    }
  }
  attr {
    key: "begin_mask"
    value {
      i: 0
    }
  }
  attr {
    key: "ellipsis_mask"
    value {
      i: 0
    }
  }
  attr {
    key: "end_mask"
    value {
      i: 0
    }
  }
  attr {
    key: "new_axis_mask"
    value {
      i: 0
    }
  }
  attr {
    key: "shrink_axis_mask"
    value {
      i: 1
    }
  }
}
node {
  name: "Reshape_5/shape/0"
  op: "Const"
  attr {
    key: "dtype"
    value {
      type: DT_INT32
    }
  }
  attr {
    key: "value"
    value {
      tensor {
        dtype: DT_INT32
        tensor_shape {
        }
        int_val: -1
      }
    }
  }
}
node {
  name: "Reshape_5/shape"
  op: "Pack"
  input: "Reshape_5/shape/0"
  input: "strided_slice_5"
  attr {
    key: "N"
    value {
      i: 2
    }
  }
  attr {
    key: "T"
    value {
      type: DT_INT32
    }
  }
  attr {
    key: "axis"
    value {
      i: 0
    }
  }
}
node {
  name: "Reshape_5"
  op: "Reshape"
  input: "Reshape_1"
  input: "Reshape_5/shape"
  attr {
    key: "T"
    value {
      type: DT_INT32
    }
  }
  attr {
    key: "Tshape"
    value {
      type: DT_INT32
    }
  }
}
node {
  name: "DescrptSeAMask"
  op: "DescrptSeAMask"
  input: "Reshape_3"
  input: "Reshape_5"
  input: "Reshape_2"
  input: "Reshape_4"
  input: "t_natoms"
  input: "t_mesh"
  attr {
    key: "T"
    value {
      type: DT_DOUBLE
    }
  }
}
node {
  name: "Reshape_6/shape"
  op: "Const"
  attr {
    key: "dtype"
    value {
      type: DT_INT32
    }
  }
  attr {
    key: "value"
    value {
      tensor {
        dtype: DT_INT32
        tensor_shape {
          dim {
            size: 2
          }
        }
        tensor_content: "\377\377\377\377L\002\000\000"
      }
    }
  }
}
node {
  name: "Reshape_6"
  op: "Reshape"
  input: "DescrptSeAMask"
  input: "Reshape_6/shape"
  attr {
    key: "T"
    value {
      type: DT_DOUBLE
    }
  }
  attr {
    key: "Tshape"
    value {
      type: DT_INT32
    }
  }
}
node {
  name: "o_rmat"
  op: "Identity"
  input: "Reshape_6"
  attr {
    key: "T"
    value {
      type: DT_DOUBLE
    }
  }
}
node {
  name: "o_rmat_deriv"
  op: "Identity"
  input: "DescrptSeAMask:1"
  attr {
    key: "T"
    value {
      type: DT_DOUBLE
    }
  }
}
node {
  name: "o_nlist"
  op: "Identity"
  input: "DescrptSeAMask:3"
  attr {
    key: "T"
    value {
      type: DT_INT32
    }
  }
}
node {
  name: "strided_slice_6/stack"
  op: "Const"
  attr {
    key: "dtype"
    value {
      type: DT_INT32
    }
  }
  attr {
    key: "value"
    value {
      tensor {
        dtype: DT_INT32
        tensor_shape {
          dim {
            size: 1
          }
        }
        int_val: 0
      }
    }
  }
}
node {
  name: "strided_slice_6/stack_1"
  op: "Const"
  attr {
    key: "dtype"
    value {
      type: DT_INT32
    }
  }
  attr {
    key: "value"
    value {
      tensor {
        dtype: DT_INT32
        tensor_shape {
          dim {
            size: 1
          }
        }
        int_val: 1
      }
    }
  }
}
node {
  name: "strided_slice_6/stack_2"
  op: "Const"
  attr {
    key: "dtype"
    value {
      type: DT_INT32
    }
  }
  attr {
    key: "value"
    value {
      tensor {
        dtype: DT_INT32
        tensor_shape {
          dim {
            size: 1
          }
        }
        int_val: 1
      }
    }
  }
}
node {
  name: "strided_slice_6"
  op: "StridedSlice"
  input: "t_natoms"
  input: "strided_slice_6/stack"
  input: "strided_slice_6/stack_1"
  input: "strided_slice_6/stack_2"
  attr {
    key: "Index"
    value {
      type: DT_INT32
    }
  }
  attr {
    key: "T"
    value {
      type: DT_INT32
    }
  }
  attr {
    key: "begin_mask"
    value {
      i: 0
    }
  }
  attr {
    key: "ellipsis_mask"
    value {
      i: 0
    }
  }
  attr {
    key: "end_mask"
    value {
      i: 0
    }
  }
  attr {
    key: "new_axis_mask"
    value {
      i: 0
    }
  }
  attr {
    key: "shrink_axis_mask"
    value {
      i: 1
    }
  }
}
node {
  name: "Reshape_7/shape/0"
  op: "Const"
  attr {
    key: "dtype"
    value {
      type: DT_INT32
    }
  }
  attr {
    key: "value"
    value {
      tensor {
        dtype: DT_INT32
        tensor_shape {
        }
        int_val: -1
      }
    }
  }
}
node {
  name: "Reshape_7/shape/2"
  op: "Const"
  attr {
    key: "dtype"
    value {
      type: DT_INT32
    }
  }
  attr {
    key: "value"
    value {
      tensor {
        dtype: DT_INT32
        tensor_shape {
        }
        int_val: 588
      }
    }
  }
}
node {
  name: "Reshape_7/shape"
  op: "Pack"
  input: "Reshape_7/shape/0"
  input: "strided_slice_6"
  input: "Reshape_7/shape/2"
  attr {
    key: "N"
    value {
      i: 3
    }
  }
  attr {
    key: "T"
    value {
      type: DT_INT32
    }
  }
  attr {
    key: "axis"
    value {
      i: 0
    }
  }
}
node {
  name: "Reshape_7"
  op: "Reshape"
  input: "o_rmat"
  input: "Reshape_7/shape"
  attr {
    key: "T"
    value {
      type: DT_DOUBLE
    }
  }
  attr {
    key: "Tshape"
    value {
      type: DT_INT32
    }
  }
}
node {
  name: "strided_slice_7/stack"
  op: "Const"
  attr {
    key: "dtype"
    value {
      type: DT_INT32
    }
  }
  attr {
    key: "value"
    value {
      tensor {
        dtype: DT_INT32
        tensor_shape {
          dim {
            size: 1
          }
        }
        int_val: 2
      }
    }
  }
}
node {
  name: "strided_slice_7/stack_1"
  op: "Const"
  attr {
    key: "dtype"
    value {
      type: DT_INT32
    }
  }
  attr {
    key: "value"
    value {
      tensor {
        dtype: DT_INT32
        tensor_shape {
          dim {
            size: 1
          }
        }
        int_val: 3
      }
    }
  }
}
node {
  name: "strided_slice_7/stack_2"
  op: "Const"
  attr {
    key: "dtype"
    value {
      type: DT_INT32
    }
  }
  attr {
    key: "value"
    value {
      tensor {
        dtype: DT_INT32
        tensor_shape {
          dim {
            size: 1
          }
        }
        int_val: 1
      }
    }
  }
}
node {
  name: "strided_slice_7"
  op: "StridedSlice"
  input: "t_natoms"
  input: "strided_slice_7/stack"
  input: "strided_slice_7/stack_1"
  input: "strided_slice_7/stack_2"
  attr {
    key: "Index"
    value {
      type: DT_INT32
    }
  }
  attr {
    key: "T"
    value {
      type: DT_INT32
    }
  }
  attr {
    key: "begin_mask"
    value {
      i: 0
    }
  }
  attr {
    key: "ellipsis_mask"
    value {
      i: 0
    }
  }
  attr {
    key: "end_mask"
    value {
      i: 0
    }
  }
  attr {
    key: "new_axis_mask"
    value {
      i: 0
    }
  }
  attr {
    key: "shrink_axis_mask"
    value {
      i: 1
    }
  }
}
node {
  name: "Slice/begin"
  op: "Const"
  attr {
    key: "dtype"
    value {
      type: DT_INT32
    }
  }
  attr {
    key: "value"
    value {
      tensor {
        dtype: DT_INT32
        tensor_shape {
          dim {
            size: 3
          }
        }
        tensor_content: "\000\000\000\000\000\000\000\000\000\000\000\000"
      }
    }
  }
}
node {
  name: "Slice/size/0"
  op: "Const"
  attr {
    key: "dtype"
    value {
      type: DT_INT32
    }
  }
  attr {
    key: "value"
    value {
      tensor {
        dtype: DT_INT32
        tensor_shape {
        }
        int_val: -1
      }
    }
  }
}
node {
  name: "Slice/size/2"
  op: "Const"
  attr {
    key: "dtype"
    value {
      type: DT_INT32
    }
  }
  attr {
    key: "value"
    value {
      tensor {
        dtype: DT_INT32
        tensor_shape {
        }
        int_val: -1
      }
    }
  }
}
node {
  name: "Slice/size"
  op: "Pack"
  input: "Slice/size/0"
  input: "strided_slice_7"
  input: "Slice/size/2"
  attr {
    key: "N"
    value {
      i: 3
    }
  }
  attr {
    key: "T"
    value {
      type: DT_INT32
    }
  }
  attr {
    key: "axis"
    value {
      i: 0
    }
  }
}
node {
  name: "Slice"
  op: "Slice"
  input: "Reshape_7"
  input: "Slice/begin"
  input: "Slice/size"
  attr {
    key: "Index"
    value {
      type: DT_INT32
    }
  }
  attr {
    key: "T"
    value {
      type: DT_DOUBLE
    }
  }
}
node {
  name: "Reshape_8/shape"
  op: "Const"
  attr {
    key: "dtype"
    value {
      type: DT_INT32
    }
  }
  attr {
    key: "value"
    value {
      tensor {
        dtype: DT_INT32
        tensor_shape {
          dim {
            size: 2
          }
        }
        tensor_content: "\377\377\377\377L\002\000\000"
      }
    }
  }
}
node {
  name: "Reshape_8"
  op: "Reshape"
  input: "Slice"
  input: "Reshape_8/shape"
  attr {
    key: "T"
    value {
      type: DT_DOUBLE
    }
  }
  attr {
    key: "Tshape"
    value {
      type: DT_INT32
    }
  }
}
node {
  name: "filter_type_0/Slice/begin"
  op: "Const"
  attr {
    key: "dtype"
    value {
      type: DT_INT32
    }
  }
  attr {
    key: "value"
    value {
      tensor {
        dtype: DT_INT32
        tensor_shape {
          dim {
            size: 2
          }
        }
        tensor_content: "\000\000\000\000\000\000\000\000"
      }
    }
  }
}
node {
  name: "filter_type_0/Slice/size"
  op: "Const"
  attr {
    key: "dtype"
    value {
      type: DT_INT32
    }
  }
  attr {
    key: "value"
    value {
      tensor {
        dtype: DT_INT32
        tensor_shape {
          dim {
            size: 2
          }
        }
        tensor_content: "\377\377\377\377\220\000\000\000"
      }
    }
  }
}
node {
  name: "filter_type_0/Slice"
  op: "Slice"
  input: "Reshape_8"
  input: "filter_type_0/Slice/begin"
  input: "filter_type_0/Slice/size"
  attr {
    key: "Index"
    value {
      type: DT_INT32
    }
  }
  attr {
    key: "T"
    value {
      type: DT_DOUBLE
    }
  }
}
node {
  name: "filter_type_0/Shape"
  op: "Shape"
  input: "filter_type_0/Slice"
  attr {
    key: "T"
    value {
      type: DT_DOUBLE
    }
  }
  attr {
    key: "out_type"
    value {
      type: DT_INT32
    }
  }
}
node {
  name: "filter_type_0/strided_slice/stack"
  op: "Const"
  attr {
    key: "dtype"
    value {
      type: DT_INT32
    }
  }
  attr {
    key: "value"
    value {
      tensor {
        dtype: DT_INT32
        tensor_shape {
          dim {
            size: 1
          }
        }
        int_val: 0
      }
    }
  }
}
node {
  name: "filter_type_0/strided_slice/stack_1"
  op: "Const"
  attr {
    key: "dtype"
    value {
      type: DT_INT32
    }
  }
  attr {
    key: "value"
    value {
      tensor {
        dtype: DT_INT32
        tensor_shape {
          dim {
            size: 1
          }
        }
        int_val: 1
      }
    }
  }
}
node {
  name: "filter_type_0/strided_slice/stack_2"
  op: "Const"
  attr {
    key: "dtype"
    value {
      type: DT_INT32
    }
  }
  attr {
    key: "value"
    value {
      tensor {
        dtype: DT_INT32
        tensor_shape {
          dim {
            size: 1
          }
        }
        int_val: 1
      }
    }
  }
}
node {
  name: "filter_type_0/strided_slice"
  op: "StridedSlice"
  input: "filter_type_0/Shape"
  input: "filter_type_0/strided_slice/stack"
  input: "filter_type_0/strided_slice/stack_1"
  input: "filter_type_0/strided_slice/stack_2"
  attr {
    key: "Index"
    value {
      type: DT_INT32
    }
  }
  attr {
    key: "T"
    value {
      type: DT_INT32
    }
  }
  attr {
    key: "begin_mask"
    value {
      i: 0
    }
  }
  attr {
    key: "ellipsis_mask"
    value {
      i: 0
    }
  }
  attr {
    key: "end_mask"
    value {
      i: 0
    }
  }
  attr {
    key: "new_axis_mask"
    value {
      i: 0
    }
  }
  attr {
    key: "shrink_axis_mask"
    value {
      i: 1
    }
  }
}
node {
  name: "filter_type_0/Reshape/shape"
  op: "Const"
  attr {
    key: "dtype"
    value {
      type: DT_INT32
    }
  }
  attr {
    key: "value"
    value {
      tensor {
        dtype: DT_INT32
        tensor_shape {
          dim {
            size: 2
          }
        }
        tensor_content: "\377\377\377\377\004\000\000\000"
      }
    }
  }
}
node {
  name: "filter_type_0/Reshape"
  op: "Reshape"
  input: "filter_type_0/Slice"
  input: "filter_type_0/Reshape/shape"
  attr {
    key: "T"
    value {
      type: DT_DOUBLE
    }
  }
  attr {
    key: "Tshape"
    value {
      type: DT_INT32
    }
  }
}
node {
  name: "filter_type_0/Slice_1/begin"
  op: "Const"
  attr {
    key: "dtype"
    value {
      type: DT_INT32
    }
  }
  attr {
    key: "value"
    value {
      tensor {
        dtype: DT_INT32
        tensor_shape {
          dim {
            size: 2
          }
        }
        tensor_content: "\000\000\000\000\000\000\000\000"
      }
    }
  }
}
node {
  name: "filter_type_0/Slice_1/size"
  op: "Const"
  attr {
    key: "dtype"
    value {
      type: DT_INT32
    }
  }
  attr {
    key: "value"
    value {
      tensor {
        dtype: DT_INT32
        tensor_shape {
          dim {
            size: 2
          }
        }
        tensor_content: "\377\377\377\377\001\000\000\000"
      }
    }
  }
}
node {
  name: "filter_type_0/Slice_1"
  op: "Slice"
  input: "filter_type_0/Reshape"
  input: "filter_type_0/Slice_1/begin"
  input: "filter_type_0/Slice_1/size"
  attr {
    key: "Index"
    value {
      type: DT_INT32
    }
  }
  attr {
    key: "T"
    value {
      type: DT_DOUBLE
    }
  }
}
node {
  name: "filter_type_0/Reshape_1/shape"
  op: "Const"
  attr {
    key: "dtype"
    value {
      type: DT_INT32
    }
  }
  attr {
    key: "value"
    value {
      tensor {
        dtype: DT_INT32
        tensor_shape {
          dim {
            size: 2
          }
        }
        tensor_content: "\377\377\377\377\001\000\000\000"
      }
    }
  }
}
node {
  name: "filter_type_0/Reshape_1"
  op: "Reshape"
  input: "filter_type_0/Slice_1"
  input: "filter_type_0/Reshape_1/shape"
  attr {
    key: "T"
    value {
      type: DT_DOUBLE
    }
  }
  attr {
    key: "Tshape"
    value {
      type: DT_INT32
    }
  }
}
node {
  name: "filter_type_0/matrix_1_0"
  op: "Const"
  attr {
    key: "dtype"
    value {
      type: DT_DOUBLE
    }
  }
  attr {
    key: "value"
    value {
      tensor {
        dtype: DT_DOUBLE
        tensor_shape {
          dim {
            size: 1
          }
          dim {
            size: 4
          }
        }
        tensor_content: "} \337\340\036\335\245\2774\t\"8\006\307\331?|\241\336\300\305_\350\277#U\240\352\227\263\226?"
      }
    }
  }
}
node {
  name: "filter_type_0/matrix_1_0/read"
  op: "Identity"
  input: "filter_type_0/matrix_1_0"
  attr {
    key: "T"
    value {
      type: DT_DOUBLE
    }
  }
  attr {
    key: "_class"
    value {
      list {
        s: "loc:@filter_type_0/matrix_1_0"
      }
    }
  }
}
node {
  name: "filter_type_0/bias_1_0"
  op: "Const"
  attr {
    key: "dtype"
    value {
      type: DT_DOUBLE
    }
  }
  attr {
    key: "value"
    value {
      tensor {
        dtype: DT_DOUBLE
        tensor_shape {
          dim {
            size: 4
          }
        }
        tensor_content: "…"
      }
    }
  }
}
node {
  name: "filter_type_0/bias_1_0/read"
  op: "Identity"
  input: "filter_type_0/bias_1_0"
  attr {
    key: "T"
    value {
      type: DT_DOUBLE
    }
  }
  attr {
    key: "_class"
    value {
      list {
        s: "loc:@filter_type_0/bias_1_0"
      }
    }
  }
}
node {
  name: "filter_type_0/MatMul"
  op: "MatMul"
  input: "filter_type_0/Reshape_1"
  input: "filter_type_0/matrix_1_0/read"
  attr {
    key: "T"
    value {
      type: DT_DOUBLE
    }
  }
  attr {
    key: "transpose_a"
    value {
      b: false
    }
  }
  attr {
    key: "transpose_b"
    value {
      b: false
    }
  }
}
node {
  name: "filter_type_0/BiasAdd"
  op: "BiasAdd"
  input: "filter_type_0/MatMul"
  input: "filter_type_0/bias_1_0/read"
  attr {
    key: "T"
    value {
      type: DT_DOUBLE
    }
  }
  attr {
    key: "data_format"
    value {
      s: "NHWC"
    }
  }
}
node {
  name: "filter_type_0/Tanh"
  op: "Tanh"
  input: "filter_type_0/BiasAdd"
  attr {
    key: "T"
    value {
      type: DT_DOUBLE
    }
  }
}
node {
  name: "filter_type_0/Reshape_2/shape"
  op: "Const"
  attr {
    key: "dtype"
    value {
      type: DT_INT32
    }
  }
  attr {
    key: "value"
    value {
      tensor {
        dtype: DT_INT32
        tensor_shape {
          dim {
            size: 2
          }
        }
        tensor_content: "\377\377\377\377\004\000\000\000"
      }
    }
  }
}
node {
  name: "filter_type_0/Reshape_2"
  op: "Reshape"
  input: "filter_type_0/Tanh"
  input: "filter_type_0/Reshape_2/shape"
  attr {
    key: "T"
    value {
      type: DT_DOUBLE
    }
  }
  attr {
    key: "Tshape"
    value {
      type: DT_INT32
    }
  }
}
node {
  name: "filter_type_0/matrix_2_0"
  op: "Const"
  attr {
    key: "dtype"
    value {
      type: DT_DOUBLE
    }
  }
  attr {
    key: "value"
    value {
      tensor {
        dtype: DT_DOUBLE
        tensor_shape {
          dim {
            size: 4
          }
          dim {
            size: 4
          }
        }
        tensor_content: "…"
      }
    }
  }
}
node {
  name: "filter_type_0/matrix_2_0/read"
  op: "Identity"
  input: "filter_type_0/matrix_2_0"
  attr {
    key: "T"
    value {
      type: DT_DOUBLE
    }
  }
  attr {
    key: "_class"
    value {
      list {
        s: "loc:@filter_type_0/matrix_2_0"
      }
    }
  }
}
node {
  name: "filter_type_0/bias_2_0"
  op: "Const"
  attr {
    key: "dtype"
    value {
      type: DT_DOUBLE
    }
  }
  attr {
    key: "value"
    value {
      tensor {
        dtype: DT_DOUBLE
        tensor_shape {
          dim {
            size: 4
          }
        }
        tensor_content: "\264}~B\303{\366\277\263\224>\250$o\354\277\224\330\260\027!\222\316?\357\241\302\264x\375\315\277"
      }
    }
  }
}
node {
  name: "filter_type_0/bias_2_0/read"
  op: "Identity"
  input: "filter_type_0/bias_2_0"
  attr {
    key: "T"
    value {
      type: DT_DOUBLE
    }
  }
  attr {
    key: "_class"
    value {
      list {
        s: "loc:@filter_type_0/bias_2_0"
      }
    }
  }
}
node {
  name: "filter_type_0/MatMul_1"
  op: "MatMul"
  input: "filter_type_0/Reshape_2"
  input: "filter_type_0/matrix_2_0/read"
  attr {
    key: "T"
    value {
      type: DT_DOUBLE
    }
  }
  attr {
    key: "transpose_a"
    value {
      b: false
    }
  }
  attr {
    key: "transpose_b"
    value {
      b: false
    }
  }
}
node {
  name: "filter_type_0/BiasAdd_1"
  op: "BiasAdd"
  input: "filter_type_0/MatMul_1"
  input: "filter_type_0/bias_2_0/read"
  attr {
    key: "T"
    value {
      type: DT_DOUBLE
    }
  }
  attr {
    key: "data_format"
    value {
      s: "NHWC"
    }
  }
}
node {
  name: "filter_type_0/Tanh_1"
  op: "Tanh"
  input: "filter_type_0/BiasAdd_1"
  attr {
    key: "T"
    value {
      type: DT_DOUBLE
    }
  }
}
node {
  name: "filter_type_0/Reshape_3/shape"
  op: "Const"
  attr {
    key: "dtype"
    value {
      type: DT_INT32
    }
  }
  attr {
    key: "value"
    value {
      tensor {
        dtype: DT_INT32
        tensor_shape {
          dim {
            size: 2
          }
        }
        tensor_content: "\377\377\377\377\004\000\000\000"
      }
    }
  }
}
node {
  name: "filter_type_0/Reshape_3"
  op: "Reshape"
  input: "filter_type_0/Tanh_1"
  input: "filter_type_0/Reshape_3/shape"
  attr {
    key: "T"
    value {
      type: DT_DOUBLE
    }
  }
  attr {
    key: "Tshape"
    value {
      type: DT_INT32
    }
  }
}
node {
  name: "filter_type_0/idt_2_0"
  op: "Const"
  attr {
    key: "dtype"
    value {
      type: DT_DOUBLE
    }
  }
  attr {
    key: "value"
    value {
      tensor {
        dtype: DT_DOUBLE
        tensor_shape {
          dim {
            size: 1
          }
          dim {
            size: 4
          }
        }
        tensor_content: "\346y\246\360\270\001\360?\0053\206\366\003\030\360?\251\370s\321E\"\360?\003\"7\376F\315\357?"
      }
    }
  }
}
node {
  name: "filter_type_0/idt_2_0/read"
  op: "Identity"
  input: "filter_type_0/idt_2_0"
  attr {
    key: "T"
    value {
      type: DT_DOUBLE
    }
  }
  attr {
    key: "_class"
    value {
      list {
        s: "loc:@filter_type_0/idt_2_0"
      }
    }
  }
}
node {
  name: "filter_type_0/mul"
  op: "Mul"
  input: "filter_type_0/Reshape_3"
  input: "filter_type_0/idt_2_0/read"
  attr {
    key: "T"
    value {
      type: DT_DOUBLE
    }
  }
}
node {
  name: "filter_type_0/add"
  op: "AddV2"
  input: "filter_type_0/Reshape_2"
  input: "filter_type_0/mul"
  attr {
    key: "T"
    value {
      type: DT_DOUBLE
    }
  }
}
node {
  name: "filter_type_0/matrix_3_0"
  op: "Const"
  attr {
    key: "dtype"
    value {
      type: DT_DOUBLE
    }
  }
  attr {
    key: "value"
    value {
      tensor {
        dtype: DT_DOUBLE
        tensor_shape {
          dim {
            size: 4
          }
          dim {
            size: 4
          }
        }
        tensor_content: "…"
      }
    }
  }
}
node {
  name: "filter_type_0/matrix_3_0/read"
  op: "Identity"
  input: "filter_type_0/matrix_3_0"
  attr {
    key: "T"
    value {
      type: DT_DOUBLE
    }
  }
  attr {
    key: "_class"
    value {
      list {
        s: "loc:@filter_type_0/matrix_3_0"
      }
    }
  }
}
node {
  name: "filter_type_0/bias_3_0"
  op: "Const"
  attr {
    key: "dtype"
    value {
      type: DT_DOUBLE
    }
  }
  attr {
    key: "value"
    value {
      tensor {
        dtype: DT_DOUBLE
        tensor_shape {
          dim {
            size: 4
          }
        }
        tensor_content: "…"
      }
    }
  }
}
node {
  name: "filter_type_0/bias_3_0/read"
  op: "Identity"
  input: "filter_type_0/bias_3_0"
  attr {
    key: "T"
    value {
      type: DT_DOUBLE
    }
  }
  attr {
    key: "_class"
    value {
      list {
        s: "loc:@filter_type_0/bias_3_0"
      }
    }
  }
}
node {
  name: "filter_type_0/MatMul_2"
  op: "MatMul"
  input: "filter_type_0/add"
  input: "filter_type_0/matrix_3_0/read"
  attr {
    key: "T"
    value {
      type: DT_DOUBLE
    }
  }
  attr {
    key: "transpose_a"
    value {
      b: false
    }
  }
  attr {
    key: "transpose_b"
    value {
      b: false
    }
  }
}
node {
  name: "filter_type_0/BiasAdd_2"
  op: "BiasAdd"
  input: "filter_type_0/MatMul_2"
  input: "filter_type_0/bias_3_0/read"
  attr {
    key: "T"
    value {
      type: DT_DOUBLE
    }
  }
  attr {
    key: "data_format"
    value {
      s: "NHWC"
    }
  }
}
node {
  name: "filter_type_0/Tanh_2"
  op: "Tanh"
  input: "filter_type_0/BiasAdd_2"
  attr {
    key: "T"
    value {
      type: DT_DOUBLE
    }
  }
}
node {
  name: "filter_type_0/Reshape_4/shape"
  op: "Const"
  attr {
    key: "dtype"
    value {
      type: DT_INT32
    }
  }
  attr {
    key: "value"
    value {
      tensor {
        dtype: DT_INT32
        tensor_shape {
          dim {
            size: 2
          }
        }
        tensor_content: "\377\377\377\377\004\000\000\000"
      }
    }
  }
}
node {
  name: "filter_type_0/Reshape_4"
  op: "Reshape"
  input: "filter_type_0/Tanh_2"
  input: "filter_type_0/Reshape_4/shape"
  attr {
    key: "T"
    value {
      type: DT_DOUBLE
    }
  }
  attr {
    key: "Tshape"
    value {
      type: DT_INT32
    }
  }
}
node {
  name: "filter_type_0/idt_3_0"
  op: "Const"
  attr {
    key: "dtype"
    value {
      type: DT_DOUBLE
    }
  }
  attr {
    key: "value"
    value {
      tensor {
        dtype: DT_DOUBLE
        tensor_shape {
          dim {
            size: 1
          }
          dim {
            size: 4
          }
        }
        tensor_content: "…"
      }
    }
  }
}
node {
  name: "filter_type_0/idt_3_0/read"
  op: "Identity"
  input: "filter_type_0/idt_3_0"
  attr {
    key: "T"
    value {
      type: DT_DOUBLE
    }
  }
  attr {
    key: "_class"
    value {
      list {
        s: "loc:@filter_type_0/idt_3_0"
      }
    }
  }
}
node {
  name: "filter_type_0/mul_1"
  op: "Mul"
  input: "filter_type_0/Reshape_4"
  input: "filter_type_0/idt_3_0/read"
  attr {
    key: "T"
    value {
      type: DT_DOUBLE
    }
  }
}
node {
  name: "filter_type_0/add_1"
  op: "AddV2"
  input: "filter_type_0/add"
  input: "filter_type_0/mul_1"
  attr {
    key: "T"
    value {
      type: DT_DOUBLE
    }
  }
}
node {
  name: "filter_type_0/matrix_4_0"
  op: "Const"
  attr {
    key: "dtype"
    value {
      type: DT_DOUBLE
    }
  }
  attr {
    key: "value"
    value {
      tensor {
        dtype: DT_DOUBLE
        tensor_shape {
          dim {
            size: 4
          }
          dim {
            size: 16
          }
        }
        tensor_content: "…"
      }
    }
  }
}
node {
  name: "filter_type_0/matrix_4_0/read"
  op: "Identity"
  input: "filter_type_0/matrix_4_0"
  attr {
    key: "T"
    value {
      type: DT_DOUBLE
    }
  }
  attr {
    key: "_class"
    value {
      list {
        s: "loc:@filter_type_0/matrix_4_0"
      }
    }
  }
}
node {
  name: "filter_type_0/bias_4_0"
  op: "Const"
  attr {
    key: "dtype"
    value {
      type: DT_DOUBLE
    }
  }
  attr {
    key: "value"
    value {
      tensor {
        dtype: DT_DOUBLE
        tensor_shape {
          dim {
            size: 16
          }
        }
        tensor_content: "…"
      }
    }
  }
}
node {
  name: "filter_type_0/bias_4_0/read"
  op: "Identity"
  input: "filter_type_0/bias_4_0"
  attr {
    key: "T"
    value {
      type: DT_DOUBLE
    }
  }
  attr {
    key: "_class"
    value {
      list {
        s: "loc:@filter_type_0/bias_4_0"
      }
    }
  }
}
node {
  name: "filter_type_0/MatMul_3"
  op: "MatMul"
  input: "filter_type_0/add_1"
  input: "filter_type_0/matrix_4_0/read"
  attr {
    key: "T"
    value {
      type: DT_DOUBLE
    }
  }
  attr {
    key: "transpose_a"
    value {
      b: false
    }
  }
  attr {
    key: "transpose_b"
    value {
      b: false
    }
  }
}
node {
  name: "filter_type_0/BiasAdd_3"
  op: "BiasAdd"
  input: "filter_type_0/MatMul_3"
  input: "filter_type_0/bias_4_0/read"
  attr {
    key: "T"
    value {
      type: DT_DOUBLE
    }
  }
  attr {
    key: "data_format"
    value {
      s: "NHWC"
    }
  }
}
node {
  name: "filter_type_0/Tanh_3"
  op: "Tanh"
  input: "filter_type_0/BiasAdd_3"
  attr {
    key: "T"
    value {
      type: DT_DOUBLE
    }
  }
}
node {
  name: "filter_type_0/Reshape_5/shape"
  op: "Const"
  attr {
    key: "dtype"
    value {
      type: DT_INT32
    }
  }
  attr {
    key: "value"
    value {
      tensor {
        dtype: DT_INT32
        tensor_shape {
          dim {
            size: 2
          }
        }
        tensor_content: "\377\377\377\377\020\000\000\000"
      }
    }
  }
}
node {
  name: "filter_type_0/Reshape_5"
  op: "Reshape"
  input: "filter_type_0/Tanh_3"
  input: "filter_type_0/Reshape_5/shape"
  attr {
    key: "T"
    value {
      type: DT_DOUBLE
    }
  }
  attr {
    key: "Tshape"
    value {
      type: DT_INT32
    }
  }
}
node {
  name: "filter_type_0/Reshape_6/shape"
  op: "Const"
  attr {
    key: "dtype"
    value {
      type: DT_INT32
    }
  }
  attr {
    key: "value"
    value {
      tensor {
        dtype: DT_INT32
        tensor_shape {
          dim {
            size: 3
          }
        }
        tensor_content: "\377\377\377\377$\000\000\000\020\000\000\000"
      }
    }
  }
}
node {
  name: "filter_type_0/Reshape_6"
  op: "Reshape"
  input: "filter_type_0/Reshape_5"
  input: "filter_type_0/Reshape_6/shape"
  attr {
    key: "T"
    value {
      type: DT_DOUBLE
    }
  }
  attr {
    key: "Tshape"
    value {
      type: DT_INT32
    }
  }
}
node {
  name: "filter_type_0/Reshape_7/shape/1"
  op: "Const"
  attr {
    key: "dtype"
    value {
      type: DT_INT32
    }
  }
  attr {
    key: "value"
    value {
      tensor {
        dtype: DT_INT32
        tensor_shape {
        }
        int_val: 36
      }
    }
  }
}
node {
  name: "filter_type_0/Reshape_7/shape/2"
  op: "Const"
  attr {
    key: "dtype"
    value {
      type: DT_INT32
    }
  }
  attr {
    key: "value"
    value {
      tensor {
        dtype: DT_INT32
        tensor_shape {
        }
        int_val: 4
      }
    }
  }
}
node {
  name: "filter_type_0/Reshape_7/shape"
  op: "Pack"
  input: "filter_type_0/strided_slice"
  input: "filter_type_0/Reshape_7/shape/1"
  input: "filter_type_0/Reshape_7/shape/2"
  attr {
    key: "N"
    value {
      i: 3
    }
  }
  attr {
    key: "T"
    value {
      type: DT_INT32
    }
  }
  attr {
    key: "axis"
    value {
      i: 0
    }
  }
}
node {
  name: "filter_type_0/Reshape_7"
  op: "Reshape"
  input: "filter_type_0/Slice"
  input: "filter_type_0/Reshape_7/shape"
  attr {
    key: "T"
    value {
      type: DT_DOUBLE
    }
  }
  attr {
    key: "Tshape"
    value {
      type: DT_INT32
    }
  }
}
node {
  name: "filter_type_0/MatMul_4"
  op: "BatchMatMulV2"
  input: "filter_type_0/Reshape_7"
  input: "filter_type_0/Reshape_6"
  attr {
    key: "T"
    value {
      type: DT_DOUBLE
    }
  }
  attr {
    key: "adj_x"
    value {
      b: true
    }
  }
  attr {
    key: "adj_y"
    value {
      b: false
    }
  }
}
node {
  name: "filter_type_0/Slice_2/begin"
  op: "Const"
  attr {
    key: "dtype"
    value {
      type: DT_INT32
    }
  }
  attr {
    key: "value"
    value {
      tensor {
        dtype: DT_INT32
        tensor_shape {
          dim {
            size: 2
          }
        }
        tensor_content: "\000\000\000\000\220\000\000\000"
      }
    }
  }
}
node {
  name: "filter_type_0/Slice_2/size"
  op: "Const"
  attr {
    key: "dtype"
    value {
      type: DT_INT32
    }
  }
  attr {
    key: "value"
    value {
      tensor {
        dtype: DT_INT32
        tensor_shape {
          dim {
            size: 2
          }
        }
        tensor_content: "\377\377\377\377@\000\000\000"
      }
    }
  }
}
node {
  name: "filter_type_0/Slice_2"
  op: "Slice"
  input: "Reshape_8"
  input: "filter_type_0/Slice_2/begin"
  input: "filter_type_0/Slice_2/size"
  attr {
    key: "Index"
    value {
      type: DT_INT32
    }
  }
  attr {
    key: "T"
    value {
      type: DT_DOUBLE
    }
  }
}
node {
  name: "filter_type_0/Shape_1"
  op: "Shape"
  input: "filter_type_0/Slice_2"
  attr {
    key: "T"
    value {
      type: DT_DOUBLE
    }
  }
  attr {
    key: "out_type"
    value {
      type: DT_INT32
    }
  }
}
node {
  name: "filter_type_0/strided_slice_1/stack"
  op: "Const"
  attr {
    key: "dtype"
    value {
      type: DT_INT32
    }
  }
  attr {
    key: "value"
    value {
      tensor {
        dtype: DT_INT32
        tensor_shape {
          dim {
            size: 1
          }
        }
        int_val: 0
      }
    }
  }
}
node {
  name: "filter_type_0/strided_slice_1/stack_1"
  op: "Const"
  attr {
    key: "dtype"
    value {
      type: DT_INT32
    }
  }
  attr {
    key: "value"
    value {
      tensor {
        dtype: DT_INT32
        tensor_shape {
          dim {
            size: 1
          }
        }
        int_val: 1
      }
    }
  }
}
node {
  name: "filter_type_0/strided_slice_1/stack_2"
  op: "Const"
  attr {
    key: "dtype"
    value {
      type: DT_INT32
    }
  }
  attr {
    key: "value"
    value {
      tensor {
        dtype: DT_INT32
        tensor_shape {
          dim {
            size: 1
          }
        }
        int_val: 1
      }
    }
  }
}
node {
  name: "filter_type_0/strided_slice_1"
  op: "StridedSlice"
  input: "filter_type_0/Shape_1"
  input: "filter_type_0/strided_slice_1/stack"
  input: "filter_type_0/strided_slice_1/stack_1"
  input: "filter_type_0/strided_slice_1/stack_2"
  attr {
    key: "Index"
    value {
      type: DT_INT32
    }
  }
  attr {
    key: "T"
    value {
      type: DT_INT32
    }
  }
  attr {
    key: "begin_mask"
    value {
      i: 0
    }
  }
  attr {
    key: "ellipsis_mask"
    value {
      i: 0
    }
  }
  attr {
    key: "end_mask"
    value {
      i: 0
    }
  }
  attr {
    key: "new_axis_mask"
    value {
      i: 0
    }
  }
  attr {
    key: "shrink_axis_mask"
    value {
      i: 1
    }
  }
}
node {
  name: "filter_type_0/Reshape_8/shape"
  op: "Const"
  attr {
    key: "dtype"
    value {
      type: DT_INT32
    }
  }
  attr {
    key: "value"
    value {
      tensor {
        dtype: DT_INT32
        tensor_shape {
          dim {
            size: 2
          }
        }
        tensor_content: "\377\377\377\377\004\000\000\000"
      }
    }
  }
}
node {
  name: "filter_type_0/Reshape_8"
  op: "Reshape"
  input: "filter_type_0/Slice_2"
  input: "filter_type_0/Reshape_8/shape"
  attr {
    key: "T"
    value {
      type: DT_DOUBLE
    }
  }
  attr {
    key: "Tshape"
    value {
      type: DT_INT32
    }
  }
}
node {
  name: "filter_type_0/Slice_3/begin"
  op: "Const"
  attr {
    key: "dtype"
    value {
      type: DT_INT32
    }
  }
  attr {
    key: "value"
    value {
      tensor {
        dtype: DT_INT32
        tensor_shape {
          dim {
            size: 2
          }
        }
        tensor_content: "\000\000\000\000\000\000\000\000"
      }
    }
  }
}
node {
  name: "filter_type_0/Slice_3/size"
  op: "Const"
  attr {
    key: "dtype"
    value {
      type: DT_INT32
    }
  }
  attr {
    key: "value"
    value {
      tensor {
        dtype: DT_INT32
        tensor_shape {
          dim {
            size: 2
          }
        }
        tensor_content: "\377\377\377\377\001\000\000\000"
      }
    }
  }
}
node {
  name: "filter_type_0/Slice_3"
  op: "Slice"
  input: "filter_type_0/Reshape_8"
  input: "filter_type_0/Slice_3/begin"
  input: "filter_type_0/Slice_3/size"
  attr {
    key: "Index"
    value {
      type: DT_INT32
    }
  }
  attr {
    key: "T"
    value {
      type: DT_DOUBLE
    }
  }
}
node {
  name: "filter_type_0/Reshape_9/shape"
  op: "Const"
  attr {
    key: "dtype"
    value {
      type: DT_INT32
    }
  }
  attr {
    key: "value"
    value {
      tensor {
        dtype: DT_INT32
        tensor_shape {
          dim {
            size: 2
          }
        }
        tensor_content: "\377\377\377\377\001\000\000\000"
      }
    }
  }
}
node {
  name: "filter_type_0/Reshape_9"
  op: "Reshape"
  input: "filter_type_0/Slice_3"
  input: "filter_type_0/Reshape_9/shape"
  attr {
    key: "T"
    value {
      type: DT_DOUBLE
    }
  }
  attr {
    key: "Tshape"
    value {
      type: DT_INT32
    }
  }
}
node {
  name: "filter_type_0/matrix_1_1"
  op: "Const"
  attr {
    key: "dtype"
    value {
      type: DT_DOUBLE
    }
  }
  attr {
    key: "value"
    value {
      tensor {
        dtype: DT_DOUBLE
        tensor_shape {
          dim {
            size: 1
          }
          dim {
            size: 4
          }
        }
        tensor_content: "\210a\\\217\221\354\337?G\230\255\304\211^\300\277\337c\375\3410@\314\277\336B%\272\234#\342?"
      }
    }
  }
}
node {
  name: "filter_type_0/matrix_1_1/read"
  op: "Identity"
  input: "filter_type_0/matrix_1_1"
  attr {
    key: "T"
    value {
      type: DT_DOUBLE
    }
  }
  attr {
    key: "_class"
    value {
      list {
        s: "loc:@filter_type_0/matrix_1_1"
      }
    }
  }
}
node {
  name: "filter_type_0/bias_1_1"
  op: "Const"
  attr {
    key: "dtype"
    value {
      type: DT_DOUBLE
    }
  }
  attr {
    key: "value"
    value {
      tensor {
        dtype: DT_DOUBLE
        tensor_shape {
          dim {
            size: 4
          }
        }
        tensor_content: "\253\010\025\3117$\354\277\301\202S!\236\240\344?\246=\204\032k\322\254\277\250\363pi\367\325\303?"
      }
    }
  }
}
node {
  name: "filter_type_0/bias_1_1/read"
  op: "Identity"
  input: "filter_type_0/bias_1_1"
  attr {
    key: "T"
    value {
      type: DT_DOUBLE
    }
  }
  attr {
    key: "_class"
    value {
      list {
        s: "loc:@filter_type_0/bias_1_1"
      }
    }
  }
}
node {
  name: "filter_type_0/MatMul_5"
  op: "MatMul"
  input: "filter_type_0/Reshape_9"
  input: "filter_type_0/matrix_1_1/read"
  attr {
    key: "T"
    value {
      type: DT_DOUBLE
    }
  }
  attr {
    key: "transpose_a"
    value {
      b: false
    }
  }
  attr {
    key: "transpose_b"
    value {
      b: false
    }
  }
}
node {
  name: "filter_type_0/BiasAdd_4"
  op: "BiasAdd"
  input: "filter_type_0/MatMul_5"
  input: "filter_type_0/bias_1_1/read"
  attr {
    key: "T"
    value {
      type: DT_DOUBLE
    }
  }
  attr {
    key: "data_format"
    value {
      s: "NHWC"
    }
  }
}
node {
  name: "filter_type_0/Tanh_4"
  op: "Tanh"
  input: "filter_type_0/BiasAdd_4"
  attr {
    key: "T"
    value {
      type: DT_DOUBLE
    }
  }
}
node {
  name: "filter_type_0/Reshape_10/shape"
  op: "Const"
  attr {
    key: "dtype"
    value {
      type: DT_INT32
    }
  }
  attr {
    key: "value"
    value {
      tensor {
        dtype: DT_INT32
        tensor_shape {
          dim {
            size: 2
          }
        }
        tensor_content: "\377\377\377\377\004\000\000\000"
      }
    }
  }
}
node {
  name: "filter_type_0/Reshape_10"
  op: "Reshape"
  input: "filter_type_0/Tanh_4"
  input: "filter_type_0/Reshape_10/shape"
  attr {
    key: "T"
    value {
      type: DT_DOUBLE
    }
  }
  attr {
    key: "Tshape"
    value {
      type: DT_INT32
    }
  }
}
node {
  name: "filter_type_0/matrix_2_1"
  op: "Const"
  attr {
    key: "dtype"
    value {
      type: DT_DOUBLE
    }
  }
  attr {
    key: "value"
    value {
      tensor {
        dtype: DT_DOUBLE
        tensor_shape {
          dim {
            size: 4
          }
          dim {
            size: 4
          }
        }
        tensor_content: "…"
      }
    }
  }
}
node {
  name: "filter_type_0/matrix_2_1/read"
  op: "Identity"
  input: "filter_type_0/matrix_2_1"
  attr {
    key: "T"
    value {
      type: DT_DOUBLE
    }
  }
  attr {
    key: "_class"
    value {
      list {
        s: "loc:@filter_type_0/matrix_2_1"
      }
    }
  }
}
node {
  name: "filter_type_0/bias_2_1"
  op: "Const"
  attr {
    key: "dtype"
    value {
      type: DT_DOUBLE
    }
  }
  attr {
    key: "value"
    value {
      tensor {
        dtype: DT_DOUBLE
        tensor_shape {
          dim {
            size: 4
          }
        }
        tensor_content: "…"
      }
    }
  }
}
node {
  name: "filter_type_0/bias_2_1/read"
  op: "Identity"
  input: "filter_type_0/bias_2_1"
  attr {
    key: "T"
    value {
      type: DT_DOUBLE
    }
  }
  attr {
    key: "_class"
    value {
      list {
        s: "loc:@filter_type_0/bias_2_1"
      }
    }
  }
}
node {
  name: "filter_type_0/MatMul_6"
  op: "MatMul"
  input: "filter_type_0/Reshape_10"
  input: "filter_type_0/matrix_2_1/read"
  attr {
    key: "T"
    value {
      type: DT_DOUBLE
    }
  }
  attr {
    key: "transpose_a"
    value {
      b: false
    }
  }
  attr {
    key: "transpose_b"
    value {
      b: false
    }
  }
}
node {
  name: "filter_type_0/BiasAdd_5"
  op: "BiasAdd"
  input: "filter_type_0/MatMul_6"
  input: "filter_type_0/bias_2_1/read"
  attr {
    key: "T"
    value {
      type: DT_DOUBLE
    }
  }
  attr {
    key: "data_format"
    value {
      s: "NHWC"
    }
  }
}
node {
  name: "filter_type_0/Tanh_5"
  op: "Tanh"
  input: "filter_type_0/BiasAdd_5"
  attr {
    key: "T"
    value {
      type: DT_DOUBLE
    }
  }
}
node {
  name: "filter_type_0/Reshape_11/shape"
  op: "Const"
  attr {
    key: "dtype"
    value {
      type: DT_INT32
    }
  }
  attr {
    key: "value"
    value {
      tensor {
        dtype: DT_INT32
        tensor_shape {
          dim {
            size: 2
          }
        }
        tensor_content: "\377\377\377\377\004\000\000\000"
      }
    }
  }
}
node {
  name: "filter_type_0/Reshape_11"
  op: "Reshape"
  input: "filter_type_0/Tanh_5"
  input: "filter_type_0/Reshape_11/shape"
  attr {
    key: "T"
    value {
      type: DT_DOUBLE
    }
  }
  attr {
    key: "Tshape"
    value {
      type: DT_INT32
    }
  }
}
node {
  name: "filter_type_0/idt_2_1"
  op: "Const"
  attr {
    key: "dtype"
    value {
      type: DT_DOUBLE
    }
  }
  attr {
    key: "value"
    value {
      tensor {
        dtype: DT_DOUBLE
        tensor_shape {
          dim {
            size: 1
          }
          dim {
            size: 4
          }
        }
        tensor_content: "\230\207\216\315\330\346\357?\314\320G~h\331\357?c\260i\354 \013\360?\342\016\335w\256\362\357?"
      }
    }
  }
}
node {
  name: "filter_type_0/idt_2_1/read"
  op: "Identity"
  input: "filter_type_0/idt_2_1"
  attr {
    key: "T"
    value {
      type: DT_DOUBLE
    }
  }
  attr {
    key: "_class"
    value {
      list {
        s: "loc:@filter_type_0/idt_2_1"
      }
    }
  }
}
node {
  name: "filter_type_0/mul_2"
  op: "Mul"
  input: "filter_type_0/Reshape_11"
  input: "filter_type_0/idt_2_1/read"
  attr {
    key: "T"
    value {
      type: DT_DOUBLE
    }
  }
}
node {
  name: "filter_type_0/add_2"
  op: "AddV2"
  input: "filter_type_0/Reshape_10"
  input: "filter_type_0/mul_2"
  attr {
    key: "T"
    value {
      type: DT_DOUBLE
    }
  }
}
node {
  name: "filter_type_0/matrix_3_1"
  op: "Const"
  attr {
    key: "dtype"
    value {
      type: DT_DOUBLE
    }
  }
  attr {
    key: "value"
    value {
      tensor {
        dtype: DT_DOUBLE
        tensor_shape {
          dim {
            size: 4
          }
          dim {
            size: 4
          }
        }
        tensor_content: "…"
      }
    }
  }
}
node {
  name: "filter_type_0/matrix_3_1/read"
  op: "Identity"
  input: "filter_type_0/matrix_3_1"
  attr {
    key: "T"
    value {
      type: DT_DOUBLE
    }
  }
  attr {
    key: "_class"
    value {
      list {
        s: "loc:@filter_type_0/matrix_3_1"
      }
    }
  }
}
node {
  name: "filter_type_0/bias_3_1"
  op: "Const"
  attr {
    key: "dtype"
    value {
      type: DT_DOUBLE
    }
  }
  attr {
    key: "value"
    value {
      tensor {
        dtype: DT_DOUBLE
        tensor_shape {
          dim {
            size: 4
          }
        }
        tensor_content: "…"
      }
    }
  }
}
node {
  name: "filter_type_0/bias_3_1/read"
  op: "Identity"
  input: "filter_type_0/bias_3_1"
  attr {
    key: "T"
    value {
      type: DT_DOUBLE
    }
  }
  attr {
    key: "_class"
    value {
      list {
        s: "loc:@filter_type_0/bias_3_1"
      }
    }
  }
}
node {
  name: "filter_type_0/MatMul_7"
  op: "MatMul"
  input: "filter_type_0/add_2"
  input: "filter_type_0/matrix_3_1/read"
  attr {
    key: "T"
    value {
      type: DT_DOUBLE
    }
  }
  attr {
    key: "transpose_a"
    value {
      b: false
    }
  }
  attr {
    key: "transpose_b"
    value {
      b: false
    }
  }
}
node {
  name: "filter_type_0/BiasAdd_6"
  op: "BiasAdd"
  input: "filter_type_0/MatMul_7"
  input: "filter_type_0/bias_3_1/read"
  attr {
    key: "T"
    value {
      type: DT_DOUBLE
    }
  }
  attr {
    key: "data_format"
    value {
      s: "NHWC"
    }
  }
}
node {
  name: "filter_type_0/Tanh_6"
  op: "Tanh"
  input: "filter_type_0/BiasAdd_6"
  attr {
    key: "T"
    value {
      type: DT_DOUBLE
    }
  }
}
node {
  name: "filter_type_0/Reshape_12/shape"
  op: "Const"
  attr {
    key: "dtype"
    value {
      type: DT_INT32
    }
  }
  attr {
    key: "value"
    value {
      tensor {
        dtype: DT_INT32
        tensor_shape {
          dim {
            size: 2
          }
        }
        tensor_content: "\377\377\377\377\004\000\000\000"
      }
    }
  }
}
node {
  name: "filter_type_0/Reshape_12"
  op: "Reshape"
  input: "filter_type_0/Tanh_6"
  input: "filter_type_0/Reshape_12/shape"
  attr {
    key: "T"
    value {
      type: DT_DOUBLE
    }
  }
  attr {
    key: "Tshape"
    value {
      type: DT_INT32
    }
  }
}
node {
  name: "filter_type_0/idt_3_1"
  op: "Const"
  attr {
    key: "dtype"
    value {
      type: DT_DOUBLE
    }
  }
  attr {
    key: "value"
    value {
      tensor {
        dtype: DT_DOUBLE
        tensor_shape {
          dim {
            size: 1
          }
          dim {
            size: 4
          }
        }
        tensor_content: "0\207;\3663\320\357?\270rJi\276\323\357?\353\266B\3741\017\360?\241\2064f\233\352\357?"
      }
    }
  }
}
node {
  name: "filter_type_0/idt_3_1/read"
  op: "Identity"
  input: "filter_type_0/idt_3_1"
  attr {
    key: "T"
    value {
      type: DT_DOUBLE
    }
  }
  attr {
    key: "_class"
    value {
      list {
        s: "loc:@filter_type_0/idt_3_1"
      }
    }
  }
}
node {
  name: "filter_type_0/mul_3"
  op: "Mul"
  input: "filter_type_0/Reshape_12"
  input: "filter_type_0/idt_3_1/read"
  attr {
    key: "T"
    value {
      type: DT_DOUBLE
    }
  }
}
node {
  name: "filter_type_0/add_3"
  op: "AddV2"
  input: "filter_type_0/add_2"
  input: "filter_type_0/mul_3"
  attr {
    key: "T"
    value {
      type: DT_DOUBLE
    }
  }
}
node {
  name: "filter_type_0/matrix_4_1"
  op: "Const"
  attr {
    key: "dtype"
    value {
      type: DT_DOUBLE
    }
  }
  attr {
    key: "value"
    value {
      tensor {
        dtype: DT_DOUBLE
        tensor_shape {
          dim {
            size: 4
          }
          dim {
            size: 16
          }
        }
        tensor_content: "…"
      }
    }
  }
}
node {
  name: "filter_type_0/matrix_4_1/read"
  op: "Identity"
  input: "filter_type_0/matrix_4_1"
  attr {
    key: "T"
    value {
      type: DT_DOUBLE
    }
  }
  attr {
    key: "_class"
    value {
      list {
        s: "loc:@filter_type_0/matrix_4_1"
      }
    }
  }
}
node {
  name: "filter_type_0/bias_4_1"
  op: "Const"
  attr {
    key: "dtype"
    value {
      type: DT_DOUBLE
    }
  }
  attr {
    key: "value"
    value {
      tensor {
        dtype: DT_DOUBLE
        tensor_shape {
          dim {
            size: 16
          }
        }
        tensor_content: "…"
      }
    }
  }
}
node {
  name: "filter_type_0/bias_4_1/read"
  op: "Identity"
  input: "filter_type_0/bias_4_1"
  attr {
    key: "T"
    value {
      type: DT_DOUBLE
    }
  }
  attr {
    key: "_class"
    value {
      list {
        s: "loc:@filter_type_0/bias_4_1"
      }
    }
  }
}
node {
  name: "filter_type_0/MatMul_8"
  op: "MatMul"
  input: "filter_type_0/add_3"
  input: "filter_type_0/matrix_4_1/read"
  attr {
    key: "T"
    value {
      type: DT_DOUBLE
    }
  }
  attr {
    key: "transpose_a"
    value {
      b: false
    }
  }
  attr {
    key: "transpose_b"
    value {
      b: false
    }
  }
}
node {
  name: "filter_type_0/BiasAdd_7"
  op: "BiasAdd"
  input: "filter_type_0/MatMul_8"
  input: "filter_type_0/bias_4_1/read"
  attr {
    key: "T"
    value {
      type: DT_DOUBLE
    }
  }
  attr {
    key: "data_format"
    value {
      s: "NHWC"
    }
  }
}
node {
  name: "filter_type_0/Tanh_7"
  op: "Tanh"
  input: "filter_type_0/BiasAdd_7"
  attr {
    key: "T"
    value {
      type: DT_DOUBLE
    }
  }
}
node {
  name: "filter_type_0/Reshape_13/shape"
  op: "Const"
  attr {
    key: "dtype"
    value {
      type: DT_INT32
    }
  }
  attr {
    key: "value"
    value {
      tensor {
        dtype: DT_INT32
        tensor_shape {
          dim {
            size: 2
          }
        }
        tensor_content: "\377\377\377\377\020\000\000\000"
      }
    }
  }
}
node {
  name: "filter_type_0/Reshape_13"
  op: "Reshape"
  input: "filter_type_0/Tanh_7"
  input: "filter_type_0/Reshape_13/shape"
  attr {
    key: "T"
    value {
      type: DT_DOUBLE
    }
  }
  attr {
    key: "Tshape"
    value {
      type: DT_INT32
    }
  }
}
node {
  name: "filter_type_0/Reshape_14/shape"
  op: "Const"
  attr {
    key: "dtype"
    value {
      type: DT_INT32
    }
  }
  attr {
    key: "value"
    value {
      tensor {
        dtype: DT_INT32
        tensor_shape {
          dim {
            size: 3
          }
        }
        tensor_content: "\377\377\377\377\020\000\000\000\020\000\000\000"
      }
    }
  }
}
node {
  name: "filter_type_0/Reshape_14"
  op: "Reshape"
  input: "filter_type_0/Reshape_13"
  input: "filter_type_0/Reshape_14/shape"
  attr {
    key: "T"
    value {
      type: DT_DOUBLE
    }
  }
  attr {
    key: "Tshape"
    value {
      type: DT_INT32
    }
  }
}
node {
  name: "filter_type_0/Reshape_15/shape/1"
  op: "Const"
  attr {
    key: "dtype"
    value {
      type: DT_INT32
    }
  }
  attr {
    key: "value"
    value {
      tensor {
        dtype: DT_INT32
        tensor_shape {
        }
        int_val: 16
      }
    }
  }
}
node {
  name: "filter_type_0/Reshape_15/shape/2"
  op: "Const"
  attr {
    key: "dtype"
    value {
      type: DT_INT32
    }
  }
  attr {
    key: "value"
    value {
      tensor {
        dtype: DT_INT32
        tensor_shape {
        }
        int_val: 4
      }
    }
  }
}
node {
  name: "filter_type_0/Reshape_15/shape"
  op: "Pack"
  input: "filter_type_0/strided_slice_1"
  input: "filter_type_0/Reshape_15/shape/1"
  input: "filter_type_0/Reshape_15/shape/2"
  attr {
    key: "N"
    value {
      i: 3
    }
  }
  attr {
    key: "T"
    value {
      type: DT_INT32
    }
  }
  attr {
    key: "axis"
    value {
      i: 0
    }
  }
}
node {
  name: "filter_type_0/Reshape_15"
  op: "Reshape"
  input: "filter_type_0/Slice_2"
  input: "filter_type_0/Reshape_15/shape"
  attr {
    key: "T"
    value {
      type: DT_DOUBLE
    }
  }
  attr {
    key: "Tshape"
    value {
      type: DT_INT32
    }
  }
}
node {
  name: "filter_type_0/MatMul_9"
  op: "BatchMatMulV2"
  input: "filter_type_0/Reshape_15"
  input: "filter_type_0/Reshape_14"
  attr {
    key: "T"
    value {
      type: DT_DOUBLE
    }
  }
  attr {
    key: "adj_x"
    value {
      b: true
    }
  }
  attr {
    key: "adj_y"
    value {
      b: false
    }
  }
}
node {
  name: "filter_type_0/Slice_4/begin"
  op: "Const"
  attr {
    key: "dtype"
    value {
      type: DT_INT32
    }
  }
  attr {
    key: "value"
    value {
      tensor {
        dtype: DT_INT32
        tensor_shape {
          dim {
            size: 2
          }
        }
        tensor_content: "\000\000\000\000\320\000\000\000"
      }
    }
  }
}
node {
  name: "filter_type_0/Slice_4/size"
  op: "Const"
  attr {
    key: "dtype"
    value {
      type: DT_INT32
    }
  }
  attr {
    key: "value"
    value {
      tensor {
        dtype: DT_INT32
        tensor_shape {
          dim {
            size: 2
          }
        }
        tensor_content: "\377\377\377\377`\000\000\000"
      }
    }
  }
}
node {
  name: "filter_type_0/Slice_4"
  op: "Slice"
  input: "Reshape_8"
  input: "filter_type_0/Slice_4/begin"
  input: "filter_type_0/Slice_4/size"
  attr {
    key: "Index"
    value {
      type: DT_INT32
    }
  }
  attr {
    key: "T"
    value {
      type: DT_DOUBLE
    }
  }
}
node {
  name: "filter_type_0/Shape_2"
  op: "Shape"
  input: "filter_type_0/Slice_4"
  attr {
    key: "T"
    value {
      type: DT_DOUBLE
    }
  }
  attr {
    key: "out_type"
    value {
      type: DT_INT32
    }
  }
}
node {
  name: "filter_type_0/strided_slice_2/stack"
  op: "Const"
  attr {
    key: "dtype"
    value {
      type: DT_INT32
    }
  }
  attr {
    key: "value"
    value {
      tensor {
        dtype: DT_INT32
        tensor_shape {
          dim {
            size: 1
          }
        }
        int_val: 0
      }
    }
  }
}
node {
  name: "filter_type_0/strided_slice_2/stack_1"
  op: "Const"
  attr {
    key: "dtype"
    value {
      type: DT_INT32
    }
  }
  attr {
    key: "value"
    value {
      tensor {
        dtype: DT_INT32
        tensor_shape {
          dim {
            size: 1
          }
        }
        int_val: 1
      }
    }
  }
}
node {
  name: "filter_type_0/strided_slice_2/stack_2"
  op: "Const"
  attr {
    key: "dtype"
    value {
      type: DT_INT32
    }
  }
  attr {
    key: "value"
    value {
      tensor {
        dtype: DT_INT32
        tensor_shape {
          dim {
            size: 1
          }
        }
        int_val: 1
      }
    }
  }
}
node {
  name: "filter_type_0/strided_slice_2"
  op: "StridedSlice"
  input: "filter_type_0/Shape_2"
  input: "filter_type_0/strided_slice_2/stack"
  input: "filter_type_0/strided_slice_2/stack_1"
  input: "filter_type_0/strided_slice_2/stack_2"
  attr {
    key: "Index"
    value {
      type: DT_INT32
    }
  }
  attr {
    key: "T"
    value {
      type: DT_INT32
    }
  }
  attr {
    key: "begin_mask"
    value {
      i: 0
    }
  }
  attr {
    key: "ellipsis_mask"
    value {
      i: 0
    }
  }
  attr {
    key: "end_mask"
    value {
      i: 0
    }
  }
  attr {
    key: "new_axis_mask"
    value {
      i: 0
    }
  }
  attr {
    key: "shrink_axis_mask"
    value {
      i: 1
    }
  }
}
node {
  name: "filter_type_0/Reshape_16/shape"
  op: "Const"
  attr {
    key: "dtype"
    value {
      type: DT_INT32
    }
  }
  attr {
    key: "value"
    value {
      tensor {
        dtype: DT_INT32
        tensor_shape {
          dim {
            size: 2
          }
        }
        tensor_content: "\377\377\377\377\004\000\000\000"
      }
    }
  }
}
node {
  name: "filter_type_0/Reshape_16"
  op: "Reshape"
  input: "filter_type_0/Slice_4"
  input: "filter_type_0/Reshape_16/shape"
  attr {
    key: "T"
    value {
      type: DT_DOUBLE
    }
  }
  attr {
    key: "Tshape"
    value {
      type: DT_INT32
    }
  }
}
node {
  name: "filter_type_0/Slice_5/begin"
  op: "Const"
  attr {
    key: "dtype"
    value {
      type: DT_INT32
    }
  }
  attr {
    key: "value"
    value {
      tensor {
        dtype: DT_INT32
        tensor_shape {
          dim {
            size: 2
          }
        }
        tensor_content: "\000\000\000\000\000\000\000\000"
      }
    }
  }
}
node {
  name: "filter_type_0/Slice_5/size"
  op: "Const"
  attr {
    key: "dtype"
    value {
      type: DT_INT32
    }
  }
  attr {
    key: "value"
    value {
      tensor {
        dtype: DT_INT32
        tensor_shape {
          dim {
            size: 2
          }
        }
        tensor_content: "\377\377\377\377\001\000\000\000"
      }
    }
  }
}
node {
  name: "filter_type_0/Slice_5"
  op: "Slice"
  input: "filter_type_0/Reshape_16"
  input: "filter_type_0/Slice_5/begin"
  input: "filter_type_0/Slice_5/size"
  attr {
    key: "Index"
    value {
      type: DT_INT32
    }
  }
  attr {
    key: "T"
    value {
      type: DT_DOUBLE
    }
  }
}
node {
  name: "filter_type_0/Reshape_17/shape"
  op: "Const"
  attr {
    key: "dtype"
    value {
      type: DT_INT32
    }
  }
  attr {
    key: "value"
    value {
      tensor {
        dtype: DT_INT32
        tensor_shape {
          dim {
            size: 2
          }
        }
        tensor_content: "\377\377\377\377\001\000\000\000"
      }
    }
  }
}
node {
  name: "filter_type_0/Reshape_17"
  op: "Reshape"
  input: "filter_type_0/Slice_5"
  input: "filter_type_0/Reshape_17/shape"
  attr {
    key: "T"
    value {
      type: DT_DOUBLE
    }
  }
  attr {
    key: "Tshape"
    value {
      type: DT_INT32
    }
  }
}
node {
  name: "filter_type_0/matrix_1_2"
  op: "Const"
  attr {
    key: "dtype"
    value {
      type: DT_DOUBLE
    }
  }
  attr {
    key: "value"
    value {
      tensor {
        dtype: DT_DOUBLE
        tensor_shape {
          dim {
            size: 1
          }
          dim {
            size: 4
          }
        }
        tensor_content: "…"
      }
    }
  }
}
node {
  name: "filter_type_0/matrix_1_2/read"
  op: "Identity"
  input: "filter_type_0/matrix_1_2"
  attr {
    key: "T"
    value {
      type: DT_DOUBLE
    }
  }
  attr {
    key: "_class"
    value {
      list {
        s: "loc:@filter_type_0/matrix_1_2"
      }
    }
  }
}
node {
  name: "filter_type_0/bias_1_2"
  op: "Const"
  attr {
    key: "dtype"
    value {
      type: DT_DOUBLE
    }
  }
  attr {
    key: "value"
    value {
      tensor {
        dtype: DT_DOUBLE
        tensor_shape {
          dim {
            size: 4
          }
        }
        tensor_content: "\230Z;\251\"\256\331\277|\222\357\234\345\003\357?=P\2626\275\271\300\277{\n\360V\235\241\346\277"
      }
    }
  }
}
node {
  name: "filter_type_0/bias_1_2/read"
  op: "Identity"
  input: "filter_type_0/bias_1_2"
  attr {
    key: "T"
    value {
      type: DT_DOUBLE
    }
  }
  attr {
    key: "_class"
    value {
      list {
        s: "loc:@filter_type_0/bias_1_2"
      }
    }
  }
}
node {
  name: "filter_type_0/MatMul_10"
  op: "MatMul"
  input: "filter_type_0/Reshape_17"
  input: "filter_type_0/matrix_1_2/read"
  attr {
    key: "T"
    value {
      type: DT_DOUBLE
    }
  }
  attr {
    key: "transpose_a"
    value {
      b: false
    }
  }
  attr {
    key: "transpose_b"
    value {
      b: false
    }
  }
}
node {
  name: "filter_type_0/BiasAdd_8"
  op: "BiasAdd"
  input: "filter_type_0/MatMul_10"
  input: "filter_type_0/bias_1_2/read"
  attr {
    key: "T"
    value {
      type: DT_DOUBLE
    }
  }
  attr {
    key: "data_format"
    value {
      s: "NHWC"
    }
  }
}
node {
  name: "filter_type_0/Tanh_8"
  op: "Tanh"
  input: "filter_type_0/BiasAdd_8"
  attr {
    key: "T"
    value {
      type: DT_DOUBLE
    }
  }
}
node {
  name: "filter_type_0/Reshape_18/shape"
  op: "Const"
  attr {
    key: "dtype"
    value {
      type: DT_INT32
    }
  }
  attr {
    key: "value"
    value {
      tensor {
        dtype: DT_INT32
        tensor_shape {
          dim {
            size: 2
          }
        }
        tensor_content: "\377\377\377\377\004\000\000\000"
      }
    }
  }
}
node {
  name: "filter_type_0/Reshape_18"
  op: "Reshape"
  input: "filter_type_0/Tanh_8"
  input: "filter_type_0/Reshape_18/shape"
  attr {
    key: "T"
    value {
      type: DT_DOUBLE
    }
  }
  attr {
    key: "Tshape"
    value {
      type: DT_INT32
    }
  }
}
node {
  name: "filter_type_0/matrix_2_2"
  op: "Const"
  attr {
    key: "dtype"
    value {
      type: DT_DOUBLE
    }
  }
  attr {
    key: "value"
    value {
      tensor {
        dtype: DT_DOUBLE
        tensor_shape {
          dim {
            size: 4
          }
          dim {
            size: 4
          }
        }
        tensor_content: "…"
      }
    }
  }
}
node {
  name: "filter_type_0/matrix_2_2/read"
  op: "Identity"
  input: "filter_type_0/matrix_2_2"
  attr {
    key: "T"
    value {
      type: DT_DOUBLE
    }
  }
  attr {
    key: "_class"
    value {
      list {
        s: "loc:@filter_type_0/matrix_2_2"
      }
    }
  }
}
node {
  name: "filter_type_0/bias_2_2"
  op: "Const"
  attr {
    key: "dtype"
    value {
      type: DT_DOUBLE
    }
  }
  attr {
    key: "value"
    value {
      tensor {
        dtype: DT_DOUBLE
        tensor_shape {
          dim {
            size: 4
          }
        }
        tensor_content: "\310|ML\022\026\243?\004\327sJ .\337?\'\254\0302\336\326\343?\203%\242M\3769\340?"
      }
    }
  }
}
node {
  name: "filter_type_0/bias_2_2/read"
  op: "Identity"
  input: "filter_type_0/bias_2_2"
  attr {
    key: "T"
    value {
      type: DT_DOUBLE
    }
  }
  attr {
    key: "_class"
    value {
      list {
        s: "loc:@filter_type_0/bias_2_2"
      }
    }
  }
}
node {
  name: "filter_type_0/MatMul_11"
  op: "MatMul"
  input: "filter_type_0/Reshape_18"
  input: "filter_type_0/matrix_2_2/read"
  attr {
    key: "T"
    value {
      type: DT_DOUBLE
    }
  }
  attr {
    key: "transpose_a"
    value {
      b: false
    }
  }
  attr {
    key: "transpose_b"
    value {
      b: false
    }
  }
}
node {
  name: "filter_type_0/BiasAdd_9"
  op: "BiasAdd"
  input: "filter_type_0/MatMul_11"
  input: "filter_type_0/bias_2_2/read"
  attr {
    key: "T"
    value {
      type: DT_DOUBLE
    }
  }
  attr {
    key: "data_format"
    value {
      s: "NHWC"
    }
  }
}
node {
  name: "filter_type_0/Tanh_9"
  op: "Tanh"
  input: "filter_type_0/BiasAdd_9"
  attr {
    key: "T"
    value {
      type: DT_DOUBLE
    }
  }
}
node {
  name: "filter_type_0/Reshape_19/shape"
  op: "Const"
  attr {
    key: "dtype"
    value {
      type: DT_INT32
    }
  }
  attr {
    key: "value"
    value {
      tensor {
        dtype: DT_INT32
        tensor_shape {
          dim {
            size: 2
          }
        }
        tensor_content: "\377\377\377\377\004\000\000\000"
      }
    }
  }
}
node {
  name: "filter_type_0/Reshape_19"
  op: "Reshape"
  input: "filter_type_0/Tanh_9"
  input: "filter_type_0/Reshape_19/shape"
  attr {
    key: "T"
    value {
      type: DT_DOUBLE
    }
  }
  attr {
    key: "Tshape"
    value {
      type: DT_INT32
    }
  }
}
node {
  name: "filter_type_0/idt_2_2"
  op: "Const"
  attr {
    key: "dtype"
    value {
      type: DT_DOUBLE
    }
  }
  attr {
    key: "value"
    value {
      tensor {
        dtype: DT_DOUBLE
        tensor_shape {
          dim {
            size: 1
          }
          dim {
            size: 4
          }
        }
        tensor_content: "\\\353.2J\367\357?\335..n\364\004\360?\222\317\204\215\000\003\360?R\224\'=\003\005\360?"
      }
    }
  }
}
node {
  name: "filter_type_0/idt_2_2/read"
  op: "Identity"
  input: "filter_type_0/idt_2_2"
  attr {
    key: "T"
    value {
      type: DT_DOUBLE
    }
  }
  attr {
    key: "_class"
    value {
      list {
        s: "loc:@filter_type_0/idt_2_2"
      }
    }
  }
}
node {
  name: "filter_type_0/mul_4"
  op: "Mul"
  input: "filter_type_0/Reshape_19"
  input: "filter_type_0/idt_2_2/read"
  attr {
    key: "T"
    value {
      type: DT_DOUBLE
    }
  }
}
node {
  name: "filter_type_0/add_4"
  op: "AddV2"
  input: "filter_type_0/Reshape_18"
  input: "filter_type_0/mul_4"
  attr {
    key: "T"
    value {
      type: DT_DOUBLE
    }
  }
}
node {
  name: "filter_type_0/matrix_3_2"
  op: "Const"
  attr {
    key: "dtype"
    value {
      type: DT_DOUBLE
    }
  }
  attr {
    key: "value"
    value {
      tensor {
        dtype: DT_DOUBLE
        tensor_shape {
          dim {
            size: 4
          }
          dim {
            size: 4
          }
        }
        tensor_content: "…"
      }
    }
  }
}
node {
  name: "filter_type_0/matrix_3_2/read"
  op: "Identity"
  input: "filter_type_0/matrix_3_2"
  attr {
    key: "T"
    value {
      type: DT_DOUBLE
    }
  }
  attr {
    key: "_class"
    value {
      list {
        s: "loc:@filter_type_0/matrix_3_2"
      }
    }
  }
}
node {
  name: "filter_type_0/bias_3_2"
  op: "Const"
  attr {
    key: "dtype"
    value {
      type: DT_DOUBLE
    }
  }
  attr {
    key: "value"
    value {
      tensor {
        dtype: DT_DOUBLE
        tensor_shape {
          dim {
            size: 4
          }
        }
        tensor_content: "\205\313\206\277]\262\375?}E+2CJ\361?6:\242\2426\333\347?\377\302\353:6\236\371\277"
      }
    }
  }
}
node {
  name: "filter_type_0/bias_3_2/read"
  op: "Identity"
  input: "filter_type_0/bias_3_2"
  attr {
    key: "T"
    value {
      type: DT_DOUBLE
    }
  }
  attr {
    key: "_class"
    value {
      list {
        s: "loc:@filter_type_0/bias_3_2"
      }
    }
  }
}
node {
  name: "filter_type_0/MatMul_12"
  op: "MatMul"
  input: "filter_type_0/add_4"
  input: "filter_type_0/matrix_3_2/read"
  attr {
    key: "T"
    value {
      type: DT_DOUBLE
    }
  }
  attr {
    key: "transpose_a"
    value {
      b: false
    }
  }
  attr {
    key: "transpose_b"
    value {
      b: false
    }
  }
}
node {
  name: "filter_type_0/BiasAdd_10"
  op: "BiasAdd"
  input: "filter_type_0/MatMul_12"
  input: "filter_type_0/bias_3_2/read"
  attr {
    key: "T"
    value {
      type: DT_DOUBLE
    }
  }
  attr {
    key: "data_format"
    value {
      s: "NHWC"
    }
  }
}
node {
  name: "filter_type_0/Tanh_10"
  op: "Tanh"
  input: "filter_type_0/BiasAdd_10"
  attr {
    key: "T"
    value {
      type: DT_DOUBLE
    }
  }
}
node {
  name: "filter_type_0/Reshape_20/shape"
  op: "Const"
  attr {
    key: "dtype"
    value {
      type: DT_INT32
    }
  }
  attr {
    key: "value"
    value {
      tensor {
        dtype: DT_INT32
        tensor_shape {
          dim {
            size: 2
          }
        }
        tensor_content: "\377\377\377\377\004\000\000\000"
      }
    }
  }
}
node {
  name: "filter_type_0/Reshape_20"
  op: "Reshape"
  input: "filter_type_0/Tanh_10"
  input: "filter_type_0/Reshape_20/shape"
  attr {
    key: "T"
    value {
      type: DT_DOUBLE
    }
  }
  attr {
    key: "Tshape"
    value {
      type: DT_INT32
    }
  }
}
node {
  name: "filter_type_0/idt_3_2"
  op: "Const"
  attr {
    key: "dtype"
    value {
      type: DT_DOUBLE
    }
  }
  attr {
    key: "value"
    value {
      tensor {
        dtype: DT_DOUBLE
        tensor_shape {
          dim {
            size: 1
          }
          dim {
            size: 4
          }
        }
        tensor_content: "…"
      }
    }
  }
}
node {
  name: "filter_type_0/idt_3_2/read"
  op: "Identity"
  input: "filter_type_0/idt_3_2"
  attr {
    key: "T"
    value {
      type: DT_DOUBLE
    }
  }
  attr {
    key: "_class"
    value {
      list {
        s: "loc:@filter_type_0/idt_3_2"
      }
    }
  }
}
node {
  name: "filter_type_0/mul_5"
  op: "Mul"
  input: "filter_type_0/Reshape_20"
  input: "filter_type_0/idt_3_2/read"
  attr {
    key: "T"
    value {
      type: DT_DOUBLE
    }
  }
}
node {
  name: "filter_type_0/add_5"
  op: "AddV2"
  input: "filter_type_0/add_4"
  input: "filter_type_0/mul_5"
  attr {
    key: "T"
    value {
      type: DT_DOUBLE
    }
  }
}
node {
  name: "filter_type_0/matrix_4_2"
  op: "Const"
  attr {
    key: "dtype"
    value {
      type: DT_DOUBLE
    }
  }
  attr {
    key: "value"
    value {
      tensor {
        dtype: DT_DOUBLE
        tensor_shape {
          dim {
            size: 4
          }
          dim {
            size: 16
          }
        }
        tensor_content: "…"
      }
    }
  }
}
node {
  name: "filter_type_0/matrix_4_2/read"
  op: "Identity"
  input: "filter_type_0/matrix_4_2"
  attr {
    key: "T"
    value {
      type: DT_DOUBLE
    }
  }
  attr {
    key: "_class"
    value {
      list {
        s: "loc:@filter_type_0/matrix_4_2"
      }
    }
  }
}
node {
  name: "filter_type_0/bias_4_2"
  op: "Const"
  attr {
    key: "dtype"
    value {
      type: DT_DOUBLE
    }
  }
  attr {
    key: "value"
    value {
      tensor {
        dtype: DT_DOUBLE
        tensor_shape {
          dim {
            size: 16
          }
        }
        tensor_content: "…"
      }
    }
  }
}
node {
  name: "filter_type_0/bias_4_2/read"
  op: "Identity"
  input: "filter_type_0/bias_4_2"
  attr {
    key: "T"
    value {
      type: DT_DOUBLE
    }
  }
  attr {
    key: "_class"
    value {
      list {
        s: "loc:@filter_type_0/bias_4_2"
      }
    }
  }
}
node {
  name: "filter_type_0/MatMul_13"
  op: "MatMul"
  input: "filter_type_0/add_5"
  input: "filter_type_0/matrix_4_2/read"
  attr {
    key: "T"
    value {
      type: DT_DOUBLE
    }
  }
  attr {
    key: "transpose_a"
    value {
      b: false
    }
  }
  attr {
    key: "transpose_b"
    value {
      b: false
    }
  }
}
node {
  name: "filter_type_0/BiasAdd_11"
  op: "BiasAdd"
  input: "filter_type_0/MatMul_13"
  input: "filter_type_0/bias_4_2/read"
  attr {
    key: "T"
    value {
      type: DT_DOUBLE
    }
  }
  attr {
    key: "data_format"
    value {
      s: "NHWC"
    }
  }
}
node {
  name: "filter_type_0/Tanh_11"
  op: "Tanh"
  input: "filter_type_0/BiasAdd_11"
  attr {
    key: "T"
    value {
      type: DT_DOUBLE
    }
  }
}
node {
  name: "filter_type_0/Reshape_21/shape"
  op: "Const"
  attr {
    key: "dtype"
    value {
      type: DT_INT32
    }
  }
  attr {
    key: "value"
    value {
      tensor {
        dtype: DT_INT32
        tensor_shape {
          dim {
            size: 2
          }
        }
        tensor_content: "\377\377\377\377\020\000\000\000"
      }
    }
  }
}
node {
  name: "filter_type_0/Reshape_21"
  op: "Reshape"
  input: "filter_type_0/Tanh_11"
  input: "filter_type_0/Reshape_21/shape"
  attr {
    key: "T"
    value {
      type: DT_DOUBLE
    }
  }
  attr {
    key: "Tshape"
    value {
      type: DT_INT32
    }
  }
}
node {
  name: "filter_type_0/Reshape_22/shape"
  op: "Const"
  attr {
    key: "dtype"
    value {
      type: DT_INT32
    }
  }
  attr {
    key: "value"
    value {
      tensor {
        dtype: DT_INT32
        tensor_shape {
          dim {
            size: 3
          }
        }
        tensor_content: "\377\377\377\377\030\000\000\000\020\000\000\000"
      }
    }
  }
}
node {
  name: "filter_type_0/Reshape_22"
  op: "Reshape"
  input: "filter_type_0/Reshape_21"
  input: "filter_type_0/Reshape_22/shape"
  attr {
    key: "T"
    value {
      type: DT_DOUBLE
    }
  }
  attr {
    key: "Tshape"
    value {
      type: DT_INT32
    }
  }
}
node {
  name: "filter_type_0/Reshape_23/shape/1"
  op: "Const"
  attr {
    key: "dtype"
    value {
      type: DT_INT32
    }
  }
  attr {
    key: "value"
    value {
      tensor {
        dtype: DT_INT32
        tensor_shape {
        }
        int_val: 24
      }
    }
  }
}
node {
  name: "filter_type_0/Reshape_23/shape/2"
  op: "Const"
  attr {
    key: "dtype"
    value {
      type: DT_INT32
    }
  }
  attr {
    key: "value"
    value {
      tensor {
        dtype: DT_INT32
        tensor_shape {
        }
        int_val: 4
      }
    }
  }
}
node {
  name: "filter_type_0/Reshape_23/shape"
  op: "Pack"
  input: "filter_type_0/strided_slice_2"
  input: "filter_type_0/Reshape_23/shape/1"
  input: "filter_type_0/Reshape_23/shape/2"
  attr {
    key: "N"
    value {
      i: 3
    }
  }
  attr {
    key: "T"
    value {
      type: DT_INT32
    }
  }
  attr {
    key: "axis"
    value {
      i: 0
    }
  }
}
node {
  name: "filter_type_0/Reshape_23"
  op: "Reshape"
  input: "filter_type_0/Slice_4"
  input: "filter_type_0/Reshape_23/shape"
  attr {
    key: "T"
    value {
      type: DT_DOUBLE
    }
  }
  attr {
    key: "Tshape"
    value {
      type: DT_INT32
    }
  }
}
node {
  name: "filter_type_0/MatMul_14"
  op: "BatchMatMulV2"
  input: "filter_type_0/Reshape_23"
  input: "filter_type_0/Reshape_22"
  attr {
    key: "T"
    value {
      type: DT_DOUBLE
    }
  }
  attr {
    key: "adj_x"
    value {
      b: true
    }
  }
  attr {
    key: "adj_y"
    value {
      b: false
    }
  }
}
node {
  name: "filter_type_0/Slice_6/begin"
  op: "Const"
  attr {
    key: "dtype"
    value {
      type: DT_INT32
    }
  }
  attr {
    key: "value"
    value {
      tensor {
        dtype: DT_INT32
        tensor_shape {
          dim {
            size: 2
          }
        }
        tensor_content: "\000\000\000\0000\001\000\000"
      }
    }
  }
}
node {
  name: "filter_type_0/Slice_6/size"
  op: "Const"
  attr {
    key: "dtype"
    value {
      type: DT_INT32
    }
  }
  attr {
    key: "value"
    value {
      tensor {
        dtype: DT_INT32
        tensor_shape {
          dim {
            size: 2
          }
        }
        tensor_content: "\377\377\377\377\000\001\000\000"
      }
    }
  }
}
node {
  name: "filter_type_0/Slice_6"
  op: "Slice"
  input: "Reshape_8"
  input: "filter_type_0/Slice_6/begin"
  input: "filter_type_0/Slice_6/size"
  attr {
    key: "Index"
    value {
      type: DT_INT32
    }
  }
  attr {
    key: "T"
    value {
      type: DT_DOUBLE
    }
  }
}
node {
  name: "filter_type_0/Shape_3"
  op: "Shape"
  input: "filter_type_0/Slice_6"
  attr {
    key: "T"
    value {
      type: DT_DOUBLE
    }
  }
  attr {
    key: "out_type"
    value {
      type: DT_INT32
    }
  }
}
node {
  name: "filter_type_0/strided_slice_3/stack"
  op: "Const"
  attr {
    key: "dtype"
    value {
      type: DT_INT32
    }
  }
  attr {
    key: "value"
    value {
      tensor {
        dtype: DT_INT32
        tensor_shape {
          dim {
            size: 1
          }
        }
        int_val: 0
      }
    }
  }
}
node {
  name: "filter_type_0/strided_slice_3/stack_1"
  op: "Const"
  attr {
    key: "dtype"
    value {
      type: DT_INT32
    }
  }
  attr {
    key: "value"
    value {
      tensor {
        dtype: DT_INT32
        tensor_shape {
          dim {
            size: 1
          }
        }
        int_val: 1
      }
    }
  }
}
node {
  name: "filter_type_0/strided_slice_3/stack_2"
  op: "Const"
  attr {
    key: "dtype"
    value {
      type: DT_INT32
    }
  }
  attr {
    key: "value"
    value {
      tensor {
        dtype: DT_INT32
        tensor_shape {
          dim {
            size: 1
          }
        }
        int_val: 1
      }
    }
  }
}
node {
  name: "filter_type_0/strided_slice_3"
  op: "StridedSlice"
  input: "filter_type_0/Shape_3"
  input: "filter_type_0/strided_slice_3/stack"
  input: "filter_type_0/strided_slice_3/stack_1"
  input: "filter_type_0/strided_slice_3/stack_2"
  attr {
    key: "Index"
    value {
      type: DT_INT32
    }
  }
  attr {
    key: "T"
    value {
      type: DT_INT32
    }
  }
  attr {
    key: "begin_mask"
    value {
      i: 0
    }
  }
  attr {
    key: "ellipsis_mask"
    value {
      i: 0
    }
  }
  attr {
    key: "end_mask"
    value {
      i: 0
    }
  }
  attr {
    key: "new_axis_mask"
    value {
      i: 0
    }
  }
  attr {
    key: "shrink_axis_mask"
    value {
      i: 1
    }
  }
}
node {
  name: "filter_type_0/Reshape_24/shape"
  op: "Const"
  attr {
    key: "dtype"
    value {
      type: DT_INT32
    }
  }
  attr {
    key: "value"
    value {
      tensor {
        dtype: DT_INT32
        tensor_shape {
          dim {
            size: 2
          }
        }
        tensor_content: "\377\377\377\377\004\000\000\000"
      }
    }
  }
}
node {
  name: "filter_type_0/Reshape_24"
  op: "Reshape"
  input: "filter_type_0/Slice_6"
  input: "filter_type_0/Reshape_24/shape"
  attr {
    key: "T"
    value {
      type: DT_DOUBLE
    }
  }
  attr {
    key: "Tshape"
    value {
      type: DT_INT32
    }
  }
}
node {
  name: "filter_type_0/Slice_7/begin"
  op: "Const"
  attr {
    key: "dtype"
    value {
      type: DT_INT32
    }
  }
  attr {
    key: "value"
    value {
      tensor {
        dtype: DT_INT32
        tensor_shape {
          dim {
            size: 2
          }
        }
        tensor_content: "\000\000\000\000\000\000\000\000"
      }
    }
  }
}
node {
  name: "filter_type_0/Slice_7/size"
  op: "Const"
  attr {
    key: "dtype"
    value {
      type: DT_INT32
    }
  }
  attr {
    key: "value"
    value {
      tensor {
        dtype: DT_INT32
        tensor_shape {
          dim {
            size: 2
          }
        }
        tensor_content: "\377\377\377\377\001\000\000\000"
      }
    }
  }
}
node {
  name: "filter_type_0/Slice_7"
  op: "Slice"
  input: "filter_type_0/Reshape_24"
  input: "filter_type_0/Slice_7/begin"
  input: "filter_type_0/Slice_7/size"
  attr {
    key: "Index"
    value {
      type: DT_INT32
    }
  }
  attr {
    key: "T"
    value {
      type: DT_DOUBLE
    }
  }
}
node {
  name: "filter_type_0/Reshape_25/shape"
  op: "Const"
  attr {
    key: "dtype"
    value {
      type: DT_INT32
    }
  }
  attr {
    key: "value"
    value {
      tensor {
        dtype: DT_INT32
        tensor_shape {
          dim {
            size: 2
          }
        }
        tensor_content: "\377\377\377\377\001\000\000\000"
      }
    }
  }
}
node {
  name: "filter_type_0/Reshape_25"
  op: "Reshape"
  input: "filter_type_0/Slice_7"
  input: "filter_type_0/Reshape_25/shape"
  attr {
    key: "T"
    value {
      type: DT_DOUBLE
    }
  }
  attr {
    key: "Tshape"
    value {
      type: DT_INT32
    }
  }
}
node {
  name: "filter_type_0/matrix_1_3"
  op: "Const"
  attr {
    key: "dtype"
    value {
      type: DT_DOUBLE
    }
  }
  attr {
    key: "value"
    value {
      tensor {
        dtype: DT_DOUBLE
        tensor_shape {
          dim {
            size: 1
          }
          dim {
            size: 4
          }
        }
        tensor_content: "p.\n.F\363\270\277\277\006\024\321t\025\344?\360t\236\202\027\260\272?]\224\264\256*h\311?"
      }
    }
  }
}
node {
  name: "filter_type_0/matrix_1_3/read"
  op: "Identity"
  input: "filter_type_0/matrix_1_3"
  attr {
    key: "T"
    value {
      type: DT_DOUBLE
    }
  }
  attr {
    key: "_class"
    value {
      list {
        s: "loc:@filter_type_0/matrix_1_3"
      }
    }
  }
}
node {
  name: "filter_type_0/bias_1_3"
  op: "Const"
  attr {
    key: "dtype"
    value {
      type: DT_DOUBLE
    }
  }
  attr {
    key: "value"
    value {
      tensor {
        dtype: DT_DOUBLE
        tensor_shape {
          dim {
            size: 4
          }
        }
        tensor_content: "\314\357:\023`s\376?\036\343\311\340%\236\361\277\357$M\257\353\227\334?\001;l}o\242\344?"
      }
    }
  }
}
node {
  name: "filter_type_0/bias_1_3/read"
  op: "Identity"
  input: "filter_type_0/bias_1_3"
  attr {
    key: "T"
    value {
      type: DT_DOUBLE
    }
  }
  attr {
    key: "_class"
    value {
      list {
        s: "loc:@filter_type_0/bias_1_3"
      }
    }
  }
}
node {
  name: "filter_type_0/MatMul_15"
  op: "MatMul"
  input: "filter_type_0/Reshape_25"
  input: "filter_type_0/matrix_1_3/read"
  attr {
    key: "T"
    value {
      type: DT_DOUBLE
    }
  }
  attr {
    key: "transpose_a"
    value {
      b: false
    }
  }
  attr {
    key: "transpose_b"
    value {
      b: false
    }
  }
}
node {
  name: "filter_type_0/BiasAdd_12"
  op: "BiasAdd"
  input: "filter_type_0/MatMul_15"
  input: "filter_type_0/bias_1_3/read"
  attr {
    key: "T"
    value {
      type: DT_DOUBLE
    }
  }
  attr {
    key: "data_format"
    value {
      s: "NHWC"
    }
  }
}
node {
  name: "filter_type_0/Tanh_12"
  op: "Tanh"
  input: "filter_type_0/BiasAdd_12"
  attr {
    key: "T"
    value {
      type: DT_DOUBLE
    }
  }
}
node {
  name: "filter_type_0/Reshape_26/shape"
  op: "Const"
  attr {
    key: "dtype"
    value {
      type: DT_INT32
    }
  }
  attr {
    key: "value"
    value {
      tensor {
        dtype: DT_INT32
        tensor_shape {
          dim {
            size: 2
          }
        }
        tensor_content: "\377\377\377\377\004\000\000\000"
      }
    }
  }
}
node {
  name: "filter_type_0/Reshape_26"
  op: "Reshape"
  input: "filter_type_0/Tanh_12"
  input: "filter_type_0/Reshape_26/shape"
  attr {
    key: "T"
    value {
      type: DT_DOUBLE
    }
  }
  attr {
    key: "Tshape"
    value {
      type: DT_INT32
    }
  }
}
node {
  name: "filter_type_0/matrix_2_3"
  op: "Const"
  attr {
    key: "dtype"
    value {
      type: DT_DOUBLE
    }
  }
  attr {
    key: "value"
    value {
      tensor {
        dtype: DT_DOUBLE
        tensor_shape {
          dim {
            size: 4
          }
          dim {
            size: 4
          }
        }
        tensor_content: "…"
      }
    }
  }
}
node {
  name: "filter_type_0/matrix_2_3/read"
  op: "Identity"
  input: "filter_type_0/matrix_2_3"
  attr {
    key: "T"
    value {
      type: DT_DOUBLE
    }
  }
  attr {
    key: "_class"
    value {
      list {
        s: "loc:@filter_type_0/matrix_2_3"
      }
    }
  }
}
node {
  name: "filter_type_0/bias_2_3"
  op: "Const"
  attr {
    key: "dtype"
    value {
      type: DT_DOUBLE
    }
  }
  attr {
    key: "value"
    value {
      tensor {
        dtype: DT_DOUBLE
        tensor_shape {
          dim {
            size: 4
          }
        }
        tensor_content: "…"
      }
    }
  }
}
node {
  name: "filter_type_0/bias_2_3/read"
  op: "Identity"
  input: "filter_type_0/bias_2_3"
  attr {
    key: "T"
    value {
      type: DT_DOUBLE
    }
  }
  attr {
    key: "_class"
    value {
      list {
        s: "loc:@filter_type_0/bias_2_3"
      }
    }
  }
}
node {
  name: "filter_type_0/MatMul_16"
  op: "MatMul"
  input: "filter_type_0/Reshape_26"
  input: "filter_type_0/matrix_2_3/read"
  attr {
    key: "T"
    value {
      type: DT_DOUBLE
    }
  }
  attr {
    key: "transpose_a"
    value {
      b: false
    }
  }
  attr {
    key: "transpose_b"
    value {
      b: false
    }
  }
}
node {
  name: "filter_type_0/BiasAdd_13"
  op: "BiasAdd"
  input: "filter_type_0/MatMul_16"
  input: "filter_type_0/bias_2_3/read"
  attr {
    key: "T"
    value {
      type: DT_DOUBLE
    }
  }
  attr {
    key: "data_format"
    value {
      s: "NHWC"
    }
  }
}
node {
  name: "filter_type_0/Tanh_13"
  op: "Tanh"
  input: "filter_type_0/BiasAdd_13"
  attr {
    key: "T"
    value {
      type: DT_DOUBLE
    }
  }
}
node {
  name: "filter_type_0/Reshape_27/shape"
  op: "Const"
  attr {
    key: "dtype"
    value {
      type: DT_INT32
    }
  }
  attr {
    key: "value"
    value {
      tensor {
        dtype: DT_INT32
        tensor_shape {
          dim {
            size: 2
          }
        }
        tensor_content: "\377\377\377\377\004\000\000\000"
      }
    }
  }
}
node {
  name: "filter_type_0/Reshape_27"
  op: "Reshape"
  input: "filter_type_0/Tanh_13"
  input: "filter_type_0/Reshape_27/shape"
  attr {
    key: "T"
    value {
      type: DT_DOUBLE
    }
  }
  attr {
    key: "Tshape"
    value {
      type: DT_INT32
    }
  }
}
node {
  name: "filter_type_0/idt_2_3"
  op: "Const"
  attr {
    key: "dtype"
    value {
      type: DT_DOUBLE
    }
  }
  attr {
    key: "value"
    value {
      tensor {
        dtype: DT_DOUBLE
        tensor_shape {
          dim {
            size: 1
          }
          dim {
            size: 4
          }
        }
        tensor_content: "b\334\244|G\334\357?NX\366\2157\363\357?b~\374\360\267\032\360?\235l#\217A\301\357?"
      }
    }
  }
}
node {
  name: "filter_type_0/idt_2_3/read"
  op: "Identity"
  input: "filter_type_0/idt_2_3"
  attr {
    key: "T"
    value {
      type: DT_DOUBLE
    }
  }
  attr {
    key: "_class"
    value {
      list {
        s: "loc:@filter_type_0/idt_2_3"
      }
    }
  }
}
node {
  name: "filter_type_0/mul_6"
  op: "Mul"
  input: "filter_type_0/Reshape_27"
  input: "filter_type_0/idt_2_3/read"
  attr {
    key: "T"
    value {
      type: DT_DOUBLE
    }
  }
}
node {
  name: "filter_type_0/add_6"
  op: "AddV2"
  input: "filter_type_0/Reshape_26"
  input: "filter_type_0/mul_6"
  attr {
    key: "T"
    value {
      type: DT_DOUBLE
    }
  }
}
node {
  name: "filter_type_0/matrix_3_3"
  op: "Const"
  attr {
    key: "dtype"
    value {
      type: DT_DOUBLE
    }
  }
  attr {
    key: "value"
    value {
      tensor {
        dtype: DT_DOUBLE
        tensor_shape {
          dim {
            size: 4
          }
          dim {
            size: 4
          }
        }
        tensor_content: "…"
      }
    }
  }
}
node {
  name: "filter_type_0/matrix_3_3/read"
  op: "Identity"
  input: "filter_type_0/matrix_3_3"
  attr {
    key: "T"
    value {
      type: DT_DOUBLE
    }
  }
  attr {
    key: "_class"
    value {
      list {
        s: "loc:@filter_type_0/matrix_3_3"
      }
    }
  }
}
node {
  name: "filter_type_0/bias_3_3"
  op: "Const"
  attr {
    key: "dtype"
    value {
      type: DT_DOUBLE
    }
  }
  attr {
    key: "value"
    value {
      tensor {
        dtype: DT_DOUBLE
        tensor_shape {
          dim {
            size: 4
          }
        }
        tensor_content: "\261^\372\037\340\022\261\277\347?&?.\316\332?\327\r\214:\323\216\365?\234\256\220\257Fx\244?"
      }
    }
  }
}
node {
  name: "filter_type_0/bias_3_3/read"
  op: "Identity"
  input: "filter_type_0/bias_3_3"
  attr {
    key: "T"
    value {
      type: DT_DOUBLE
    }
  }
  attr {
    key: "_class"
    value {
      list {
        s: "loc:@filter_type_0/bias_3_3"
      }
    }
  }
}
node {
  name: "filter_type_0/MatMul_17"
  op: "MatMul"
  input: "filter_type_0/add_6"
  input: "filter_type_0/matrix_3_3/read"
  attr {
    key: "T"
    value {
      type: DT_DOUBLE
    }
  }
  attr {
    key: "transpose_a"
    value {
      b: false
    }
  }
  attr {
    key: "transpose_b"
    value {
      b: false
    }
  }
}
node {
  name: "filter_type_0/BiasAdd_14"
  op: "BiasAdd"
  input: "filter_type_0/MatMul_17"
  input: "filter_type_0/bias_3_3/read"
  attr {
    key: "T"
    value {
      type: DT_DOUBLE
    }
  }
  attr {
    key: "data_format"
    value {
      s: "NHWC"
    }
  }
}
node {
  name: "filter_type_0/Tanh_14"
  op: "Tanh"
  input: "filter_type_0/BiasAdd_14"
  attr {
    key: "T"
    value {
      type: DT_DOUBLE
    }
  }
}
node {
  name: "filter_type_0/Reshape_28/shape"
  op: "Const"
  attr {
    key: "dtype"
    value {
      type: DT_INT32
    }
  }
  attr {
    key: "value"
    value {
      tensor {
        dtype: DT_INT32
        tensor_shape {
          dim {
            size: 2
          }
        }
        tensor_content: "\377\377\377\377\004\000\000\000"
      }
    }
  }
}
node {
  name: "filter_type_0/Reshape_28"
  op: "Reshape"
  input: "filter_type_0/Tanh_14"
  input: "filter_type_0/Reshape_28/shape"
  attr {
    key: "T"
    value {
      type: DT_DOUBLE
    }
  }
  attr {
    key: "Tshape"
    value {
      type: DT_INT32
    }
  }
}
node {
  name: "filter_type_0/idt_3_3"
  op: "Const"
  attr {
    key: "dtype"
    value {
      type: DT_DOUBLE
    }
  }
  attr {
    key: "value"
    value {
      tensor {
        dtype: DT_DOUBLE
        tensor_shape {
          dim {
            size: 1
          }
          dim {
            size: 4
          }
        }
        tensor_content: "=\016\321\031\370\375\357?fe\237\207`\005\360?U;#\235\375\036\360?T\322\t\323\204\276\357?"
      }
    }
  }
}
node {
  name: "filter_type_0/idt_3_3/read"
  op: "Identity"
  input: "filter_type_0/idt_3_3"
  attr {
    key: "T"
    value {
      type: DT_DOUBLE
    }
  }
  attr {
    key: "_class"
    value {
      list {
        s: "loc:@filter_type_0/idt_3_3"
      }
    }
  }
}
node {
  name: "filter_type_0/mul_7"
  op: "Mul"
  input: "filter_type_0/Reshape_28"
  input: "filter_type_0/idt_3_3/read"
  attr {
    key: "T"
    value {
      type: DT_DOUBLE
    }
  }
}
node {
  name: "filter_type_0/add_7"
  op: "AddV2"
  input: "filter_type_0/add_6"
  input: "filter_type_0/mul_7"
  attr {
    key: "T"
    value {
      type: DT_DOUBLE
    }
  }
}
node {
  name: "filter_type_0/matrix_4_3"
  op: "Const"
  attr {
    key: "dtype"
    value {
      type: DT_DOUBLE
    }
  }
  attr {
    key: "value"
    value {
      tensor {
        dtype: DT_DOUBLE
        tensor_shape {
          dim {
            size: 4
          }
          dim {
            size: 16
          }
        }
        tensor_content: "…"
      }
    }
  }
}
node {
  name: "filter_type_0/matrix_4_3/read"
  op: "Identity"
  input: "filter_type_0/matrix_4_3"
  attr {
    key: "T"
    value {
      type: DT_DOUBLE
    }
  }
  attr {
    key: "_class"
    value {
      list {
        s: "loc:@filter_type_0/matrix_4_3"
      }
    }
  }
}
node {
  name: "filter_type_0/bias_4_3"
  op: "Const"
  attr {
    key: "dtype"
    value {
      type: DT_DOUBLE
    }
  }
  attr {
    key: "value"
    value {
      tensor {
        dtype: DT_DOUBLE
        tensor_shape {
          dim {
            size: 16
          }
        }
        tensor_content: "…"
      }
    }
  }
}
node {
  name: "filter_type_0/bias_4_3/read"
  op: "Identity"
  input: "filter_type_0/bias_4_3"
  attr {
    key: "T"
    value {
      type: DT_DOUBLE
    }
  }
  attr {
    key: "_class"
    value {
      list {
        s: "loc:@filter_type_0/bias_4_3"
      }
    }
  }
}
node {
  name: "filter_type_0/MatMul_18"
  op: "MatMul"
  input: "filter_type_0/add_7"
  input: "filter_type_0/matrix_4_3/read"
  attr {
    key: "T"
    value {
      type: DT_DOUBLE
    }
  }
  attr {
    key: "transpose_a"
    value {
      b: false
    }
  }
  attr {
    key: "transpose_b"
    value {
      b: false
    }
  }
}
node {
  name: "filter_type_0/BiasAdd_15"
  op: "BiasAdd"
  input: "filter_type_0/MatMul_18"
  input: "filter_type_0/bias_4_3/read"
  attr {
    key: "T"
    value {
      type: DT_DOUBLE
    }
  }
  attr {
    key: "data_format"
    value {
      s: "NHWC"
    }
  }
}
node {
  name: "filter_type_0/Tanh_15"
  op: "Tanh"
  input: "filter_type_0/BiasAdd_15"
  attr {
    key: "T"
    value {
      type: DT_DOUBLE
    }
  }
}
node {
  name: "filter_type_0/Reshape_29/shape"
  op: "Const"
  attr {
    key: "dtype"
    value {
      type: DT_INT32
    }
  }
  attr {
    key: "value"
    value {
      tensor {
        dtype: DT_INT32
        tensor_shape {
          dim {
            size: 2
          }
        }
        tensor_content: "\377\377\377\377\020\000\000\000"
      }
    }
  }
}
node {
  name: "filter_type_0/Reshape_29"
  op: "Reshape"
  input: "filter_type_0/Tanh_15"
  input: "filter_type_0/Reshape_29/shape"
  attr {
    key: "T"
    value {
      type: DT_DOUBLE
    }
  }
  attr {
    key: "Tshape"
    value {
      type: DT_INT32
    }
  }
}
node {
  name: "filter_type_0/Reshape_30/shape"
  op: "Const"
  attr {
    key: "dtype"
    value {
      type: DT_INT32
    }
  }
  attr {
    key: "value"
    value {
      tensor {
        dtype: DT_INT32
        tensor_shape {
          dim {
            size: 3
          }
        }
        tensor_content: "\377\377\377\377@\000\000\000\020\000\000\000"
      }
    }
  }
}
node {
  name: "filter_type_0/Reshape_30"
  op: "Reshape"
  input: "filter_type_0/Reshape_29"
  input: "filter_type_0/Reshape_30/shape"
  attr {
    key: "T"
    value {
      type: DT_DOUBLE
    }
  }
  attr {
    key: "Tshape"
    value {
      type: DT_INT32
    }
  }
}
node {
  name: "filter_type_0/Reshape_31/shape/1"
  op: "Const"
  attr {
    key: "dtype"
    value {
      type: DT_INT32
    }
  }
  attr {
    key: "value"
    value {
      tensor {
        dtype: DT_INT32
        tensor_shape {
        }
        int_val: 64
      }
    }
  }
}
node {
  name: "filter_type_0/Reshape_31/shape/2"
  op: "Const"
  attr {
    key: "dtype"
    value {
      type: DT_INT32
    }
  }
  attr {
    key: "value"
    value {
      tensor {
        dtype: DT_INT32
        tensor_shape {
        }
        int_val: 4
      }
    }
  }
}
node {
  name: "filter_type_0/Reshape_31/shape"
  op: "Pack"
  input: "filter_type_0/strided_slice_3"
  input: "filter_type_0/Reshape_31/shape/1"
  input: "filter_type_0/Reshape_31/shape/2"
  attr {
    key: "N"
    value {
      i: 3
    }
  }
  attr {
    key: "T"
    value {
      type: DT_INT32
    }
  }
  attr {
    key: "axis"
    value {
      i: 0
    }
  }
}
node {
  name: "filter_type_0/Reshape_31"
  op: "Reshape"
  input: "filter_type_0/Slice_6"
  input: "filter_type_0/Reshape_31/shape"
  attr {
    key: "T"
    value {
      type: DT_DOUBLE
    }
  }
  attr {
    key: "Tshape"
    value {
      type: DT_INT32
    }
  }
}
node {
  name: "filter_type_0/MatMul_19"
  op: "BatchMatMulV2"
  input: "filter_type_0/Reshape_31"
  input: "filter_type_0/Reshape_30"
  attr {
    key: "T"
    value {
      type: DT_DOUBLE
    }
  }
  attr {
    key: "adj_x"
    value {
      b: true
    }
  }
  attr {
    key: "adj_y"
    value {
      b: false
    }
  }
}
node {
  name: "filter_type_0/Slice_8/begin"
  op: "Const"
  attr {
    key: "dtype"
    value {
      type: DT_INT32
    }
  }
  attr {
    key: "value"
    value {
      tensor {
        dtype: DT_INT32
        tensor_shape {
          dim {
            size: 2
          }
        }
        tensor_content: "\000\000\000\0000\002\000\000"
      }
    }
  }
}
node {
  name: "filter_type_0/Slice_8/size"
  op: "Const"
  attr {
    key: "dtype"
    value {
      type: DT_INT32
    }
  }
  attr {
    key: "value"
    value {
      tensor {
        dtype: DT_INT32
        tensor_shape {
          dim {
            size: 2
          }
        }
        tensor_content: "\377\377\377\377\030\000\000\000"
      }
    }
  }
}
node {
  name: "filter_type_0/Slice_8"
  op: "Slice"
  input: "Reshape_8"
  input: "filter_type_0/Slice_8/begin"
  input: "filter_type_0/Slice_8/size"
  attr {
    key: "Index"
    value {
      type: DT_INT32
    }
  }
  attr {
    key: "T"
    value {
      type: DT_DOUBLE
    }
  }
}
node {
  name: "filter_type_0/Shape_4"
  op: "Shape"
  input: "filter_type_0/Slice_8"
  attr {
    key: "T"
    value {
      type: DT_DOUBLE
    }
  }
  attr {
    key: "out_type"
    value {
      type: DT_INT32
    }
  }
}
node {
  name: "filter_type_0/strided_slice_4/stack"
  op: "Const"
  attr {
    key: "dtype"
    value {
      type: DT_INT32
    }
  }
  attr {
    key: "value"
    value {
      tensor {
        dtype: DT_INT32
        tensor_shape {
          dim {
            size: 1
          }
        }
        int_val: 0
      }
    }
  }
}
node {
  name: "filter_type_0/strided_slice_4/stack_1"
  op: "Const"
  attr {
    key: "dtype"
    value {
      type: DT_INT32
    }
  }
  attr {
    key: "value"
    value {
      tensor {
        dtype: DT_INT32
        tensor_shape {
          dim {
            size: 1
          }
        }
        int_val: 1
      }
    }
  }
}
node {
  name: "filter_type_0/strided_slice_4/stack_2"
  op: "Const"
  attr {
    key: "dtype"
    value {
      type: DT_INT32
    }
  }
  attr {
    key: "value"
    value {
      tensor {
        dtype: DT_INT32
        tensor_shape {
          dim {
            size: 1
          }
        }
        int_val: 1
      }
    }
  }
}
node {
  name: "filter_type_0/strided_slice_4"
  op: "StridedSlice"
  input: "filter_type_0/Shape_4"
  input: "filter_type_0/strided_slice_4/stack"
  input: "filter_type_0/strided_slice_4/stack_1"
  input: "filter_type_0/strided_slice_4/stack_2"
  attr {
    key: "Index"
    value {
      type: DT_INT32
    }
  }
  attr {
    key: "T"
    value {
      type: DT_INT32
    }
  }
  attr {
    key: "begin_mask"
    value {
      i: 0
    }
  }
  attr {
    key: "ellipsis_mask"
    value {
      i: 0
    }
  }
  attr {
    key: "end_mask"
    value {
      i: 0
    }
  }
  attr {
    key: "new_axis_mask"
    value {
      i: 0
    }
  }
  attr {
    key: "shrink_axis_mask"
    value {
      i: 1
    }
  }
}
node {
  name: "filter_type_0/Reshape_32/shape"
  op: "Const"
  attr {
    key: "dtype"
    value {
      type: DT_INT32
    }
  }
  attr {
    key: "value"
    value {
      tensor {
        dtype: DT_INT32
        tensor_shape {
          dim {
            size: 2
          }
        }
        tensor_content: "\377\377\377\377\004\000\000\000"
      }
    }
  }
}
node {
  name: "filter_type_0/Reshape_32"
  op: "Reshape"
  input: "filter_type_0/Slice_8"
  input: "filter_type_0/Reshape_32/shape"
  attr {
    key: "T"
    value {
      type: DT_DOUBLE
    }
  }
  attr {
    key: "Tshape"
    value {
      type: DT_INT32
    }
  }
}
node {
  name: "filter_type_0/Slice_9/begin"
  op: "Const"
  attr {
    key: "dtype"
    value {
      type: DT_INT32
    }
  }
  attr {
    key: "value"
    value {
      tensor {
        dtype: DT_INT32
        tensor_shape {
          dim {
            size: 2
          }
        }
        tensor_content: "\000\000\000\000\000\000\000\000"
      }
    }
  }
}
node {
  name: "filter_type_0/Slice_9/size"
  op: "Const"
  attr {
    key: "dtype"
    value {
      type: DT_INT32
    }
  }
  attr {
    key: "value"
    value {
      tensor {
        dtype: DT_INT32
        tensor_shape {
          dim {
            size: 2
          }
        }
        tensor_content: "\377\377\377\377\001\000\000\000"
      }
    }
  }
}
node {
  name: "filter_type_0/Slice_9"
  op: "Slice"
  input: "filter_type_0/Reshape_32"
  input: "filter_type_0/Slice_9/begin"
  input: "filter_type_0/Slice_9/size"
  attr {
    key: "Index"
    value {
      type: DT_INT32
    }
  }
  attr {
    key: "T"
    value {
      type: DT_DOUBLE
    }
  }
}
node {
  name: "filter_type_0/Reshape_33/shape"
  op: "Const"
  attr {
    key: "dtype"
    value {
      type: DT_INT32
    }
  }
  attr {
    key: "value"
    value {
      tensor {
        dtype: DT_INT32
        tensor_shape {
          dim {
            size: 2
          }
        }
        tensor_content: "\377\377\377\377\001\000\000\000"
      }
    }
  }
}
node {
  name: "filter_type_0/Reshape_33"
  op: "Reshape"
  input: "filter_type_0/Slice_9"
  input: "filter_type_0/Reshape_33/shape"
  attr {
    key: "T"
    value {
      type: DT_DOUBLE
    }
  }
  attr {
    key: "Tshape"
    value {
      type: DT_INT32
    }
  }
}
node {
  name: "filter_type_0/matrix_1_4"
  op: "Const"
  attr {
    key: "dtype"
    value {
      type: DT_DOUBLE
    }
  }
  attr {
    key: "value"
    value {
      tensor {
        dtype: DT_DOUBLE
        tensor_shape {
          dim {
            size: 1
          }
          dim {
            size: 4
          }
        }
        tensor_content: "…"
      }
    }
  }
}
node {
  name: "filter_type_0/matrix_1_4/read"
  op: "Identity"
  input: "filter_type_0/matrix_1_4"
  attr {
    key: "T"
    value {
      type: DT_DOUBLE
    }
  }
  attr {
    key: "_class"
    value {
      list {
        s: "loc:@filter_type_0/matrix_1_4"
      }
    }
  }
}
node {
  name: "filter_type_0/bias_1_4"
  op: "Const"
  attr {
    key: "dtype"
    value {
      type: DT_DOUBLE
    }
  }
  attr {
    key: "value"
    value {
      tensor {
        dtype: DT_DOUBLE
        tensor_shape {
          dim {
            size: 4
          }
        }
        tensor_content: "\217\233S\250#a\352?3JL{\237\264\362?1\354\331K\014r\327?5uw\320\373\321\257\277"
      }
    }
  }
}
node {
  name: "filter_type_0/bias_1_4/read"
  op: "Identity"
  input: "filter_type_0/bias_1_4"
  attr {
    key: "T"
    value {
      type: DT_DOUBLE
    }
  }
  attr {
    key: "_class"
    value {
      list {
        s: "loc:@filter_type_0/bias_1_4"
      }
    }
  }
}
node {
  name: "filter_type_0/MatMul_20"
  op: "MatMul"
  input: "filter_type_0/Reshape_33"
  input: "filter_type_0/matrix_1_4/read"
  attr {
    key: "T"
    value {
      type: DT_DOUBLE
    }
  }
  attr {
    key: "transpose_a"
    value {
      b: false
    }
  }
  attr {
    key: "transpose_b"
    value {
      b: false
    }
  }
}
node {
  name: "filter_type_0/BiasAdd_16"
  op: "BiasAdd"
  input: "filter_type_0/MatMul_20"
  input: "filter_type_0/bias_1_4/read"
  attr {
    key: "T"
    value {
      type: DT_DOUBLE
    }
  }
  attr {
    key: "data_format"
    value {
      s: "NHWC"
    }
  }
}
node {
  name: "filter_type_0/Tanh_16"
  op: "Tanh"
  input: "filter_type_0/BiasAdd_16"
  attr {
    key: "T"
    value {
      type: DT_DOUBLE
    }
  }
}
node {
  name: "filter_type_0/Reshape_34/shape"
  op: "Const"
  attr {
    key: "dtype"
    value {
      type: DT_INT32
    }
  }
  attr {
    key: "value"
    value {
      tensor {
        dtype: DT_INT32
        tensor_shape {
          dim {
            size: 2
          }
        }
        tensor_content: "\377\377\377\377\004\000\000\000"
      }
    }
  }
}
node {
  name: "filter_type_0/Reshape_34"
  op: "Reshape"
  input: "filter_type_0/Tanh_16"
  input: "filter_type_0/Reshape_34/shape"
  attr {
    key: "T"
    value {
      type: DT_DOUBLE
    }
  }
  attr {
    key: "Tshape"
    value {
      type: DT_INT32
    }
  }
}
node {
  name: "filter_type_0/matrix_2_4"
  op: "Const"
  attr {
    key: "dtype"
    value {
      type: DT_DOUBLE
    }
  }
  attr {
    key: "value"
    value {
      tensor {
        dtype: DT_DOUBLE
        tensor_shape {
          dim {
            size: 4
          }
          dim {
            size: 4
          }
        }
        tensor_content: "…"
      }
    }
  }
}
node {
  name: "filter_type_0/matrix_2_4/read"
  op: "Identity"
  input: "filter_type_0/matrix_2_4"
  attr {
    key: "T"
    value {
      type: DT_DOUBLE
    }
  }
  attr {
    key: "_class"
    value {
      list {
        s: "loc:@filter_type_0/matrix_2_4"
      }
    }
  }
}
node {
  name: "filter_type_0/bias_2_4"
  op: "Const"
  attr {
    key: "dtype"
    value {
      type: DT_DOUBLE
    }
  }
  attr {
    key: "value"
    value {
      tensor {
        dtype: DT_DOUBLE
        tensor_shape {
          dim {
            size: 4
          }
        }
        tensor_content: "…"
      }
    }
  }
}
node {
  name: "filter_type_0/bias_2_4/read"
  op: "Identity"
  input: "filter_type_0/bias_2_4"
  attr {
    key: "T"
    value {
      type: DT_DOUBLE
    }
  }
  attr {
    key: "_class"
    value {
      list {
        s: "loc:@filter_type_0/bias_2_4"
      }
    }
  }
}
node {
  name: "filter_type_0/MatMul_21"
  op: "MatMul"
  input: "filter_type_0/Reshape_34"
  input: "filter_type_0/matrix_2_4/read"
  attr {
    key: "T"
    value {
      type: DT_DOUBLE
    }
  }
  attr {
    key: "transpose_a"
    value {
      b: false
    }
  }
  attr {
    key: "transpose_b"
    value {
      b: false
    }
  }
}
node {
  name: "filter_type_0/BiasAdd_17"
  op: "BiasAdd"
  input: "filter_type_0/MatMul_21"
  input: "filter_type_0/bias_2_4/read"
  attr {
    key: "T"
    value {
      type: DT_DOUBLE
    }
  }
  attr {
    key: "data_format"
    value {
      s: "NHWC"
    }
  }
}
node {
  name: "filter_type_0/Tanh_17"
  op: "Tanh"
  input: "filter_type_0/BiasAdd_17"
  attr {
    key: "T"
    value {
      type: DT_DOUBLE
    }
  }
}
node {
  name: "filter_type_0/Reshape_35/shape"
  op: "Const"
  attr {
    key: "dtype"
    value {
      type: DT_INT32
    }
  }
  attr {
    key: "value"
    value {
      tensor {
        dtype: DT_INT32
        tensor_shape {
          dim {
            size: 2
          }
        }
        tensor_content: "\377\377\377\377\004\000\000\000"
      }
    }
  }
}
node {
  name: "filter_type_0/Reshape_35"
  op: "Reshape"
  input: "filter_type_0/Tanh_17"
  input: "filter_type_0/Reshape_35/shape"
  attr {
    key: "T"
    value {
      type: DT_DOUBLE
    }
  }
  attr {
    key: "Tshape"
    value {
      type: DT_INT32
    }
  }
}
node {
  name: "filter_type_0/idt_2_4"
  op: "Const"
  attr {
    key: "dtype"
    value {
      type: DT_DOUBLE
    }
  }
  attr {
    key: "value"
    value {
      tensor {
        dtype: DT_DOUBLE
        tensor_shape {
          dim {
            size: 1
          }
          dim {
            size: 4
          }
        }
        tensor_content: "i\330A\361\366\022\360?\271\331+\317\237\266\357?\200Zv\245\023(\360?L\373\313\231\370\032\360?"
      }
    }
  }
}
node {
  name: "filter_type_0/idt_2_4/read"
  op: "Identity"
  input: "filter_type_0/idt_2_4"
  attr {
    key: "T"
    value {
      type: DT_DOUBLE
    }
  }
  attr {
    key: "_class"
    value {
      list {
        s: "loc:@filter_type_0/idt_2_4"
      }
    }
  }
}
node {
  name: "filter_type_0/mul_8"
  op: "Mul"
  input: "filter_type_0/Reshape_35"
  input: "filter_type_0/idt_2_4/read"
  attr {
    key: "T"
    value {
      type: DT_DOUBLE
    }
  }
}
node {
  name: "filter_type_0/add_8"
  op: "AddV2"
  input: "filter_type_0/Reshape_34"
  input: "filter_type_0/mul_8"
  attr {
    key: "T"
    value {
      type: DT_DOUBLE
    }
  }
}
node {
  name: "filter_type_0/matrix_3_4"
  op: "Const"
  attr {
    key: "dtype"
    value {
      type: DT_DOUBLE
    }
  }
  attr {
    key: "value"
    value {
      tensor {
        dtype: DT_DOUBLE
        tensor_shape {
          dim {
            size: 4
          }
          dim {
            size: 4
          }
        }
        tensor_content: "…"
      }
    }
  }
}
node {
  name: "filter_type_0/matrix_3_4/read"
  op: "Identity"
  input: "filter_type_0/matrix_3_4"
  attr {
    key: "T"
    value {
      type: DT_DOUBLE
    }
  }
  attr {
    key: "_class"
    value {
      list {
        s: "loc:@filter_type_0/matrix_3_4"
      }
    }
  }
}
node {
  name: "filter_type_0/bias_3_4"
  op: "Const"
  attr {
    key: "dtype"
    value {
      type: DT_DOUBLE
    }
  }
  attr {
    key: "value"
    value {
      tensor {
        dtype: DT_DOUBLE
        tensor_shape {
          dim {
            size: 4
          }
        }
        tensor_content: "\3777D\253~1\337?\307\027h\267\277\370\307?e\306\021^\326\233\335?xE\2103\264W\351\277"
      }
    }
  }
}
node {
  name: "filter_type_0/bias_3_4/read"
  op: "Identity"
  input: "filter_type_0/bias_3_4"
  attr {
    key: "T"
    value {
      type: DT_DOUBLE
    }
  }
  attr {
    key: "_class"
    value {
      list {
        s: "loc:@filter_type_0/bias_3_4"
      }
    }
  }
}
node {
  name: "filter_type_0/MatMul_22"
  op: "MatMul"
  input: "filter_type_0/add_8"
  input: "filter_type_0/matrix_3_4/read"
  attr {
    key: "T"
    value {
      type: DT_DOUBLE
    }
  }
  attr {
    key: "transpose_a"
    value {
      b: false
    }
  }
  attr {
    key: "transpose_b"
    value {
      b: false
    }
  }
}
node {
  name: "filter_type_0/BiasAdd_18"
  op: "BiasAdd"
  input: "filter_type_0/MatMul_22"
  input: "filter_type_0/bias_3_4/read"
  attr {
    key: "T"
    value {
      type: DT_DOUBLE
    }
  }
  attr {
    key: "data_format"
    value {
      s: "NHWC"
    }
  }
}
node {
  name: "filter_type_0/Tanh_18"
  op: "Tanh"
  input: "filter_type_0/BiasAdd_18"
  attr {
    key: "T"
    value {
      type: DT_DOUBLE
    }
  }
}
node {
  name: "filter_type_0/Reshape_36/shape"
  op: "Const"
  attr {
    key: "dtype"
    value {
      type: DT_INT32
    }
  }
  attr {
    key: "value"
    value {
      tensor {
        dtype: DT_INT32
        tensor_shape {
          dim {
            size: 2
          }
        }
        tensor_content: "\377\377\377\377\004\000\000\000"
      }
    }
  }
}
node {
  name: "filter_type_0/Reshape_36"
  op: "Reshape"
  input: "filter_type_0/Tanh_18"
  input: "filter_type_0/Reshape_36/shape"
  attr {
    key: "T"
    value {
      type: DT_DOUBLE
    }
  }
  attr {
    key: "Tshape"
    value {
      type: DT_INT32
    }
  }
}
node {
  name: "filter_type_0/idt_3_4"
  op: "Const"
  attr {
    key: "dtype"
    value {
      type: DT_DOUBLE
    }
  }
  attr {
    key: "value"
    value {
      tensor {
        dtype: DT_DOUBLE
        tensor_shape {
          dim {
            size: 1
          }
          dim {
            size: 4
          }
        }
        tensor_content: "…"
      }
    }
  }
}
node {
  name: "filter_type_0/idt_3_4/read"
  op: "Identity"
  input: "filter_type_0/idt_3_4"
  attr {
    key: "T"
    value {
      type: DT_DOUBLE
    }
  }
  attr {
    key: "_class"
    value {
      list {
        s: "loc:@filter_type_0/idt_3_4"
      }
    }
  }
}
node {
  name: "filter_type_0/mul_9"
  op: "Mul"
  input: "filter_type_0/Reshape_36"
  input: "filter_type_0/idt_3_4/read"
  attr {
    key: "T"
    value {
      type: DT_DOUBLE
    }
  }
}
node {
  name: "filter_type_0/add_9"
  op: "AddV2"
  input: "filter_type_0/add_8"
  input: "filter_type_0/mul_9"
  attr {
    key: "T"
    value {
      type: DT_DOUBLE
    }
  }
}
node {
  name: "filter_type_0/matrix_4_4"
  op: "Const"
  attr {
    key: "dtype"
    value {
      type: DT_DOUBLE
    }
  }
  attr {
    key: "value"
    value {
      tensor {
        dtype: DT_DOUBLE
        tensor_shape {
          dim {
            size: 4
          }
          dim {
            size: 16
          }
        }
        tensor_content: "…"
      }
    }
  }
}
node {
  name: "filter_type_0/matrix_4_4/read"
  op: "Identity"
  input: "filter_type_0/matrix_4_4"
  attr {
    key: "T"
    value {
      type: DT_DOUBLE
    }
  }
  attr {
    key: "_class"
    value {
      list {
        s: "loc:@filter_type_0/matrix_4_4"
      }
    }
  }
}
node {
  name: "filter_type_0/bias_4_4"
  op: "Const"
  attr {
    key: "dtype"
    value {
      type: DT_DOUBLE
    }
  }
  attr {
    key: "value"
    value {
      tensor {
        dtype: DT_DOUBLE
        tensor_shape {
          dim {
            size: 16
          }
        }
        tensor_content: "…"
      }
    }
  }
}
node {
  name: "filter_type_0/bias_4_4/read"
  op: "Identity"
  input: "filter_type_0/bias_4_4"
  attr {
    key: "T"
    value {
      type: DT_DOUBLE
    }
  }
  attr {
    key: "_class"
    value {
      list {
        s: "loc:@filter_type_0/bias_4_4"
      }
    }
  }
}
node {
  name: "filter_type_0/MatMul_23"
  op: "MatMul"
  input: "filter_type_0/add_9"
  input: "filter_type_0/matrix_4_4/read"
  attr {
    key: "T"
    value {
      type: DT_DOUBLE
    }
  }
  attr {
    key: "transpose_a"
    value {
      b: false
    }
  }
  attr {
    key: "transpose_b"
    value {
      b: false
    }
  }
}
node {
  name: "filter_type_0/BiasAdd_19"
  op: "BiasAdd"
  input: "filter_type_0/MatMul_23"
  input: "filter_type_0/bias_4_4/read"
  attr {
    key: "T"
    value {
      type: DT_DOUBLE
    }
  }
  attr {
    key: "data_format"
    value {
      s: "NHWC"
    }
  }
}
node {
  name: "filter_type_0/Tanh_19"
  op: "Tanh"
  input: "filter_type_0/BiasAdd_19"
  attr {
    key: "T"
    value {
      type: DT_DOUBLE
    }
  }
}
node {
  name: "filter_type_0/Reshape_37/shape"
  op: "Const"
  attr {
    key: "dtype"
    value {
      type: DT_INT32
    }
  }
  attr {
    key: "value"
    value {
      tensor {
        dtype: DT_INT32
        tensor_shape {
          dim {
            size: 2
          }
        }
        tensor_content: "\377\377\377\377\020\000\000\000"
      }
    }
  }
}
node {
  name: "filter_type_0/Reshape_37"
  op: "Reshape"
  input: "filter_type_0/Tanh_19"
  input: "filter_type_0/Reshape_37/shape"
  attr {
    key: "T"
    value {
      type: DT_DOUBLE
    }
  }
  attr {
    key: "Tshape"
    value {
      type: DT_INT32
    }
  }
}
node {
  name: "filter_type_0/Reshape_38/shape"
  op: "Const"
  attr {
    key: "dtype"
    value {
      type: DT_INT32
    }
  }
  attr {
    key: "value"
    value {
      tensor {
        dtype: DT_INT32
        tensor_shape {
          dim {
            size: 3
          }
        }
        tensor_content: "\377\377\377\377\006\000\000\000\020\000\000\000"
      }
    }
  }
}
node {
  name: "filter_type_0/Reshape_38"
  op: "Reshape"
  input: "filter_type_0/Reshape_37"
  input: "filter_type_0/Reshape_38/shape"
  attr {
    key: "T"
    value {
      type: DT_DOUBLE
    }
  }
  attr {
    key: "Tshape"
    value {
      type: DT_INT32
    }
  }
}
node {
  name: "filter_type_0/Reshape_39/shape/1"
  op: "Const"
  attr {
    key: "dtype"
    value {
      type: DT_INT32
    }
  }
  attr {
    key: "value"
    value {
      tensor {
        dtype: DT_INT32
        tensor_shape {
        }
        int_val: 6
      }
    }
  }
}
node {
  name: "filter_type_0/Reshape_39/shape/2"
  op: "Const"
  attr {
    key: "dtype"
    value {
      type: DT_INT32
    }
  }
  attr {
    key: "value"
    value {
      tensor {
        dtype: DT_INT32
        tensor_shape {
        }
        int_val: 4
      }
    }
  }
}
node {
  name: "filter_type_0/Reshape_39/shape"
  op: "Pack"
  input: "filter_type_0/strided_slice_4"
  input: "filter_type_0/Reshape_39/shape/1"
  input: "filter_type_0/Reshape_39/shape/2"
  attr {
    key: "N"
    value {
      i: 3
    }
  }
  attr {
    key: "T"
    value {
      type: DT_INT32
    }
  }
  attr {
    key: "axis"
    value {
      i: 0
    }
  }
}
node {
  name: "filter_type_0/Reshape_39"
  op: "Reshape"
  input: "filter_type_0/Slice_8"
  input: "filter_type_0/Reshape_39/shape"
  attr {
    key: "T"
    value {
      type: DT_DOUBLE
    }
  }
  attr {
    key: "Tshape"
    value {
      type: DT_INT32
    }
  }
}
node {
  name: "filter_type_0/MatMul_24"
  op: "BatchMatMulV2"
  input: "filter_type_0/Reshape_39"
  input: "filter_type_0/Reshape_38"
  attr {
    key: "T"
    value {
      type: DT_DOUBLE
    }
  }
  attr {
    key: "adj_x"
    value {
      b: true
    }
  }
  attr {
    key: "adj_y"
    value {
      b: false
    }
  }
}
node {
  name: "filter_type_0/Slice_10/begin"
  op: "Const"
  attr {
    key: "dtype"
    value {
      type: DT_INT32
    }
  }
  attr {
    key: "value"
    value {
      tensor {
        dtype: DT_INT32
        tensor_shape {
          dim {
            size: 2
          }
        }
        tensor_content: "\000\000\000\000H\002\000\000"
      }
    }
  }
}
node {
  name: "filter_type_0/Slice_10/size"
  op: "Const"
  attr {
    key: "dtype"
    value {
      type: DT_INT32
    }
  }
  attr {
    key: "value"
    value {
      tensor {
        dtype: DT_INT32
        tensor_shape {
          dim {
            size: 2
          }
        }
        tensor_content: "\377\377\377\377\004\000\000\000"
      }
    }
  }
}
node {
  name: "filter_type_0/Slice_10"
  op: "Slice"
  input: "Reshape_8"
  input: "filter_type_0/Slice_10/begin"
  input: "filter_type_0/Slice_10/size"
  attr {
    key: "Index"
    value {
      type: DT_INT32
    }
  }
  attr {
    key: "T"
    value {
      type: DT_DOUBLE
    }
  }
}
node {
  name: "filter_type_0/Shape_5"
  op: "Shape"
  input: "filter_type_0/Slice_10"
  attr {
    key: "T"
    value {
      type: DT_DOUBLE
    }
  }
  attr {
    key: "out_type"
    value {
      type: DT_INT32
    }
  }
}
node {
  name: "filter_type_0/strided_slice_5/stack"
  op: "Const"
  attr {
    key: "dtype"
    value {
      type: DT_INT32
    }
  }
  attr {
    key: "value"
    value {
      tensor {
        dtype: DT_INT32
        tensor_shape {
          dim {
            size: 1
          }
        }
        int_val: 0
      }
    }
  }
}
node {
  name: "filter_type_0/strided_slice_5/stack_1"
  op: "Const"
  attr {
    key: "dtype"
    value {
      type: DT_INT32
    }
  }
  attr {
    key: "value"
    value {
      tensor {
        dtype: DT_INT32
        tensor_shape {
          dim {
            size: 1
          }
        }
        int_val: 1
      }
    }
  }
}
node {
  name: "filter_type_0/strided_slice_5/stack_2"
  op: "Const"
  attr {
    key: "dtype"
    value {
      type: DT_INT32
    }
  }
  attr {
    key: "value"
    value {
      tensor {
        dtype: DT_INT32
        tensor_shape {
          dim {
            size: 1
          }
        }
        int_val: 1
      }
    }
  }
}
node {
  name: "filter_type_0/strided_slice_5"
  op: "StridedSlice"
  input: "filter_type_0/Shape_5"
  input: "filter_type_0/strided_slice_5/stack"
  input: "filter_type_0/strided_slice_5/stack_1"
  input: "filter_type_0/strided_slice_5/stack_2"
  attr {
    key: "Index"
    value {
      type: DT_INT32
    }
  }
  attr {
    key: "T"
    value {
      type: DT_INT32
    }
  }
  attr {
    key: "begin_mask"
    value {
      i: 0
    }
  }
  attr {
    key: "ellipsis_mask"
    value {
      i: 0
    }
  }
  attr {
    key: "end_mask"
    value {
      i: 0
    }
  }
  attr {
    key: "new_axis_mask"
    value {
      i: 0
    }
  }
  attr {
    key: "shrink_axis_mask"
    value {
      i: 1
    }
  }
}
node {
  name: "filter_type_0/Reshape_40/shape"
  op: "Const"
  attr {
    key: "dtype"
    value {
      type: DT_INT32
    }
  }
  attr {
    key: "value"
    value {
      tensor {
        dtype: DT_INT32
        tensor_shape {
          dim {
            size: 2
          }
        }
        tensor_content: "\377\377\377\377\004\000\000\000"
      }
    }
  }
}
node {
  name: "filter_type_0/Reshape_40"
  op: "Reshape"
  input: "filter_type_0/Slice_10"
  input: "filter_type_0/Reshape_40/shape"
  attr {
    key: "T"
    value {
      type: DT_DOUBLE
    }
  }
  attr {
    key: "Tshape"
    value {
      type: DT_INT32
    }
  }
}
node {
  name: "filter_type_0/Slice_11/begin"
  op: "Const"
  attr {
    key: "dtype"
    value {
      type: DT_INT32
    }
  }
  attr {
    key: "value"
    value {
      tensor {
        dtype: DT_INT32
        tensor_shape {
          dim {
            size: 2
          }
        }
        tensor_content: "\000\000\000\000\000\000\000\000"
      }
    }
  }
}
node {
  name: "filter_type_0/Slice_11/size"
  op: "Const"
  attr {
    key: "dtype"
    value {
      type: DT_INT32
    }
  }
  attr {
    key: "value"
    value {
      tensor {
        dtype: DT_INT32
        tensor_shape {
          dim {
            size: 2
          }
        }
        tensor_content: "\377\377\377\377\001\000\000\000"
      }
    }
  }
}
node {
  name: "filter_type_0/Slice_11"
  op: "Slice"
  input: "filter_type_0/Reshape_40"
  input: "filter_type_0/Slice_11/begin"
  input: "filter_type_0/Slice_11/size"
  attr {
    key: "Index"
    value {
      type: DT_INT32
    }
  }
  attr {
    key: "T"
    value {
      type: DT_DOUBLE
    }
  }
}
node {
  name: "filter_type_0/Reshape_41/shape"
  op: "Const"
  attr {
    key: "dtype"
    value {
      type: DT_INT32
    }
  }
  attr {
    key: "value"
    value {
      tensor {
        dtype: DT_INT32
        tensor_shape {
          dim {
            size: 2
          }
        }
        tensor_content: "\377\377\377\377\001\000\000\000"
      }
    }
  }
}
node {
  name: "filter_type_0/Reshape_41"
  op: "Reshape"
  input: "filter_type_0/Slice_11"
  input: "filter_type_0/Reshape_41/shape"
  attr {
    key: "T"
    value {
      type: DT_DOUBLE
    }
  }
  attr {
    key: "Tshape"
    value {
      type: DT_INT32
    }
  }
}
node {
  name: "filter_type_0/matrix_1_5"
  op: "Const"
  attr {
    key: "dtype"
    value {
      type: DT_DOUBLE
    }
  }
  attr {
    key: "value"
    value {
      tensor {
        dtype: DT_DOUBLE
        tensor_shape {
          dim {
            size: 1
          }
          dim {
            size: 4
          }
        }
        tensor_content: "\215/\034\303\231F\255\27797\272W)\243\320?\347D\354K\314\352\342\277r4\232\304F\020\316\277"
      }
    }
  }
}
node {
  name: "filter_type_0/matrix_1_5/read"
  op: "Identity"
  input: "filter_type_0/matrix_1_5"
  attr {
    key: "T"
    value {
      type: DT_DOUBLE
    }
  }
  attr {
    key: "_class"
    value {
      list {
        s: "loc:@filter_type_0/matrix_1_5"
      }
    }
  }
}
node {
  name: "filter_type_0/bias_1_5"
  op: "Const"
  attr {
    key: "dtype"
    value {
      type: DT_DOUBLE
    }
  }
  attr {
    key: "value"
    value {
      tensor {
        dtype: DT_DOUBLE
        tensor_shape {
          dim {
            size: 4
          }
        }
        tensor_content: "\301k\260\365\257)\342?,\356\351uAR\362?q\307\200\037-\305\346\277\010x\2435\210\025\231?"
      }
    }
  }
}
node {
  name: "filter_type_0/bias_1_5/read"
  op: "Identity"
  input: "filter_type_0/bias_1_5"
  attr {
    key: "T"
    value {
      type: DT_DOUBLE
    }
  }
  attr {
    key: "_class"
    value {
      list {
        s: "loc:@filter_type_0/bias_1_5"
      }
    }
  }
}
node {
  name: "filter_type_0/MatMul_25"
  op: "MatMul"
  input: "filter_type_0/Reshape_41"
  input: "filter_type_0/matrix_1_5/read"
  attr {
    key: "T"
    value {
      type: DT_DOUBLE
    }
  }
  attr {
    key: "transpose_a"
    value {
      b: false
    }
  }
  attr {
    key: "transpose_b"
    value {
      b: false
    }
  }
}
node {
  name: "filter_type_0/BiasAdd_20"
  op: "BiasAdd"
  input: "filter_type_0/MatMul_25"
  input: "filter_type_0/bias_1_5/read"
  attr {
    key: "T"
    value {
      type: DT_DOUBLE
    }
  }
  attr {
    key: "data_format"
    value {
      s: "NHWC"
    }
  }
}
node {
  name: "filter_type_0/Tanh_20"
  op: "Tanh"
  input: "filter_type_0/BiasAdd_20"
  attr {
    key: "T"
    value {
      type: DT_DOUBLE
    }
  }
}
node {
  name: "filter_type_0/Reshape_42/shape"
  op: "Const"
  attr {
    key: "dtype"
    value {
      type: DT_INT32
    }
  }
  attr {
    key: "value"
    value {
      tensor {
        dtype: DT_INT32
        tensor_shape {
          dim {
            size: 2
          }
        }
        tensor_content: "\377\377\377\377\004\000\000\000"
      }
    }
  }
}
node {
  name: "filter_type_0/Reshape_42"
  op: "Reshape"
  input: "filter_type_0/Tanh_20"
  input: "filter_type_0/Reshape_42/shape"
  attr {
    key: "T"
    value {
      type: DT_DOUBLE
    }
  }
  attr {
    key: "Tshape"
    value {
      type: DT_INT32
    }
  }
}
node {
  name: "filter_type_0/matrix_2_5"
  op: "Const"
  attr {
    key: "dtype"
    value {
      type: DT_DOUBLE
    }
  }
  attr {
    key: "value"
    value {
      tensor {
        dtype: DT_DOUBLE
        tensor_shape {
          dim {
            size: 4
          }
          dim {
            size: 4
          }
        }
        tensor_content: "…"
      }
    }
  }
}
node {
  name: "filter_type_0/matrix_2_5/read"
  op: "Identity"
  input: "filter_type_0/matrix_2_5"
  attr {
    key: "T"
    value {
      type: DT_DOUBLE
    }
  }
  attr {
    key: "_class"
    value {
      list {
        s: "loc:@filter_type_0/matrix_2_5"
      }
    }
  }
}
node {
  name: "filter_type_0/bias_2_5"
  op: "Const"
  attr {
    key: "dtype"
    value {
      type: DT_DOUBLE
    }
  }
  attr {
    key: "value"
    value {
      tensor {
        dtype: DT_DOUBLE
        tensor_shape {
          dim {
            size: 4
          }
        }
        tensor_content: "h \343\362\2255\345?\r\276-\333\351!\323?L\240#DXg\360?<B\361\2625\241\363?"
      }
    }
  }
}
node {
  name: "filter_type_0/bias_2_5/read"
  op: "Identity"
  input: "filter_type_0/bias_2_5"
  attr {
    key: "T"
    value {
      type: DT_DOUBLE
    }
  }
  attr {
    key: "_class"
    value {
      list {
        s: "loc:@filter_type_0/bias_2_5"
      }
    }
  }
}
node {
  name: "filter_type_0/MatMul_26"
  op: "MatMul"
  input: "filter_type_0/Reshape_42"
  input: "filter_type_0/matrix_2_5/read"
  attr {
    key: "T"
    value {
      type: DT_DOUBLE
    }
  }
  attr {
    key: "transpose_a"
    value {
      b: false
    }
  }
  attr {
    key: "transpose_b"
    value {
      b: false
    }
  }
}
node {
  name: "filter_type_0/BiasAdd_21"
  op: "BiasAdd"
  input: "filter_type_0/MatMul_26"
  input: "filter_type_0/bias_2_5/read"
  attr {
    key: "T"
    value {
      type: DT_DOUBLE
    }
  }
  attr {
    key: "data_format"
    value {
      s: "NHWC"
    }
  }
}
node {
  name: "filter_type_0/Tanh_21"
  op: "Tanh"
  input: "filter_type_0/BiasAdd_21"
  attr {
    key: "T"
    value {
      type: DT_DOUBLE
    }
  }
}
node {
  name: "filter_type_0/Reshape_43/shape"
  op: "Const"
  attr {
    key: "dtype"
    value {
      type: DT_INT32
    }
  }
  attr {
    key: "value"
    value {
      tensor {
        dtype: DT_INT32
        tensor_shape {
          dim {
            size: 2
          }
        }
        tensor_content: "\377\377\377\377\004\000\000\000"
      }
    }
  }
}
node {
  name: "filter_type_0/Reshape_43"
  op: "Reshape"
  input: "filter_type_0/Tanh_21"
  input: "filter_type_0/Reshape_43/shape"
  attr {
    key: "T"
    value {
      type: DT_DOUBLE
    }
  }
  attr {
    key: "Tshape"
    value {
      type: DT_INT32
    }
  }
}
node {
  name: "filter_type_0/idt_2_5"
  op: "Const"
  attr {
    key: "dtype"
    value {
      type: DT_DOUBLE
    }
  }
  attr {
    key: "value"
    value {
      tensor {
        dtype: DT_DOUBLE
        tensor_shape {
          dim {
            size: 1
          }
          dim {
            size: 4
          }
        }
        tensor_content: "\007<G\246[\355\357?\252A\033\004t\376\357?\201\026\372W\375\364\357?\201D\373\253\255\002\360?"
      }
    }
  }
}
node {
  name: "filter_type_0/idt_2_5/read"
  op: "Identity"
  input: "filter_type_0/idt_2_5"
  attr {
    key: "T"
    value {
      type: DT_DOUBLE
    }
  }
  attr {
    key: "_class"
    value {
      list {
        s: "loc:@filter_type_0/idt_2_5"
      }
    }
  }
}
node {
  name: "filter_type_0/mul_10"
  op: "Mul"
  input: "filter_type_0/Reshape_43"
  input: "filter_type_0/idt_2_5/read"
  attr {
    key: "T"
    value {
      type: DT_DOUBLE
    }
  }
}
node {
  name: "filter_type_0/add_10"
  op: "AddV2"
  input: "filter_type_0/Reshape_42"
  input: "filter_type_0/mul_10"
  attr {
    key: "T"
    value {
      type: DT_DOUBLE
    }
  }
}
node {
  name: "filter_type_0/matrix_3_5"
  op: "Const"
  attr {
    key: "dtype"
    value {
      type: DT_DOUBLE
    }
  }
  attr {
    key: "value"
    value {
      tensor {
        dtype: DT_DOUBLE
        tensor_shape {
          dim {
            size: 4
          }
          dim {
            size: 4
          }
        }
        tensor_content: "…"
      }
    }
  }
}
node {
  name: "filter_type_0/matrix_3_5/read"
  op: "Identity"
  input: "filter_type_0/matrix_3_5"
  attr {
    key: "T"
    value {
      type: DT_DOUBLE
    }
  }
  attr {
    key: "_class"
    value {
      list {
        s: "loc:@filter_type_0/matrix_3_5"
      }
    }
  }
}
node {
  name: "filter_type_0/bias_3_5"
  op: "Const"
  attr {
    key: "dtype"
    value {
      type: DT_DOUBLE
    }
  }
  attr {
    key: "value"
    value {
      tensor {
        dtype: DT_DOUBLE
        tensor_shape {
          dim {
            size: 4
          }
        }
        tensor_content: "S\265\355\026\004\206\326\277lv\204a\221\274\342?\316S\203\207$\220\367?E\274\326\204\203+\347?"
      }
    }
  }
}
node {
  name: "filter_type_0/bias_3_5/read"
  op: "Identity"
  input: "filter_type_0/bias_3_5"
  attr {
    key: "T"
    value {
      type: DT_DOUBLE
    }
  }
  attr {
    key: "_class"
    value {
      list {
        s: "loc:@filter_type_0/bias_3_5"
      }
    }
  }
}
node {
  name: "filter_type_0/MatMul_27"
  op: "MatMul"
  input: "filter_type_0/add_10"
  input: "filter_type_0/matrix_3_5/read"
  attr {
    key: "T"
    value {
      type: DT_DOUBLE
    }
  }
  attr {
    key: "transpose_a"
    value {
      b: false
    }
  }
  attr {
    key: "transpose_b"
    value {
      b: false
    }
  }
}
node {
  name: "filter_type_0/BiasAdd_22"
  op: "BiasAdd"
  input: "filter_type_0/MatMul_27"
  input: "filter_type_0/bias_3_5/read"
  attr {
    key: "T"
    value {
      type: DT_DOUBLE
    }
  }
  attr {
    key: "data_format"
    value {
      s: "NHWC"
    }
  }
}
node {
  name: "filter_type_0/Tanh_22"
  op: "Tanh"
  input: "filter_type_0/BiasAdd_22"
  attr {
    key: "T"
    value {
      type: DT_DOUBLE
    }
  }
}
node {
  name: "filter_type_0/Reshape_44/shape"
  op: "Const"
  attr {
    key: "dtype"
    value {
      type: DT_INT32
    }
  }
  attr {
    key: "value"
    value {
      tensor {
        dtype: DT_INT32
        tensor_shape {
          dim {
            size: 2
          }
        }
        tensor_content: "\377\377\377\377\004\000\000\000"
      }
    }
  }
}
node {
  name: "filter_type_0/Reshape_44"
  op: "Reshape"
  input: "filter_type_0/Tanh_22"
  input: "filter_type_0/Reshape_44/shape"
  attr {
    key: "T"
    value {
      type: DT_DOUBLE
    }
  }
  attr {
    key: "Tshape"
    value {
      type: DT_INT32
    }
  }
}
node {
  name: "filter_type_0/idt_3_5"
  op: "Const"
  attr {
    key: "dtype"
    value {
      type: DT_DOUBLE
    }
  }
  attr {
    key: "value"
    value {
      tensor {
        dtype: DT_DOUBLE
        tensor_shape {
          dim {
            size: 1
          }
          dim {
            size: 4
          }
        }
        tensor_content: "…"
      }
    }
  }
}
node {
  name: "filter_type_0/idt_3_5/read"
  op: "Identity"
  input: "filter_type_0/idt_3_5"
  attr {
    key: "T"
    value {
      type: DT_DOUBLE
    }
  }
  attr {
    key: "_class"
    value {
      list {
        s: "loc:@filter_type_0/idt_3_5"
      }
    }
  }
}
node {
  name: "filter_type_0/mul_11"
  op: "Mul"
  input: "filter_type_0/Reshape_44"
  input: "filter_type_0/idt_3_5/read"
  attr {
    key: "T"
    value {
      type: DT_DOUBLE
    }
  }
}
node {
  name: "filter_type_0/add_11"
  op: "AddV2"
  input: "filter_type_0/add_10"
  input: "filter_type_0/mul_11"
  attr {
    key: "T"
    value {
      type: DT_DOUBLE
    }
  }
}
node {
  name: "filter_type_0/matrix_4_5"
  op: "Const"
  attr {
    key: "dtype"
    value {
      type: DT_DOUBLE
    }
  }
  attr {
    key: "value"
    value {
      tensor {
        dtype: DT_DOUBLE
        tensor_shape {
          dim {
            size: 4
          }
          dim {
            size: 16
          }
        }
        tensor_content: "…"
      }
    }
  }
}
node {
  name: "filter_type_0/matrix_4_5/read"
  op: "Identity"
  input: "filter_type_0/matrix_4_5"
  attr {
    key: "T"
    value {
      type: DT_DOUBLE
    }
  }
  attr {
    key: "_class"
    value {
      list {
        s: "loc:@filter_type_0/matrix_4_5"
      }
    }
  }
}
node {
  name: "filter_type_0/bias_4_5"
  op: "Const"
  attr {
    key: "dtype"
    value {
      type: DT_DOUBLE
    }
  }
  attr {
    key: "value"
    value {
      tensor {
        dtype: DT_DOUBLE
        tensor_shape {
          dim {
            size: 16
          }
        }
        tensor_content: "…"
      }
    }
  }
}
node {
  name: "filter_type_0/bias_4_5/read"
  op: "Identity"
  input: "filter_type_0/bias_4_5"
  attr {
    key: "T"
    value {
      type: DT_DOUBLE
    }
  }
  attr {
    key: "_class"
    value {
      list {
        s: "loc:@filter_type_0/bias_4_5"
      }
    }
  }
}
node {
  name: "filter_type_0/MatMul_28"
  op: "MatMul"
  input: "filter_type_0/add_11"
  input: "filter_type_0/matrix_4_5/read"
  attr {
    key: "T"
    value {
      type: DT_DOUBLE
    }
  }
  attr {
    key: "transpose_a"
    value {
      b: false
    }
  }
  attr {
    key: "transpose_b"
    value {
      b: false
    }
  }
}
node {
  name: "filter_type_0/BiasAdd_23"
  op: "BiasAdd"
  input: "filter_type_0/MatMul_28"
  input: "filter_type_0/bias_4_5/read"
  attr {
    key: "T"
    value {
      type: DT_DOUBLE
    }
  }
  attr {
    key: "data_format"
    value {
      s: "NHWC"
    }
  }
}
node {
  name: "filter_type_0/Tanh_23"
  op: "Tanh"
  input: "filter_type_0/BiasAdd_23"
  attr {
    key: "T"
    value {
      type: DT_DOUBLE
    }
  }
}
node {
  name: "filter_type_0/Reshape_45/shape"
  op: "Const"
  attr {
    key: "dtype"
    value {
      type: DT_INT32
    }
  }
  attr {
    key: "value"
    value {
      tensor {
        dtype: DT_INT32
        tensor_shape {
          dim {
            size: 2
          }
        }
        tensor_content: "\377\377\377\377\020\000\000\000"
      }
    }
  }
}
node {
  name: "filter_type_0/Reshape_45"
  op: "Reshape"
  input: "filter_type_0/Tanh_23"
  input: "filter_type_0/Reshape_45/shape"
  attr {
    key: "T"
    value {
      type: DT_DOUBLE
    }
  }
  attr {
    key: "Tshape"
    value {
      type: DT_INT32
    }
  }
}
node {
  name: "filter_type_0/Reshape_46/shape"
  op: "Const"
  attr {
    key: "dtype"
    value {
      type: DT_INT32
    }
  }
  attr {
    key: "value"
    value {
      tensor {
        dtype: DT_INT32
        tensor_shape {
          dim {
            size: 3
          }
        }
        tensor_content: "\377\377\377\377\001\000\000\000\020\000\000\000"
      }
    }
  }
}
node {
  name: "filter_type_0/Reshape_46"
  op: "Reshape"
  input: "filter_type_0/Reshape_45"
  input: "filter_type_0/Reshape_46/shape"
  attr {
    key: "T"
    value {
      type: DT_DOUBLE
    }
  }
  attr {
    key: "Tshape"
    value {
      type: DT_INT32
    }
  }
}
node {
  name: "filter_type_0/Reshape_47/shape/1"
  op: "Const"
  attr {
    key: "dtype"
    value {
      type: DT_INT32
    }
  }
  attr {
    key: "value"
    value {
      tensor {
        dtype: DT_INT32
        tensor_shape {
        }
        int_val: 1
      }
    }
  }
}
node {
  name: "filter_type_0/Reshape_47/shape/2"
  op: "Const"
  attr {
    key: "dtype"
    value {
      type: DT_INT32
    }
  }
  attr {
    key: "value"
    value {
      tensor {
        dtype: DT_INT32
        tensor_shape {
        }
        int_val: 4
      }
    }
  }
}
node {
  name: "filter_type_0/Reshape_47/shape"
  op: "Pack"
  input: "filter_type_0/strided_slice_5"
  input: "filter_type_0/Reshape_47/shape/1"
  input: "filter_type_0/Reshape_47/shape/2"
  attr {
    key: "N"
    value {
      i: 3
    }
  }
  attr {
    key: "T"
    value {
      type: DT_INT32
    }
  }
  attr {
    key: "axis"
    value {
      i: 0
    }
  }
}
node {
  name: "filter_type_0/Reshape_47"
  op: "Reshape"
  input: "filter_type_0/Slice_10"
  input: "filter_type_0/Reshape_47/shape"
  attr {
    key: "T"
    value {
      type: DT_DOUBLE
    }
  }
  attr {
    key: "Tshape"
    value {
      type: DT_INT32
    }
  }
}
node {
  name: "filter_type_0/MatMul_29"
  op: "BatchMatMulV2"
  input: "filter_type_0/Reshape_47"
  input: "filter_type_0/Reshape_46"
  attr {
    key: "T"
    value {
      type: DT_DOUBLE
    }
  }
  attr {
    key: "adj_x"
    value {
      b: true
    }
  }
  attr {
    key: "adj_y"
    value {
      b: false
    }
  }
}
node {
  name: "filter_type_0/AddN"
  op: "AddN"
  input: "filter_type_0/MatMul_4"
  input: "filter_type_0/MatMul_9"
  input: "filter_type_0/MatMul_14"
  input: "filter_type_0/MatMul_19"
  input: "filter_type_0/MatMul_24"
  input: "filter_type_0/MatMul_29"
  attr {
    key: "N"
    value {
      i: 6
    }
  }
  attr {
    key: "T"
    value {
      type: DT_DOUBLE
    }
  }
}
node {
  name: "filter_type_0/truediv/y"
  op: "Const"
  attr {
    key: "dtype"
    value {
      type: DT_DOUBLE
    }
  }
  attr {
    key: "value"
    value {
      tensor {
        dtype: DT_DOUBLE
        tensor_shape {
        }
        double_val: 147.0
      }
    }
  }
}
node {
  name: "filter_type_0/truediv"
  op: "RealDiv"
  input: "filter_type_0/AddN"
  input: "filter_type_0/truediv/y"
  attr {
    key: "T"
    value {
      type: DT_DOUBLE
    }
  }
}
node {
  name: "filter_type_0/Slice_12/begin"
  op: "Const"
  attr {
    key: "dtype"
    value {
      type: DT_INT32
    }
  }
  attr {
    key: "value"
    value {
      tensor {
        dtype: DT_INT32
        tensor_shape {
          dim {
            size: 3
          }
        }
        tensor_content: "\000\000\000\000\000\000\000\000\000\000\000\000"
      }
    }
  }
}
node {
  name: "filter_type_0/Slice_12/size"
  op: "Const"
  attr {
    key: "dtype"
    value {
      type: DT_INT32
    }
  }
  attr {
    key: "value"
    value {
      tensor {
        dtype: DT_INT32
        tensor_shape {
          dim {
            size: 3
          }
        }
        tensor_content: "\377\377\377\377\377\377\377\377\010\000\000\000"
      }
    }
  }
}
node {
  name: "filter_type_0/Slice_12"
  op: "Slice"
  input: "filter_type_0/truediv"
  input: "filter_type_0/Slice_12/begin"
  input: "filter_type_0/Slice_12/size"
  attr {
    key: "Index"
    value {
      type: DT_INT32
    }
  }
  attr {
    key: "T"
    value {
      type: DT_DOUBLE
    }
  }
}
node {
  name: "filter_type_0/MatMul_30"
  op: "BatchMatMulV2"
  input: "filter_type_0/truediv"
  input: "filter_type_0/Slice_12"
  attr {
    key: "T"
    value {
      type: DT_DOUBLE
    }
  }
  attr {
    key: "adj_x"
    value {
      b: true
    }
  }
  attr {
    key: "adj_y"
    value {
      b: false
    }
  }
}
node {
  name: "filter_type_0/Reshape_48/shape"
  op: "Const"
  attr {
    key: "dtype"
    value {
      type: DT_INT32
    }
  }
  attr {
    key: "value"
    value {
      tensor {
        dtype: DT_INT32
        tensor_shape {
          dim {
            size: 2
          }
        }
…
    value {
      type: DT_INT32
    }
  }
  attr {
    key: "axis"
    value {
      i: 0
    }
  }
}
node {
  name: "gradients/filter_type_5/Slice_6_grad/Reshape"
  op: "Reshape"
  input: "filter_type_5/Slice_6/begin"
  input: "gradients/filter_type_5/Slice_6_grad/stack"
  attr {
    key: "T"
    value {
      type: DT_INT32
    }
  }
  attr {
    key: "Tshape"
    value {
      type: DT_INT32
    }
  }
}
node {
  name: "gradients/filter_type_5/Slice_6_grad/Shape_1"
  op: "Shape"
  input: "Reshape_28"
  attr {
    key: "T"
    value {
      type: DT_DOUBLE
    }
  }
  attr {
    key: "out_type"
    value {
      type: DT_INT32
    }
  }
}
node {
  name: "gradients/filter_type_5/Slice_6_grad/sub"
  op: "Sub"
  input: "gradients/filter_type_5/Slice_6_grad/Shape_1"
  input: "gradients/filter_type_5/Slice_6_grad/Shape"
  attr {
    key: "T"
    value {
      type: DT_INT32
    }
  }
}
node {
  name: "gradients/filter_type_5/Slice_6_grad/sub_1"
  op: "Sub"
  input: "gradients/filter_type_5/Slice_6_grad/sub"
  input: "filter_type_5/Slice_6/begin"
  attr {
    key: "T"
    value {
      type: DT_INT32
    }
  }
}
node {
  name: "gradients/filter_type_5/Slice_6_grad/Reshape_1"
  op: "Reshape"
  input: "gradients/filter_type_5/Slice_6_grad/sub_1"
  input: "gradients/filter_type_5/Slice_6_grad/stack"
  attr {
    key: "T"
    value {
      type: DT_INT32
    }
  }
  attr {
    key: "Tshape"
    value {
      type: DT_INT32
    }
  }
}
node {
  name: "gradients/filter_type_5/Slice_6_grad/concat/axis"
  op: "Const"
  attr {
    key: "dtype"
    value {
      type: DT_INT32
    }
  }
  attr {
    key: "value"
    value {
      tensor {
        dtype: DT_INT32
        tensor_shape {
        }
        int_val: 1
      }
    }
  }
}
node {
  name: "gradients/filter_type_5/Slice_6_grad/concat"
  op: "ConcatV2"
  input: "gradients/filter_type_5/Slice_6_grad/Reshape"
  input: "gradients/filter_type_5/Slice_6_grad/Reshape_1"
  input: "gradients/filter_type_5/Slice_6_grad/concat/axis"
  attr {
    key: "N"
    value {
      i: 2
    }
  }
  attr {
    key: "T"
    value {
      type: DT_INT32
    }
  }
  attr {
    key: "Tidx"
    value {
      type: DT_INT32
    }
  }
}
node {
  name: "gradients/filter_type_5/Slice_6_grad/Pad"
  op: "Pad"
  input: "gradients/AddN_124"
  input: "gradients/filter_type_5/Slice_6_grad/concat"
  attr {
    key: "T"
    value {
      type: DT_DOUBLE
    }
  }
  attr {
    key: "Tpaddings"
    value {
      type: DT_INT32
    }
  }
}
node {
  name: "gradients/AddN_125"
  op: "AddN"
  input: "gradients/filter_type_5/Reshape_39_grad/Reshape"
  input: "gradients/filter_type_5/Reshape_32_grad/Reshape"
  attr {
    key: "N"
    value {
      i: 2
    }
  }
  attr {
    key: "T"
    value {
      type: DT_DOUBLE
    }
  }
  attr {
    key: "_class"
    value {
      list {
        s: "loc:@gradients/filter_type_5/Reshape_39_grad/Reshape"
      }
    }
  }
}
node {
  name: "gradients/filter_type_5/Slice_8_grad/Rank"
  op: "Const"
  attr {
    key: "dtype"
    value {
      type: DT_INT32
    }
  }
  attr {
    key: "value"
    value {
      tensor {
        dtype: DT_INT32
        tensor_shape {
        }
        int_val: 2
      }
    }
  }
}
node {
  name: "gradients/filter_type_5/Slice_8_grad/Shape"
  op: "Shape"
  input: "filter_type_5/Slice_8"
  attr {
    key: "T"
    value {
      type: DT_DOUBLE
    }
  }
  attr {
    key: "out_type"
    value {
      type: DT_INT32
    }
  }
}
node {
  name: "gradients/filter_type_5/Slice_8_grad/stack/1"
  op: "Const"
  attr {
    key: "dtype"
    value {
      type: DT_INT32
    }
  }
  attr {
    key: "value"
    value {
      tensor {
        dtype: DT_INT32
        tensor_shape {
        }
        int_val: 1
      }
    }
  }
}
node {
  name: "gradients/filter_type_5/Slice_8_grad/stack"
  op: "Pack"
  input: "gradients/filter_type_5/Slice_8_grad/Rank"
  input: "gradients/filter_type_5/Slice_8_grad/stack/1"
  attr {
    key: "N"
    value {
      i: 2
    }
  }
  attr {
    key: "T"
    value {
      type: DT_INT32
    }
  }
  attr {
    key: "axis"
    value {
      i: 0
    }
  }
}
node {
  name: "gradients/filter_type_5/Slice_8_grad/Reshape"
  op: "Reshape"
  input: "filter_type_5/Slice_8/begin"
  input: "gradients/filter_type_5/Slice_8_grad/stack"
  attr {
    key: "T"
    value {
      type: DT_INT32
    }
  }
  attr {
    key: "Tshape"
    value {
      type: DT_INT32
    }
  }
}
node {
  name: "gradients/filter_type_5/Slice_8_grad/Shape_1"
  op: "Shape"
  input: "Reshape_28"
  attr {
    key: "T"
    value {
      type: DT_DOUBLE
    }
  }
  attr {
    key: "out_type"
    value {
      type: DT_INT32
    }
  }
}
node {
  name: "gradients/filter_type_5/Slice_8_grad/sub"
  op: "Sub"
  input: "gradients/filter_type_5/Slice_8_grad/Shape_1"
  input: "gradients/filter_type_5/Slice_8_grad/Shape"
  attr {
    key: "T"
    value {
      type: DT_INT32
    }
  }
}
node {
  name: "gradients/filter_type_5/Slice_8_grad/sub_1"
  op: "Sub"
  input: "gradients/filter_type_5/Slice_8_grad/sub"
  input: "filter_type_5/Slice_8/begin"
  attr {
    key: "T"
    value {
      type: DT_INT32
    }
  }
}
node {
  name: "gradients/filter_type_5/Slice_8_grad/Reshape_1"
  op: "Reshape"
  input: "gradients/filter_type_5/Slice_8_grad/sub_1"
  input: "gradients/filter_type_5/Slice_8_grad/stack"
  attr {
    key: "T"
    value {
      type: DT_INT32
    }
  }
  attr {
    key: "Tshape"
    value {
      type: DT_INT32
    }
  }
}
node {
  name: "gradients/filter_type_5/Slice_8_grad/concat/axis"
  op: "Const"
  attr {
    key: "dtype"
    value {
      type: DT_INT32
    }
  }
  attr {
    key: "value"
    value {
      tensor {
        dtype: DT_INT32
        tensor_shape {
        }
        int_val: 1
      }
    }
  }
}
node {
  name: "gradients/filter_type_5/Slice_8_grad/concat"
  op: "ConcatV2"
  input: "gradients/filter_type_5/Slice_8_grad/Reshape"
  input: "gradients/filter_type_5/Slice_8_grad/Reshape_1"
  input: "gradients/filter_type_5/Slice_8_grad/concat/axis"
  attr {
    key: "N"
    value {
      i: 2
    }
  }
  attr {
    key: "T"
    value {
      type: DT_INT32
    }
  }
  attr {
    key: "Tidx"
    value {
      type: DT_INT32
    }
  }
}
node {
  name: "gradients/filter_type_5/Slice_8_grad/Pad"
  op: "Pad"
  input: "gradients/AddN_125"
  input: "gradients/filter_type_5/Slice_8_grad/concat"
  attr {
    key: "T"
    value {
      type: DT_DOUBLE
    }
  }
  attr {
    key: "Tpaddings"
    value {
      type: DT_INT32
    }
  }
}
node {
  name: "gradients/AddN_126"
  op: "AddN"
  input: "gradients/filter_type_5/Reshape_47_grad/Reshape"
  input: "gradients/filter_type_5/Reshape_40_grad/Reshape"
  attr {
    key: "N"
    value {
      i: 2
    }
  }
  attr {
    key: "T"
    value {
      type: DT_DOUBLE
    }
  }
  attr {
    key: "_class"
    value {
      list {
        s: "loc:@gradients/filter_type_5/Reshape_47_grad/Reshape"
      }
    }
  }
}
node {
  name: "gradients/filter_type_5/Slice_10_grad/Rank"
  op: "Const"
  attr {
    key: "dtype"
    value {
      type: DT_INT32
    }
  }
  attr {
    key: "value"
    value {
      tensor {
        dtype: DT_INT32
        tensor_shape {
        }
        int_val: 2
      }
    }
  }
}
node {
  name: "gradients/filter_type_5/Slice_10_grad/Shape"
  op: "Shape"
  input: "filter_type_5/Slice_10"
  attr {
    key: "T"
    value {
      type: DT_DOUBLE
    }
  }
  attr {
    key: "out_type"
    value {
      type: DT_INT32
    }
  }
}
node {
  name: "gradients/filter_type_5/Slice_10_grad/stack/1"
  op: "Const"
  attr {
    key: "dtype"
    value {
      type: DT_INT32
    }
  }
  attr {
    key: "value"
    value {
      tensor {
        dtype: DT_INT32
        tensor_shape {
        }
        int_val: 1
      }
    }
  }
}
node {
  name: "gradients/filter_type_5/Slice_10_grad/stack"
  op: "Pack"
  input: "gradients/filter_type_5/Slice_10_grad/Rank"
  input: "gradients/filter_type_5/Slice_10_grad/stack/1"
  attr {
    key: "N"
    value {
      i: 2
    }
  }
  attr {
    key: "T"
    value {
      type: DT_INT32
    }
  }
  attr {
    key: "axis"
    value {
      i: 0
    }
  }
}
node {
  name: "gradients/filter_type_5/Slice_10_grad/Reshape"
  op: "Reshape"
  input: "filter_type_5/Slice_10/begin"
  input: "gradients/filter_type_5/Slice_10_grad/stack"
  attr {
    key: "T"
    value {
      type: DT_INT32
    }
  }
  attr {
    key: "Tshape"
    value {
      type: DT_INT32
    }
  }
}
node {
  name: "gradients/filter_type_5/Slice_10_grad/Shape_1"
  op: "Shape"
  input: "Reshape_28"
  attr {
    key: "T"
    value {
      type: DT_DOUBLE
    }
  }
  attr {
    key: "out_type"
    value {
      type: DT_INT32
    }
  }
}
node {
  name: "gradients/filter_type_5/Slice_10_grad/sub"
  op: "Sub"
  input: "gradients/filter_type_5/Slice_10_grad/Shape_1"
  input: "gradients/filter_type_5/Slice_10_grad/Shape"
  attr {
    key: "T"
    value {
      type: DT_INT32
    }
  }
}
node {
  name: "gradients/filter_type_5/Slice_10_grad/sub_1"
  op: "Sub"
  input: "gradients/filter_type_5/Slice_10_grad/sub"
  input: "filter_type_5/Slice_10/begin"
  attr {
    key: "T"
    value {
      type: DT_INT32
    }
  }
}
node {
  name: "gradients/filter_type_5/Slice_10_grad/Reshape_1"
  op: "Reshape"
  input: "gradients/filter_type_5/Slice_10_grad/sub_1"
  input: "gradients/filter_type_5/Slice_10_grad/stack"
  attr {
    key: "T"
    value {
      type: DT_INT32
    }
  }
  attr {
    key: "Tshape"
    value {
      type: DT_INT32
    }
  }
}
node {
  name: "gradients/filter_type_5/Slice_10_grad/concat/axis"
  op: "Const"
  attr {
    key: "dtype"
    value {
      type: DT_INT32
    }
  }
  attr {
    key: "value"
    value {
      tensor {
        dtype: DT_INT32
        tensor_shape {
        }
        int_val: 1
      }
    }
  }
}
node {
  name: "gradients/filter_type_5/Slice_10_grad/concat"
  op: "ConcatV2"
  input: "gradients/filter_type_5/Slice_10_grad/Reshape"
  input: "gradients/filter_type_5/Slice_10_grad/Reshape_1"
  input: "gradients/filter_type_5/Slice_10_grad/concat/axis"
  attr {
    key: "N"
    value {
      i: 2
    }
  }
  attr {
    key: "T"
    value {
      type: DT_INT32
    }
  }
  attr {
    key: "Tidx"
    value {
      type: DT_INT32
    }
  }
}
node {
  name: "gradients/filter_type_5/Slice_10_grad/Pad"
  op: "Pad"
  input: "gradients/AddN_126"
  input: "gradients/filter_type_5/Slice_10_grad/concat"
  attr {
    key: "T"
    value {
      type: DT_DOUBLE
    }
  }
  attr {
    key: "Tpaddings"
    value {
      type: DT_INT32
    }
  }
}
node {
  name: "gradients/AddN_127"
  op: "AddN"
  input: "gradients/filter_type_0/Slice_grad/Pad"
  input: "gradients/filter_type_0/Slice_2_grad/Pad"
  input: "gradients/filter_type_0/Slice_4_grad/Pad"
  input: "gradients/filter_type_0/Slice_6_grad/Pad"
  input: "gradients/filter_type_0/Slice_8_grad/Pad"
  input: "gradients/filter_type_0/Slice_10_grad/Pad"
  attr {
    key: "N"
    value {
      i: 6
    }
  }
  attr {
    key: "T"
    value {
      type: DT_DOUBLE
    }
  }
  attr {
    key: "_class"
    value {
      list {
        s: "loc:@gradients/filter_type_0/Slice_grad/Pad"
      }
    }
  }
}
node {
  name: "gradients/Reshape_8_grad/Shape"
  op: "Shape"
  input: "Slice"
  attr {
    key: "T"
    value {
      type: DT_DOUBLE
    }
  }
  attr {
    key: "out_type"
    value {
      type: DT_INT32
    }
  }
}
node {
  name: "gradients/Reshape_8_grad/Reshape"
  op: "Reshape"
  input: "gradients/AddN_127"
  input: "gradients/Reshape_8_grad/Shape"
  attr {
    key: "T"
    value {
      type: DT_DOUBLE
    }
  }
  attr {
    key: "Tshape"
    value {
      type: DT_INT32
    }
  }
}
node {
  name: "gradients/AddN_128"
  op: "AddN"
  input: "gradients/filter_type_1/Slice_grad/Pad"
  input: "gradients/filter_type_1/Slice_2_grad/Pad"
  input: "gradients/filter_type_1/Slice_4_grad/Pad"
  input: "gradients/filter_type_1/Slice_6_grad/Pad"
  input: "gradients/filter_type_1/Slice_8_grad/Pad"
  input: "gradients/filter_type_1/Slice_10_grad/Pad"
  attr {
    key: "N"
    value {
      i: 6
    }
  }
  attr {
    key: "T"
    value {
      type: DT_DOUBLE
    }
  }
  attr {
    key: "_class"
    value {
      list {
        s: "loc:@gradients/filter_type_1/Slice_grad/Pad"
      }
    }
  }
}
node {
  name: "gradients/Reshape_12_grad/Shape"
  op: "Shape"
  input: "Slice_1"
  attr {
    key: "T"
    value {
      type: DT_DOUBLE
    }
  }
  attr {
    key: "out_type"
    value {
      type: DT_INT32
    }
  }
}
node {
  name: "gradients/Reshape_12_grad/Reshape"
  op: "Reshape"
  input: "gradients/AddN_128"
  input: "gradients/Reshape_12_grad/Shape"
  attr {
    key: "T"
    value {
      type: DT_DOUBLE
    }
  }
  attr {
    key: "Tshape"
    value {
      type: DT_INT32
    }
  }
}
node {
  name: "gradients/AddN_129"
  op: "AddN"
  input: "gradients/filter_type_2/Slice_grad/Pad"
  input: "gradients/filter_type_2/Slice_2_grad/Pad"
  input: "gradients/filter_type_2/Slice_4_grad/Pad"
  input: "gradients/filter_type_2/Slice_6_grad/Pad"
  input: "gradients/filter_type_2/Slice_8_grad/Pad"
  input: "gradients/filter_type_2/Slice_10_grad/Pad"
  attr {
    key: "N"
    value {
      i: 6
    }
  }
  attr {
    key: "T"
    value {
      type: DT_DOUBLE
    }
  }
  attr {
    key: "_class"
    value {
      list {
        s: "loc:@gradients/filter_type_2/Slice_grad/Pad"
      }
    }
  }
}
node {
  name: "gradients/Reshape_16_grad/Shape"
  op: "Shape"
  input: "Slice_2"
  attr {
    key: "T"
    value {
      type: DT_DOUBLE
    }
  }
  attr {
    key: "out_type"
    value {
      type: DT_INT32
    }
  }
}
node {
  name: "gradients/Reshape_16_grad/Reshape"
  op: "Reshape"
  input: "gradients/AddN_129"
  input: "gradients/Reshape_16_grad/Shape"
  attr {
    key: "T"
    value {
      type: DT_DOUBLE
    }
  }
  attr {
    key: "Tshape"
    value {
      type: DT_INT32
    }
  }
}
node {
  name: "gradients/AddN_130"
  op: "AddN"
  input: "gradients/filter_type_3/Slice_grad/Pad"
  input: "gradients/filter_type_3/Slice_2_grad/Pad"
  input: "gradients/filter_type_3/Slice_4_grad/Pad"
  input: "gradients/filter_type_3/Slice_6_grad/Pad"
  input: "gradients/filter_type_3/Slice_8_grad/Pad"
  input: "gradients/filter_type_3/Slice_10_grad/Pad"
  attr {
    key: "N"
    value {
      i: 6
    }
  }
  attr {
    key: "T"
    value {
      type: DT_DOUBLE
    }
  }
  attr {
    key: "_class"
    value {
      list {
        s: "loc:@gradients/filter_type_3/Slice_grad/Pad"
      }
    }
  }
}
node {
  name: "gradients/Reshape_20_grad/Shape"
  op: "Shape"
  input: "Slice_3"
  attr {
    key: "T"
    value {
      type: DT_DOUBLE
    }
  }
  attr {
    key: "out_type"
    value {
      type: DT_INT32
    }
  }
}
node {
  name: "gradients/Reshape_20_grad/Reshape"
  op: "Reshape"
  input: "gradients/AddN_130"
  input: "gradients/Reshape_20_grad/Shape"
  attr {
    key: "T"
    value {
      type: DT_DOUBLE
    }
  }
  attr {
    key: "Tshape"
    value {
      type: DT_INT32
    }
  }
}
node {
  name: "gradients/AddN_131"
  op: "AddN"
  input: "gradients/filter_type_4/Slice_grad/Pad"
  input: "gradients/filter_type_4/Slice_2_grad/Pad"
  input: "gradients/filter_type_4/Slice_4_grad/Pad"
  input: "gradients/filter_type_4/Slice_6_grad/Pad"
  input: "gradients/filter_type_4/Slice_8_grad/Pad"
  input: "gradients/filter_type_4/Slice_10_grad/Pad"
  attr {
    key: "N"
    value {
      i: 6
    }
  }
  attr {
    key: "T"
    value {
      type: DT_DOUBLE
    }
  }
  attr {
    key: "_class"
    value {
      list {
        s: "loc:@gradients/filter_type_4/Slice_grad/Pad"
      }
    }
  }
}
node {
  name: "gradients/Reshape_24_grad/Shape"
  op: "Shape"
  input: "Slice_4"
  attr {
    key: "T"
    value {
      type: DT_DOUBLE
    }
  }
  attr {
    key: "out_type"
    value {
      type: DT_INT32
    }
  }
}
node {
  name: "gradients/Reshape_24_grad/Reshape"
  op: "Reshape"
  input: "gradients/AddN_131"
  input: "gradients/Reshape_24_grad/Shape"
  attr {
    key: "T"
    value {
      type: DT_DOUBLE
    }
  }
  attr {
    key: "Tshape"
    value {
      type: DT_INT32
    }
  }
}
node {
  name: "gradients/AddN_132"
  op: "AddN"
  input: "gradients/filter_type_5/Slice_grad/Pad"
  input: "gradients/filter_type_5/Slice_2_grad/Pad"
  input: "gradients/filter_type_5/Slice_4_grad/Pad"
  input: "gradients/filter_type_5/Slice_6_grad/Pad"
  input: "gradients/filter_type_5/Slice_8_grad/Pad"
  input: "gradients/filter_type_5/Slice_10_grad/Pad"
  attr {
    key: "N"
    value {
      i: 6
    }
  }
  attr {
    key: "T"
    value {
      type: DT_DOUBLE
    }
  }
  attr {
    key: "_class"
    value {
      list {
        s: "loc:@gradients/filter_type_5/Slice_grad/Pad"
      }
    }
  }
}
node {
  name: "gradients/Reshape_28_grad/Shape"
  op: "Shape"
  input: "Slice_5"
  attr {
    key: "T"
    value {
      type: DT_DOUBLE
    }
  }
  attr {
    key: "out_type"
    value {
      type: DT_INT32
    }
  }
}
node {
  name: "gradients/Reshape_28_grad/Reshape"
  op: "Reshape"
  input: "gradients/AddN_132"
  input: "gradients/Reshape_28_grad/Shape"
  attr {
    key: "T"
    value {
      type: DT_DOUBLE
    }
  }
  attr {
    key: "Tshape"
    value {
      type: DT_INT32
    }
  }
}
node {
  name: "gradients/Slice_grad/Rank"
  op: "Const"
  attr {
    key: "dtype"
    value {
      type: DT_INT32
    }
  }
  attr {
    key: "value"
    value {
      tensor {
        dtype: DT_INT32
        tensor_shape {
        }
        int_val: 3
      }
    }
  }
}
node {
  name: "gradients/Slice_grad/Shape"
  op: "Shape"
  input: "Slice"
  attr {
    key: "T"
    value {
      type: DT_DOUBLE
    }
  }
  attr {
    key: "out_type"
    value {
      type: DT_INT32
    }
  }
}
node {
  name: "gradients/Slice_grad/stack/1"
  op: "Const"
  attr {
    key: "dtype"
    value {
      type: DT_INT32
    }
  }
  attr {
    key: "value"
    value {
      tensor {
        dtype: DT_INT32
        tensor_shape {
        }
        int_val: 1
      }
    }
  }
}
node {
  name: "gradients/Slice_grad/stack"
  op: "Pack"
  input: "gradients/Slice_grad/Rank"
  input: "gradients/Slice_grad/stack/1"
  attr {
    key: "N"
    value {
      i: 2
    }
  }
  attr {
    key: "T"
    value {
      type: DT_INT32
    }
  }
  attr {
    key: "axis"
    value {
      i: 0
    }
  }
}
node {
  name: "gradients/Slice_grad/Reshape"
  op: "Reshape"
  input: "Slice/begin"
  input: "gradients/Slice_grad/stack"
  attr {
    key: "T"
    value {
      type: DT_INT32
    }
  }
  attr {
    key: "Tshape"
    value {
      type: DT_INT32
    }
  }
}
node {
  name: "gradients/Slice_grad/Shape_1"
  op: "Shape"
  input: "Reshape_7"
  attr {
    key: "T"
    value {
      type: DT_DOUBLE
    }
  }
  attr {
    key: "out_type"
    value {
      type: DT_INT32
    }
  }
}
node {
  name: "gradients/Slice_grad/sub"
  op: "Sub"
  input: "gradients/Slice_grad/Shape_1"
  input: "gradients/Slice_grad/Shape"
  attr {
    key: "T"
    value {
      type: DT_INT32
    }
  }
}
node {
  name: "gradients/Slice_grad/sub_1"
  op: "Sub"
  input: "gradients/Slice_grad/sub"
  input: "Slice/begin"
  attr {
    key: "T"
    value {
      type: DT_INT32
    }
  }
}
node {
  name: "gradients/Slice_grad/Reshape_1"
  op: "Reshape"
  input: "gradients/Slice_grad/sub_1"
  input: "gradients/Slice_grad/stack"
  attr {
    key: "T"
    value {
      type: DT_INT32
    }
  }
  attr {
    key: "Tshape"
    value {
      type: DT_INT32
    }
  }
}
node {
  name: "gradients/Slice_grad/concat/axis"
  op: "Const"
  attr {
    key: "dtype"
    value {
      type: DT_INT32
    }
  }
  attr {
    key: "value"
    value {
      tensor {
        dtype: DT_INT32
        tensor_shape {
        }
        int_val: 1
      }
    }
  }
}
node {
  name: "gradients/Slice_grad/concat"
  op: "ConcatV2"
  input: "gradients/Slice_grad/Reshape"
  input: "gradients/Slice_grad/Reshape_1"
  input: "gradients/Slice_grad/concat/axis"
  attr {
    key: "N"
    value {
      i: 2
    }
  }
  attr {
    key: "T"
    value {
      type: DT_INT32
    }
  }
  attr {
    key: "Tidx"
    value {
      type: DT_INT32
    }
  }
}
node {
  name: "gradients/Slice_grad/Pad"
  op: "Pad"
  input: "gradients/Reshape_8_grad/Reshape"
  input: "gradients/Slice_grad/concat"
  attr {
    key: "T"
    value {
      type: DT_DOUBLE
    }
  }
  attr {
    key: "Tpaddings"
    value {
      type: DT_INT32
    }
  }
}
node {
  name: "gradients/Slice_1_grad/Rank"
  op: "Const"
  attr {
    key: "dtype"
    value {
      type: DT_INT32
    }
  }
  attr {
    key: "value"
    value {
      tensor {
        dtype: DT_INT32
        tensor_shape {
        }
        int_val: 3
      }
    }
  }
}
node {
  name: "gradients/Slice_1_grad/Shape"
  op: "Shape"
  input: "Slice_1"
  attr {
    key: "T"
    value {
      type: DT_DOUBLE
    }
  }
  attr {
    key: "out_type"
    value {
      type: DT_INT32
    }
  }
}
node {
  name: "gradients/Slice_1_grad/stack/1"
  op: "Const"
  attr {
    key: "dtype"
    value {
      type: DT_INT32
    }
  }
  attr {
    key: "value"
    value {
      tensor {
        dtype: DT_INT32
        tensor_shape {
        }
        int_val: 1
      }
    }
  }
}
node {
  name: "gradients/Slice_1_grad/stack"
  op: "Pack"
  input: "gradients/Slice_1_grad/Rank"
  input: "gradients/Slice_1_grad/stack/1"
  attr {
    key: "N"
    value {
      i: 2
    }
  }
  attr {
    key: "T"
    value {
      type: DT_INT32
    }
  }
  attr {
    key: "axis"
    value {
      i: 0
    }
  }
}
node {
  name: "gradients/Slice_1_grad/Reshape"
  op: "Reshape"
  input: "Slice_1/begin"
  input: "gradients/Slice_1_grad/stack"
  attr {
    key: "T"
    value {
      type: DT_INT32
    }
  }
  attr {
    key: "Tshape"
    value {
      type: DT_INT32
    }
  }
}
node {
  name: "gradients/Slice_1_grad/Shape_1"
  op: "Shape"
  input: "Reshape_7"
  attr {
    key: "T"
    value {
      type: DT_DOUBLE
    }
  }
  attr {
    key: "out_type"
    value {
      type: DT_INT32
    }
  }
}
node {
  name: "gradients/Slice_1_grad/sub"
  op: "Sub"
  input: "gradients/Slice_1_grad/Shape_1"
  input: "gradients/Slice_1_grad/Shape"
  attr {
    key: "T"
    value {
      type: DT_INT32
    }
  }
}
node {
  name: "gradients/Slice_1_grad/sub_1"
  op: "Sub"
  input: "gradients/Slice_1_grad/sub"
  input: "Slice_1/begin"
  attr {
    key: "T"
    value {
      type: DT_INT32
    }
  }
}
node {
  name: "gradients/Slice_1_grad/Reshape_1"
  op: "Reshape"
  input: "gradients/Slice_1_grad/sub_1"
  input: "gradients/Slice_1_grad/stack"
  attr {
    key: "T"
    value {
      type: DT_INT32
    }
  }
  attr {
    key: "Tshape"
    value {
      type: DT_INT32
    }
  }
}
node {
  name: "gradients/Slice_1_grad/concat/axis"
  op: "Const"
  attr {
    key: "dtype"
    value {
      type: DT_INT32
    }
  }
  attr {
    key: "value"
    value {
      tensor {
        dtype: DT_INT32
        tensor_shape {
        }
        int_val: 1
      }
    }
  }
}
node {
  name: "gradients/Slice_1_grad/concat"
  op: "ConcatV2"
  input: "gradients/Slice_1_grad/Reshape"
  input: "gradients/Slice_1_grad/Reshape_1"
  input: "gradients/Slice_1_grad/concat/axis"
  attr {
    key: "N"
    value {
      i: 2
    }
  }
  attr {
    key: "T"
    value {
      type: DT_INT32
    }
  }
  attr {
    key: "Tidx"
    value {
      type: DT_INT32
    }
  }
}
node {
  name: "gradients/Slice_1_grad/Pad"
  op: "Pad"
  input: "gradients/Reshape_12_grad/Reshape"
  input: "gradients/Slice_1_grad/concat"
  attr {
    key: "T"
    value {
      type: DT_DOUBLE
    }
  }
  attr {
    key: "Tpaddings"
    value {
      type: DT_INT32
    }
  }
}
node {
  name: "gradients/Slice_2_grad/Rank"
  op: "Const"
  attr {
    key: "dtype"
    value {
      type: DT_INT32
    }
  }
  attr {
    key: "value"
    value {
      tensor {
        dtype: DT_INT32
        tensor_shape {
        }
        int_val: 3
      }
    }
  }
}
node {
  name: "gradients/Slice_2_grad/Shape"
  op: "Shape"
  input: "Slice_2"
  attr {
    key: "T"
    value {
      type: DT_DOUBLE
    }
  }
  attr {
    key: "out_type"
    value {
      type: DT_INT32
    }
  }
}
node {
  name: "gradients/Slice_2_grad/stack/1"
  op: "Const"
  attr {
    key: "dtype"
    value {
      type: DT_INT32
    }
  }
  attr {
    key: "value"
    value {
      tensor {
        dtype: DT_INT32
        tensor_shape {
        }
        int_val: 1
      }
    }
  }
}
node {
  name: "gradients/Slice_2_grad/stack"
  op: "Pack"
  input: "gradients/Slice_2_grad/Rank"
  input: "gradients/Slice_2_grad/stack/1"
  attr {
    key: "N"
    value {
      i: 2
    }
  }
  attr {
    key: "T"
    value {
      type: DT_INT32
    }
  }
  attr {
    key: "axis"
    value {
      i: 0
    }
  }
}
node {
  name: "gradients/Slice_2_grad/Reshape"
  op: "Reshape"
  input: "Slice_2/begin"
  input: "gradients/Slice_2_grad/stack"
  attr {
    key: "T"
    value {
      type: DT_INT32
    }
  }
  attr {
    key: "Tshape"
    value {
      type: DT_INT32
    }
  }
}
node {
  name: "gradients/Slice_2_grad/Shape_1"
  op: "Shape"
  input: "Reshape_7"
  attr {
    key: "T"
    value {
      type: DT_DOUBLE
    }
  }
  attr {
    key: "out_type"
    value {
      type: DT_INT32
    }
  }
}
node {
  name: "gradients/Slice_2_grad/sub"
  op: "Sub"
  input: "gradients/Slice_2_grad/Shape_1"
  input: "gradients/Slice_2_grad/Shape"
  attr {
    key: "T"
    value {
      type: DT_INT32
    }
  }
}
node {
  name: "gradients/Slice_2_grad/sub_1"
  op: "Sub"
  input: "gradients/Slice_2_grad/sub"
  input: "Slice_2/begin"
  attr {
    key: "T"
    value {
      type: DT_INT32
    }
  }
}
node {
  name: "gradients/Slice_2_grad/Reshape_1"
  op: "Reshape"
  input: "gradients/Slice_2_grad/sub_1"
  input: "gradients/Slice_2_grad/stack"
  attr {
    key: "T"
    value {
      type: DT_INT32
    }
  }
  attr {
    key: "Tshape"
    value {
      type: DT_INT32
    }
  }
}
node {
  name: "gradients/Slice_2_grad/concat/axis"
  op: "Const"
  attr {
    key: "dtype"
    value {
      type: DT_INT32
    }
  }
  attr {
    key: "value"
    value {
      tensor {
        dtype: DT_INT32
        tensor_shape {
        }
        int_val: 1
      }
    }
  }
}
node {
  name: "gradients/Slice_2_grad/concat"
  op: "ConcatV2"
  input: "gradients/Slice_2_grad/Reshape"
  input: "gradients/Slice_2_grad/Reshape_1"
  input: "gradients/Slice_2_grad/concat/axis"
  attr {
    key: "N"
    value {
      i: 2
    }
  }
  attr {
    key: "T"
    value {
      type: DT_INT32
    }
  }
  attr {
    key: "Tidx"
    value {
      type: DT_INT32
    }
  }
}
node {
  name: "gradients/Slice_2_grad/Pad"
  op: "Pad"
  input: "gradients/Reshape_16_grad/Reshape"
  input: "gradients/Slice_2_grad/concat"
  attr {
    key: "T"
    value {
      type: DT_DOUBLE
    }
  }
  attr {
    key: "Tpaddings"
    value {
      type: DT_INT32
    }
  }
}
node {
  name: "gradients/Slice_3_grad/Rank"
  op: "Const"
  attr {
    key: "dtype"
    value {
      type: DT_INT32
    }
  }
  attr {
    key: "value"
    value {
      tensor {
        dtype: DT_INT32
        tensor_shape {
        }
        int_val: 3
      }
    }
  }
}
node {
  name: "gradients/Slice_3_grad/Shape"
  op: "Shape"
  input: "Slice_3"
  attr {
    key: "T"
    value {
      type: DT_DOUBLE
    }
  }
  attr {
    key: "out_type"
    value {
      type: DT_INT32
    }
  }
}
node {
  name: "gradients/Slice_3_grad/stack/1"
  op: "Const"
  attr {
    key: "dtype"
    value {
      type: DT_INT32
    }
  }
  attr {
    key: "value"
    value {
      tensor {
        dtype: DT_INT32
        tensor_shape {
        }
        int_val: 1
      }
    }
  }
}
node {
  name: "gradients/Slice_3_grad/stack"
  op: "Pack"
  input: "gradients/Slice_3_grad/Rank"
  input: "gradients/Slice_3_grad/stack/1"
  attr {
    key: "N"
    value {
      i: 2
    }
  }
  attr {
    key: "T"
    value {
      type: DT_INT32
    }
  }
  attr {
    key: "axis"
    value {
      i: 0
    }
  }
}
node {
  name: "gradients/Slice_3_grad/Reshape"
  op: "Reshape"
  input: "Slice_3/begin"
  input: "gradients/Slice_3_grad/stack"
  attr {
    key: "T"
    value {
      type: DT_INT32
    }
  }
  attr {
    key: "Tshape"
    value {
      type: DT_INT32
    }
  }
}
node {
  name: "gradients/Slice_3_grad/Shape_1"
  op: "Shape"
  input: "Reshape_7"
  attr {
    key: "T"
    value {
      type: DT_DOUBLE
    }
  }
  attr {
    key: "out_type"
    value {
      type: DT_INT32
    }
  }
}
node {
  name: "gradients/Slice_3_grad/sub"
  op: "Sub"
  input: "gradients/Slice_3_grad/Shape_1"
  input: "gradients/Slice_3_grad/Shape"
  attr {
    key: "T"
    value {
      type: DT_INT32
    }
  }
}
node {
  name: "gradients/Slice_3_grad/sub_1"
  op: "Sub"
  input: "gradients/Slice_3_grad/sub"
  input: "Slice_3/begin"
  attr {
    key: "T"
    value {
      type: DT_INT32
    }
  }
}
node {
  name: "gradients/Slice_3_grad/Reshape_1"
  op: "Reshape"
  input: "gradients/Slice_3_grad/sub_1"
  input: "gradients/Slice_3_grad/stack"
  attr {
    key: "T"
    value {
      type: DT_INT32
    }
  }
  attr {
    key: "Tshape"
    value {
      type: DT_INT32
    }
  }
}
node {
  name: "gradients/Slice_3_grad/concat/axis"
  op: "Const"
  attr {
    key: "dtype"
    value {
      type: DT_INT32
    }
  }
  attr {
    key: "value"
    value {
      tensor {
        dtype: DT_INT32
        tensor_shape {
        }
        int_val: 1
      }
    }
  }
}
node {
  name: "gradients/Slice_3_grad/concat"
  op: "ConcatV2"
  input: "gradients/Slice_3_grad/Reshape"
  input: "gradients/Slice_3_grad/Reshape_1"
  input: "gradients/Slice_3_grad/concat/axis"
  attr {
    key: "N"
    value {
      i: 2
    }
  }
  attr {
    key: "T"
    value {
      type: DT_INT32
    }
  }
  attr {
    key: "Tidx"
    value {
      type: DT_INT32
    }
  }
}
node {
  name: "gradients/Slice_3_grad/Pad"
  op: "Pad"
  input: "gradients/Reshape_20_grad/Reshape"
  input: "gradients/Slice_3_grad/concat"
  attr {
    key: "T"
    value {
      type: DT_DOUBLE
    }
  }
  attr {
    key: "Tpaddings"
    value {
      type: DT_INT32
    }
  }
}
node {
  name: "gradients/Slice_4_grad/Rank"
  op: "Const"
  attr {
    key: "dtype"
    value {
      type: DT_INT32
    }
  }
  attr {
    key: "value"
    value {
      tensor {
        dtype: DT_INT32
        tensor_shape {
        }
        int_val: 3
      }
    }
  }
}
node {
  name: "gradients/Slice_4_grad/Shape"
  op: "Shape"
  input: "Slice_4"
  attr {
    key: "T"
    value {
      type: DT_DOUBLE
    }
  }
  attr {
    key: "out_type"
    value {
      type: DT_INT32
    }
  }
}
node {
  name: "gradients/Slice_4_grad/stack/1"
  op: "Const"
  attr {
    key: "dtype"
    value {
      type: DT_INT32
    }
  }
  attr {
    key: "value"
    value {
      tensor {
        dtype: DT_INT32
        tensor_shape {
        }
        int_val: 1
      }
    }
  }
}
node {
  name: "gradients/Slice_4_grad/stack"
  op: "Pack"
  input: "gradients/Slice_4_grad/Rank"
  input: "gradients/Slice_4_grad/stack/1"
  attr {
    key: "N"
    value {
      i: 2
    }
  }
  attr {
    key: "T"
    value {
      type: DT_INT32
    }
  }
  attr {
    key: "axis"
    value {
      i: 0
    }
  }
}
node {
  name: "gradients/Slice_4_grad/Reshape"
  op: "Reshape"
  input: "Slice_4/begin"
  input: "gradients/Slice_4_grad/stack"
  attr {
    key: "T"
    value {
      type: DT_INT32
    }
  }
  attr {
    key: "Tshape"
    value {
      type: DT_INT32
    }
  }
}
node {
  name: "gradients/Slice_4_grad/Shape_1"
  op: "Shape"
  input: "Reshape_7"
  attr {
    key: "T"
    value {
      type: DT_DOUBLE
    }
  }
  attr {
    key: "out_type"
    value {
      type: DT_INT32
    }
  }
}
node {
  name: "gradients/Slice_4_grad/sub"
  op: "Sub"
  input: "gradients/Slice_4_grad/Shape_1"
  input: "gradients/Slice_4_grad/Shape"
  attr {
    key: "T"
    value {
      type: DT_INT32
    }
  }
}
node {
  name: "gradients/Slice_4_grad/sub_1"
  op: "Sub"
  input: "gradients/Slice_4_grad/sub"
  input: "Slice_4/begin"
  attr {
    key: "T"
    value {
      type: DT_INT32
    }
  }
}
node {
  name: "gradients/Slice_4_grad/Reshape_1"
  op: "Reshape"
  input: "gradients/Slice_4_grad/sub_1"
  input: "gradients/Slice_4_grad/stack"
  attr {
    key: "T"
    value {
      type: DT_INT32
    }
  }
  attr {
    key: "Tshape"
    value {
      type: DT_INT32
    }
  }
}
node {
  name: "gradients/Slice_4_grad/concat/axis"
  op: "Const"
  attr {
    key: "dtype"
    value {
      type: DT_INT32
    }
  }
  attr {
    key: "value"
    value {
      tensor {
        dtype: DT_INT32
        tensor_shape {
        }
        int_val: 1
      }
    }
  }
}
node {
  name: "gradients/Slice_4_grad/concat"
  op: "ConcatV2"
  input: "gradients/Slice_4_grad/Reshape"
  input: "gradients/Slice_4_grad/Reshape_1"
  input: "gradients/Slice_4_grad/concat/axis"
  attr {
    key: "N"
    value {
      i: 2
    }
  }
  attr {
    key: "T"
    value {
      type: DT_INT32
    }
  }
  attr {
    key: "Tidx"
    value {
      type: DT_INT32
    }
  }
}
node {
  name: "gradients/Slice_4_grad/Pad"
  op: "Pad"
  input: "gradients/Reshape_24_grad/Reshape"
  input: "gradients/Slice_4_grad/concat"
  attr {
    key: "T"
    value {
      type: DT_DOUBLE
    }
  }
  attr {
    key: "Tpaddings"
    value {
      type: DT_INT32
    }
  }
}
node {
  name: "gradients/Slice_5_grad/Rank"
  op: "Const"
  attr {
    key: "dtype"
    value {
      type: DT_INT32
    }
  }
  attr {
    key: "value"
    value {
      tensor {
        dtype: DT_INT32
        tensor_shape {
        }
        int_val: 3
      }
    }
  }
}
node {
  name: "gradients/Slice_5_grad/Shape"
  op: "Shape"
  input: "Slice_5"
  attr {
    key: "T"
    value {
      type: DT_DOUBLE
    }
  }
  attr {
    key: "out_type"
    value {
      type: DT_INT32
    }
  }
}
node {
  name: "gradients/Slice_5_grad/stack/1"
  op: "Const"
  attr {
    key: "dtype"
    value {
      type: DT_INT32
    }
  }
  attr {
    key: "value"
    value {
      tensor {
        dtype: DT_INT32
        tensor_shape {
        }
        int_val: 1
      }
    }
  }
}
node {
  name: "gradients/Slice_5_grad/stack"
  op: "Pack"
  input: "gradients/Slice_5_grad/Rank"
  input: "gradients/Slice_5_grad/stack/1"
  attr {
    key: "N"
    value {
      i: 2
    }
  }
  attr {
    key: "T"
    value {
      type: DT_INT32
    }
  }
  attr {
    key: "axis"
    value {
      i: 0
    }
  }
}
node {
  name: "gradients/Slice_5_grad/Reshape"
  op: "Reshape"
  input: "Slice_5/begin"
  input: "gradients/Slice_5_grad/stack"
  attr {
    key: "T"
    value {
      type: DT_INT32
    }
  }
  attr {
    key: "Tshape"
    value {
      type: DT_INT32
    }
  }
}
node {
  name: "gradients/Slice_5_grad/Shape_1"
  op: "Shape"
  input: "Reshape_7"
  attr {
    key: "T"
    value {
      type: DT_DOUBLE
    }
  }
  attr {
    key: "out_type"
    value {
      type: DT_INT32
    }
  }
}
node {
  name: "gradients/Slice_5_grad/sub"
  op: "Sub"
  input: "gradients/Slice_5_grad/Shape_1"
  input: "gradients/Slice_5_grad/Shape"
  attr {
    key: "T"
    value {
      type: DT_INT32
    }
  }
}
node {
  name: "gradients/Slice_5_grad/sub_1"
  op: "Sub"
  input: "gradients/Slice_5_grad/sub"
  input: "Slice_5/begin"
  attr {
    key: "T"
    value {
      type: DT_INT32
    }
  }
}
node {
  name: "gradients/Slice_5_grad/Reshape_1"
  op: "Reshape"
  input: "gradients/Slice_5_grad/sub_1"
  input: "gradients/Slice_5_grad/stack"
  attr {
    key: "T"
    value {
      type: DT_INT32
    }
  }
  attr {
    key: "Tshape"
    value {
      type: DT_INT32
    }
  }
}
node {
  name: "gradients/Slice_5_grad/concat/axis"
  op: "Const"
  attr {
    key: "dtype"
    value {
      type: DT_INT32
    }
  }
  attr {
    key: "value"
    value {
      tensor {
        dtype: DT_INT32
        tensor_shape {
        }
        int_val: 1
      }
    }
  }
}
node {
  name: "gradients/Slice_5_grad/concat"
  op: "ConcatV2"
  input: "gradients/Slice_5_grad/Reshape"
  input: "gradients/Slice_5_grad/Reshape_1"
  input: "gradients/Slice_5_grad/concat/axis"
  attr {
    key: "N"
    value {
      i: 2
    }
  }
  attr {
    key: "T"
    value {
      type: DT_INT32
    }
  }
  attr {
    key: "Tidx"
    value {
      type: DT_INT32
    }
  }
}
node {
  name: "gradients/Slice_5_grad/Pad"
  op: "Pad"
  input: "gradients/Reshape_28_grad/Reshape"
  input: "gradients/Slice_5_grad/concat"
  attr {
    key: "T"
    value {
      type: DT_DOUBLE
    }
  }
  attr {
    key: "Tpaddings"
    value {
      type: DT_INT32
    }
  }
}
node {
  name: "gradients/AddN_133"
  op: "AddN"
  input: "gradients/Slice_grad/Pad"
  input: "gradients/Slice_1_grad/Pad"
  input: "gradients/Slice_2_grad/Pad"
  input: "gradients/Slice_3_grad/Pad"
  input: "gradients/Slice_4_grad/Pad"
  input: "gradients/Slice_5_grad/Pad"
  attr {
    key: "N"
    value {
      i: 6
    }
  }
  attr {
    key: "T"
    value {
      type: DT_DOUBLE
    }
  }
  attr {
    key: "_class"
    value {
      list {
        s: "loc:@gradients/Slice_grad/Pad"
      }
    }
  }
}
node {
  name: "gradients/Reshape_7_grad/Shape"
  op: "Shape"
  input: "o_rmat"
  attr {
    key: "T"
    value {
      type: DT_DOUBLE
    }
  }
  attr {
    key: "out_type"
    value {
      type: DT_INT32
    }
  }
}
node {
  name: "gradients/Reshape_7_grad/Reshape"
  op: "Reshape"
  input: "gradients/AddN_133"
  input: "gradients/Reshape_7_grad/Shape"
  attr {
    key: "T"
    value {
      type: DT_DOUBLE
    }
  }
  attr {
    key: "Tshape"
    value {
      type: DT_INT32
    }
  }
}
node {
  name: "strided_slice_85/stack"
  op: "Const"
  attr {
    key: "dtype"
    value {
      type: DT_INT32
    }
  }
  attr {
    key: "value"
    value {
      tensor {
        dtype: DT_INT32
        tensor_shape {
          dim {
            size: 1
          }
        }
        int_val: 0
      }
    }
  }
}
node {
  name: "strided_slice_85/stack_1"
  op: "Const"
  attr {
    key: "dtype"
    value {
      type: DT_INT32
    }
  }
  attr {
    key: "value"
    value {
      tensor {
        dtype: DT_INT32
        tensor_shape {
          dim {
            size: 1
          }
        }
        int_val: 1
      }
    }
  }
}
node {
  name: "strided_slice_85/stack_2"
  op: "Const"
  attr {
    key: "dtype"
    value {
      type: DT_INT32
    }
  }
  attr {
    key: "value"
    value {
      tensor {
        dtype: DT_INT32
        tensor_shape {
          dim {
            size: 1
          }
        }
        int_val: 1
      }
    }
  }
}
node {
  name: "strided_slice_85"
  op: "StridedSlice"
  input: "t_natoms"
  input: "strided_slice_85/stack"
  input: "strided_slice_85/stack_1"
  input: "strided_slice_85/stack_2"
  attr {
    key: "Index"
    value {
      type: DT_INT32
    }
  }
  attr {
    key: "T"
    value {
      type: DT_INT32
    }
  }
  attr {
    key: "begin_mask"
    value {
      i: 0
    }
  }
  attr {
    key: "ellipsis_mask"
    value {
      i: 0
    }
  }
  attr {
    key: "end_mask"
    value {
      i: 0
    }
  }
  attr {
    key: "new_axis_mask"
    value {
      i: 0
    }
  }
  attr {
    key: "shrink_axis_mask"
    value {
      i: 1
    }
  }
}
node {
  name: "mul_2/y"
  op: "Const"
  attr {
    key: "dtype"
    value {
      type: DT_INT32
    }
  }
  attr {
    key: "value"
    value {
      tensor {
        dtype: DT_INT32
        tensor_shape {
        }
        int_val: 588
      }
    }
  }
}
node {
  name: "mul_2"
  op: "Mul"
  input: "strided_slice_85"
  input: "mul_2/y"
  attr {
    key: "T"
    value {
      type: DT_INT32
    }
  }
}
node {
  name: "Reshape_49/shape/0"
  op: "Const"
  attr {
    key: "dtype"
    value {
      type: DT_INT32
    }
  }
  attr {
    key: "value"
    value {
      tensor {
        dtype: DT_INT32
        tensor_shape {
        }
        int_val: -1
      }
    }
  }
}
node {
  name: "Reshape_49/shape"
  op: "Pack"
  input: "Reshape_49/shape/0"
  input: "mul_2"
  attr {
    key: "N"
    value {
      i: 2
    }
  }
  attr {
    key: "T"
    value {
      type: DT_INT32
    }
  }
  attr {
    key: "axis"
    value {
      i: 0
    }
  }
}
node {
  name: "Reshape_49"
  op: "Reshape"
  input: "gradients/Reshape_7_grad/Reshape"
  input: "Reshape_49/shape"
  attr {
    key: "T"
    value {
      type: DT_DOUBLE
    }
  }
  attr {
    key: "Tshape"
    value {
      type: DT_INT32
    }
  }
}
node {
  name: "ProdForceSeAMask"
  op: "ProdForceSeAMask"
  input: "Reshape_49"
  input: "o_rmat_deriv"
  input: "Reshape_2"
  input: "o_nlist"
  attr {
    key: "T"
    value {
      type: DT_DOUBLE
    }
  }
  attr {
    key: "total_atom_num"
    value {
      i: 147
    }
  }
}
node {
  name: "zeros"
  op: "Const"
  attr {
    key: "dtype"
    value {
      type: DT_DOUBLE
    }
  }
  attr {
    key: "value"
    value {
      tensor {
        dtype: DT_DOUBLE
        tensor_shape {
          dim {
            size: 1
          }
          dim {
            size: 9
          }
        }
        double_val: 0.0
      }
    }
  }
}
node {
  name: "strided_slice_86/stack"
  op: "Const"
  attr {
    key: "dtype"
    value {
      type: DT_INT32
    }
  }
  attr {
    key: "value"
    value {
      tensor {
        dtype: DT_INT32
        tensor_shape {
          dim {
            size: 1
          }
        }
        int_val: 1
      }
    }
  }
}
node {
  name: "strided_slice_86/stack_1"
  op: "Const"
  attr {
    key: "dtype"
    value {
      type: DT_INT32
    }
  }
  attr {
    key: "value"
    value {
      tensor {
        dtype: DT_INT32
        tensor_shape {
          dim {
            size: 1
          }
        }
        int_val: 2
      }
    }
  }
}
node {
  name: "strided_slice_86/stack_2"
  op: "Const"
  attr {
    key: "dtype"
    value {
      type: DT_INT32
    }
  }
  attr {
    key: "value"
    value {
      tensor {
        dtype: DT_INT32
        tensor_shape {
          dim {
            size: 1
          }
        }
        int_val: 1
      }
    }
  }
}
node {
  name: "strided_slice_86"
  op: "StridedSlice"
  input: "t_natoms"
  input: "strided_slice_86/stack"
  input: "strided_slice_86/stack_1"
  input: "strided_slice_86/stack_2"
  attr {
    key: "Index"
    value {
      type: DT_INT32
    }
  }
  attr {
    key: "T"
    value {
      type: DT_INT32
    }
  }
  attr {
    key: "begin_mask"
    value {
      i: 0
    }
  }
  attr {
    key: "ellipsis_mask"
    value {
      i: 0
    }
  }
  attr {
    key: "end_mask"
    value {
      i: 0
    }
  }
  attr {
    key: "new_axis_mask"
    value {
      i: 0
    }
  }
  attr {
    key: "shrink_axis_mask"
    value {
      i: 1
    }
  }
}
node {
  name: "zeros_1/packed/0"
  op: "Const"
  attr {
    key: "dtype"
    value {
      type: DT_INT32
    }
  }
  attr {
    key: "value"
    value {
      tensor {
        dtype: DT_INT32
        tensor_shape {
        }
        int_val: 1
      }
    }
  }
}
node {
  name: "zeros_1/packed/2"
  op: "Const"
  attr {
    key: "dtype"
    value {
      type: DT_INT32
    }
  }
  attr {
    key: "value"
    value {
      tensor {
        dtype: DT_INT32
        tensor_shape {
        }
        int_val: 9
      }
    }
  }
}
node {
  name: "zeros_1/packed"
  op: "Pack"
  input: "zeros_1/packed/0"
  input: "strided_slice_86"
  input: "zeros_1/packed/2"
  attr {
    key: "N"
    value {
      i: 3
    }
  }
  attr {
    key: "T"
    value {
      type: DT_INT32
    }
  }
  attr {
    key: "axis"
    value {
      i: 0
    }
  }
}
node {
  name: "zeros_1/Const"
  op: "Const"
  attr {
    key: "dtype"
    value {
      type: DT_DOUBLE
    }
  }
  attr {
    key: "value"
    value {
      tensor {
        dtype: DT_DOUBLE
        tensor_shape {
        }
        double_val: 0.0
      }
    }
  }
}
node {
  name: "zeros_1"
  op: "Fill"
  input: "zeros_1/packed"
  input: "zeros_1/Const"
  attr {
    key: "T"
    value {
      type: DT_DOUBLE
    }
  }
  attr {
    key: "index_type"
    value {
      type: DT_INT32
    }
  }
}
node {
  name: "strided_slice_87/stack"
  op: "Const"
  attr {
    key: "dtype"
    value {
      type: DT_INT32
    }
  }
  attr {
    key: "value"
    value {
      tensor {
        dtype: DT_INT32
        tensor_shape {
          dim {
            size: 1
          }
        }
        int_val: 1
      }
    }
  }
}
node {
  name: "strided_slice_87/stack_1"
  op: "Const"
  attr {
    key: "dtype"
    value {
      type: DT_INT32
    }
  }
  attr {
    key: "value"
    value {
      tensor {
        dtype: DT_INT32
        tensor_shape {
          dim {
            size: 1
          }
        }
        int_val: 2
      }
    }
  }
}
node {
  name: "strided_slice_87/stack_2"
  op: "Const"
  attr {
    key: "dtype"
    value {
      type: DT_INT32
    }
  }
  attr {
    key: "value"
    value {
      tensor {
        dtype: DT_INT32
        tensor_shape {
          dim {
            size: 1
          }
        }
        int_val: 1
      }
    }
  }
}
node {
  name: "strided_slice_87"
  op: "StridedSlice"
  input: "t_natoms"
  input: "strided_slice_87/stack"
  input: "strided_slice_87/stack_1"
  input: "strided_slice_87/stack_2"
  attr {
    key: "Index"
    value {
      type: DT_INT32
    }
  }
  attr {
    key: "T"
    value {
      type: DT_INT32
    }
  }
  attr {
    key: "begin_mask"
    value {
      i: 0
    }
  }
  attr {
    key: "ellipsis_mask"
    value {
      i: 0
    }
  }
  attr {
    key: "end_mask"
    value {
      i: 0
    }
  }
  attr {
    key: "new_axis_mask"
    value {
      i: 0
    }
  }
  attr {
    key: "shrink_axis_mask"
    value {
      i: 1
    }
  }
}
node {
  name: "mul_3/x"
  op: "Const"
  attr {
    key: "dtype"
    value {
      type: DT_INT32
    }
  }
  attr {
    key: "value"
    value {
      tensor {
        dtype: DT_INT32
        tensor_shape {
        }
        int_val: 3
      }
    }
  }
}
node {
  name: "mul_3"
  op: "Mul"
  input: "mul_3/x"
  input: "strided_slice_87"
  attr {
    key: "T"
    value {
      type: DT_INT32
    }
  }
}
node {
  name: "o_force/shape/0"
  op: "Const"
  attr {
    key: "dtype"
    value {
      type: DT_INT32
    }
  }
  attr {
    key: "value"
    value {
      tensor {
        dtype: DT_INT32
        tensor_shape {
        }
        int_val: -1
      }
    }
  }
}
node {
  name: "o_force/shape"
  op: "Pack"
  input: "o_force/shape/0"
  input: "mul_3"
  attr {
    key: "N"
    value {
      i: 2
    }
  }
  attr {
    key: "T"
    value {
      type: DT_INT32
    }
  }
  attr {
    key: "axis"
    value {
      i: 0
    }
  }
}
node {
  name: "o_force"
  op: "Reshape"
  input: "ProdForceSeAMask"
  input: "o_force/shape"
  attr {
    key: "T"
    value {
      type: DT_DOUBLE
    }
  }
  attr {
    key: "Tshape"
    value {
      type: DT_INT32
    }
  }
}
node {
  name: "o_virial/shape"
  op: "Const"
  attr {
    key: "dtype"
    value {
      type: DT_INT32
    }
  }
  attr {
    key: "value"
    value {
      tensor {
        dtype: DT_INT32
        tensor_shape {
          dim {
            size: 2
          }
        }
        tensor_content: "\377\377\377\377\t\000\000\000"
      }
    }
  }
}
node {
  name: "o_virial"
  op: "Reshape"
  input: "zeros"
  input: "o_virial/shape"
  attr {
    key: "T"
    value {
      type: DT_DOUBLE
    }
  }
  attr {
    key: "Tshape"
    value {
      type: DT_INT32
    }
  }
}
node {
  name: "strided_slice_88/stack"
  op: "Const"
  attr {
    key: "dtype"
    value {
      type: DT_INT32
    }
  }
  attr {
    key: "value"
    value {
      tensor {
        dtype: DT_INT32
        tensor_shape {
          dim {
            size: 1
          }
        }
        int_val: 1
      }
    }
  }
}
node {
  name: "strided_slice_88/stack_1"
  op: "Const"
  attr {
    key: "dtype"
    value {
      type: DT_INT32
    }
  }
  attr {
    key: "value"
    value {
      tensor {
        dtype: DT_INT32
        tensor_shape {
          dim {
            size: 1
          }
        }
        int_val: 2
      }
    }
  }
}
node {
  name: "strided_slice_88/stack_2"
  op: "Const"
  attr {
    key: "dtype"
    value {
      type: DT_INT32
    }
  }
  attr {
    key: "value"
    value {
      tensor {
        dtype: DT_INT32
        tensor_shape {
          dim {
            size: 1
          }
        }
        int_val: 1
      }
    }
  }
}
node {
  name: "strided_slice_88"
  op: "StridedSlice"
  input: "t_natoms"
  input: "strided_slice_88/stack"
  input: "strided_slice_88/stack_1"
  input: "strided_slice_88/stack_2"
  attr {
    key: "Index"
    value {
      type: DT_INT32
    }
  }
  attr {
    key: "T"
    value {
      type: DT_INT32
    }
  }
  attr {
    key: "begin_mask"
    value {
      i: 0
    }
  }
  attr {
    key: "ellipsis_mask"
    value {
      i: 0
    }
  }
  attr {
    key: "end_mask"
    value {
      i: 0
    }
  }
  attr {
    key: "new_axis_mask"
    value {
      i: 0
    }
  }
  attr {
    key: "shrink_axis_mask"
    value {
      i: 1
    }
  }
}
node {
  name: "mul_4/x"
  op: "Const"
  attr {
    key: "dtype"
    value {
      type: DT_INT32
    }
  }
  attr {
    key: "value"
    value {
      tensor {
        dtype: DT_INT32
        tensor_shape {
        }
        int_val: 9
      }
    }
  }
}
node {
  name: "mul_4"
  op: "Mul"
  input: "mul_4/x"
  input: "strided_slice_88"
  attr {
    key: "T"
    value {
      type: DT_INT32
    }
  }
}
node {
  name: "o_atom_virial/shape/0"
  op: "Const"
  attr {
    key: "dtype"
    value {
      type: DT_INT32
    }
  }
  attr {
    key: "value"
    value {
      tensor {
        dtype: DT_INT32
        tensor_shape {
        }
        int_val: -1
      }
    }
  }
}
node {
  name: "o_atom_virial/shape"
  op: "Pack"
  input: "o_atom_virial/shape/0"
  input: "mul_4"
  attr {
    key: "N"
    value {
      i: 2
    }
  }
  attr {
    key: "T"
    value {
      type: DT_INT32
    }
  }
  attr {
    key: "axis"
    value {
      i: 0
    }
  }
}
node {
  name: "o_atom_virial"
  op: "Reshape"
  input: "zeros_1"
  input: "o_atom_virial/shape"
  attr {
    key: "T"
    value {
      type: DT_DOUBLE
    }
  }
  attr {
    key: "Tshape"
    value {
      type: DT_INT32
    }
  }
}
library {
}
versions {
}
